experiments/neural_networks/mlartifacts/408745732833894938/models/m-5fb88ec8f94b49eda0f196987c06b775/artifacts/data/model.pth (torch, 13029 bytes, 9 tensors)

weight f4 [32, 15]
000000 c9 b7 99 be ff dd 08 3e b4 6c 9e be d4 92 ec bd
       -0.3002303 0.13365935 -0.3094231 -0.11551443
000010 4b e8 a0 3e ba c9 17 3e 73 56 ae bd dc 33 e9 3e
       0.31427225 0.14823046 -0.08512583 0.45547378
000020 f5 0d a3 3e 3d 73 36 3f 5f e5 75 3f b3 7b 16 3f
       0.31846586 0.7126959 0.9605312 0.587825
000030 6b e6 34 3f 4e 18 2a 3f 80 e0 7d 3f a3 3e c0 3d
       0.7066409 0.66443336 0.99170685 0.09386947
000040 1c 00 4a 3e 53 b9 c3 3e f2 d2 5b 3e dd 95 81 3e
       0.19726604 0.3822733 0.21467188 0.2530965
000050 d9 67 a4 3e 81 a5 fe 3d 6d da 0e 3f 97 78 87 3e
       0.3211048 0.12433911 0.5580204 0.2645919
000060 25 4a c2 3e 30 39 03 3f c6 d4 b1 3e 6f b4 33 3f
       0.37947193 0.51259136 0.34732646 0.70197195
000070 2e 6d f6 3e ad 3f 03 3e da 97 9a be 28 f1 01 be
       0.48130172 0.12817259 -0.3019398 -0.1268965
000080 a3 7f aa bd fe 04 79 3e 52 b7 6c bd 9a 0c 1d 3d
       -0.08325126 0.2431831 -0.057792015 0.038342096
000090 de 79 34 3e 10 f7 79 3e 8a fb 5b 3f bd 4c 6f 3e
       0.17624614 0.24410653 0.85930693 0.23369117
0000a0 4f 4e 4f 3f 21 00 01 3f 50 69 24 3f 4d ad ff 3e
       0.80978864 0.5039082 0.64223194 0.49936906
0000b0 a6 b7 9e 3f 68 ca 06 bf 9c 73 6f be aa fb 53 3e
       1.2399795 -0.526526 -0.23383945 0.20701471
0000c0 d9 b1 03 3f fc f5 c7 3d df f9 98 3e f7 e1 1f 3e
       0.5144325 0.09763715 0.29878137 0.15613542
0000d0 a4 8a d6 bc 11 ff 23 3f f6 38 08 3f 70 eb 02 3f
       -0.026189156 0.64061075 0.53211915 0.511405
0000e0 50 c1 1c 3f 28 5c 19 3f d2 52 3c 3f d5 c7 9a 3f
       0.6123247 0.59906244 0.73563874 1.2092234
0000f0 35 d1 d0 bd cc 00 4e 3d 62 d3 e9 bc b4 27 3e bd
       -0.10196153 0.05029373 -0.028543178 -0.046424583
000100 9d 9d 3c 3e 78 b1 e9 3c f0 8d 95 bc db 36 12 3d
       0.184195 0.028527007 -0.018256158 0.035696846
000110 31 eb 54 3f 80 cf 22 3f a3 0a 6d 3e ee 51 17 3f
       0.83171374 0.6359787 0.23148589 0.5910939
000120 6f a5 86 3f ed 1a 51 3f 5a 80 8e 3f fb 27 9d 3e
       1.0519236 0.8168171 1.113292 0.30694565
000130 8e d8 c4 bd 08 ff b2 3e b4 b9 25 3f 21 e6 f7 bd
       -0.09611617 0.34960198 0.64736485 -0.121044405
000140 83 24 a6 bd 1f 6e cf 3d 2c e9 f1 3e b8 d8 8b 3e
       -0.08112433 0.10128426 0.4724821 0.2731378
000150 dc af d5 3e f5 1f 0a 3f b1 7d 11 3f d3 4d 8c 3e
       0.41735733 0.5395501 0.56832415 0.27403125
000160 58 ee 2d 3f a1 20 34 3f 1c 0f a5 bd 8e 5f 0d 3e
       0.6794181 0.7036229 -0.080595225 0.13805982
000170 9a 49 b5 3d 64 b2 fe 3e 24 b8 23 3f 3d a3 cc 3e
       0.08851929 0.49745476 0.6395285 0.3996829
000180 7f d5 35 3d 6d 62 16 3f ca df 80 3e 06 d4 0d be
       0.04439306 0.58743936 0.25170738 -0.13850412
000190 94 fb f9 3d 88 8c e5 be f8 7c ba 3e f7 5b d6 be
       0.12206188 -0.4483378 0.3642347 -0.4186704
0001a0 22 64 b9 3e 2b a3 62 3d d7 ef 0a 3e 50 da 97 be
       0.36209208 0.05533139 0.13568054 -0.29658747
0001b0 74 b4 a1 bc f6 3a ce 3e 9a 0a d1 3e 70 26 0c be
       -0.019739367 0.4027936 0.408284 -0.13686538
0001c0 7e 08 e6 3e 79 74 e1 3e 0b 70 00 3f 65 b7 49 3f
       0.44928354 0.44034174 0.50170964 0.7879546
0001d0 f3 9e 58 3f 3c bb 5c 3e a6 cf 4b 3f b0 d4 29 3f
       0.8461754 0.21555799 0.7961372 0.6634016
0001e0 48 fd fd bc 41 11 a1 3e 9a d6 30 be a8 97 e5 bd
       -0.031004563 0.31458476 -0.17269364 -0.11210567
0001f0 47 56 53 be a5 36 e6 3c bd cf 81 3d 54 17 bf 3a
       -0.20638381 0.028102228 0.06338451 0.0014579096
000200 1a da 4d be cd b3 24 be 0b 4f 9f 3d 11 24 ae be
       -0.2010273 -0.16084214 0.07778748 -0.3401189
000210 e4 ae be bd 36 54 0e bd a3 99 3a be 03 69 47 3e
       -0.093107015 -0.03474828 -0.1822267 0.19473653
000220 07 7a 01 3e fa c8 c7 3e 79 36 aa 3e 95 40 e0 3d
       0.12644206 0.3902052 0.33244684 0.10949818
000230 67 e9 eb 3e 40 43 0f 3e 0a b8 16 3e af 0d 3c be
       0.4607651 0.13990498 0.14718643 -0.18364595
000240 30 c7 e2 3e 90 53 8d bd 5b 95 91 3e 12 0a 0e 3f
       0.44292593 -0.06900704 0.28434262 0.55484116
000250 10 45 fc bd 38 bc 13 3e 1f 9f 63 be a0 d9 a4 3e
       -0.1231786 0.14427269 -0.22228669 0.32197285
000260 f5 7b 97 3e 0c d6 97 3e 9d 67 fd 3e 3e 90 39 bd
       0.2958676 0.29655492 0.49493113 -0.045303576
000270 24 7f 90 be d3 9d b7 3e 9e ae 49 3f 92 3b 77 3f
       -0.28222 0.35862598 0.7878207 0.9657527
000280 59 87 07 3f 37 e0 70 3f fc e7 39 3f 12 fa 6c 3f
       0.529409 0.94092125 0.72619605 0.92569077
000290 a4 4b 1c 3e ed f7 a9 3e 9a e1 60 be c3 6a a8 3e
       0.1526323 0.33196965 -0.2196106 0.32893953
0002a0 70 6e 98 3e 5c c5 c4 bd 91 45 47 3e 91 51 c3 3d
       0.29771757 -0.09607956 0.19460131 0.09537042
0002b0 1d 93 95 bc 22 0a 10 3f e8 5b 0b 3f 61 1c 45 3f
       -0.018258626 0.5626546 0.5443711 0.7699643
0002c0 77 7d fb 3e c6 39 35 3f 74 51 25 3f 46 fb 01 3f
       0.4911916 0.7079128 0.6457741 0.5077404
0002d0 e8 ed 24 be 0c 53 ec be 9f 0a ae be 9d 13 8c be
       -0.16106379 -0.4615711 -0.33992478 -0.27358714
0002e0 30 5e 99 be e1 b2 33 be 09 36 39 bd e2 80 60 be
       -0.29954672 -0.17548706 -0.045217548 -0.21924165
0002f0 0d de 7e 3e 3e 0f f5 3d 72 58 7b 3e 7d 2c f8 3d
       0.24889393 0.11965798 0.24545458 0.121178605
000300 b0 a4 8c 3c 90 59 89 3e 3c 46 d1 3d ea d8 15 bf
       0.017168373 0.26826143 0.10218474 -0.5853411
000310 15 0c 1f bf ec d1 38 be b1 ab 8a bd a9 58 f5 3d
       -0.6212781 -0.18048829 -0.06771029 0.11979801
000320 d4 ea 01 3f 92 be 2a be 39 1c 04 3f 73 22 a3 3e
       0.50748944 -0.1667426 0.51605564 0.3186222
000330 ff 00 ef 3d b2 c1 8d 3d d7 30 60 be 72 71 c0 3c
       0.11670112 0.0692171 -0.21893631 0.023491595
000340 c1 1d 49 be 04 c8 3d be ec da 3e be 42 f5 49 be
       -0.19640256 -0.18533331 -0.186382 -0.19722465
000350 fc fe 49 be 28 3e 87 3e ab 38 14 3e f3 61 0b 3d
       -0.19726175 0.2641461 0.14474742 0.03402896
000360 16 8e 8f 3e c3 b9 c3 be 3c 71 c7 bb 63 e2 07 3e
       0.2803809 -0.38227662 -0.0060864966 0.13269953
000370 01 7b 20 3e 43 41 ba be 3b fc 09 3d 89 e1 90 be
       0.15671922 -0.36377916 0.03368781 -0.2829707
000380 8b 04 dc bd 1c 40 a7 be 03 a8 a6 be 7c 60 f3 be
       -0.10743054 -0.326661 -0.32550058 -0.4753455
000390 bf 87 d8 be 3d 65 59 3e 7e e2 a0 be 9b 54 56 be
       -0.42291066 0.21230026 -0.314228 -0.20930712
0003a0 62 4e 0f be 3f 1b ca 3e 76 b7 ae bd b6 26 03 3f
       -0.13994744 0.39473912 -0.08531086 0.51230943
0003b0 b8 dc 31 3f b4 6a 81 3d 39 6f d8 3d b8 a1 aa 3d
       0.69477415 0.0631918 0.10568089 0.08331627
0003c0 45 60 31 3e 48 e4 ad 3e 4b a5 4b be 03 f6 0b bd
       0.1732188 0.33963227 -0.19887273 -0.034170162
0003d0 36 37 b6 3e 7c c7 00 3e 85 f9 ac 3c 9d 0a 05 3e
       0.35588998 0.12576097 0.021115074 0.1299233
0003e0 68 a8 04 3f df a0 4f 3f 73 f3 e3 3e ac 4d 64 3f
       0.5181947 0.81104845 0.44521675 0.8918102
0003f0 13 e6 53 3f 57 ec 2d 3f 13 bc 15 3f 3e 0f 11 bc
       0.8277294 0.6793875 0.58490103 -0.008853732

bias f4 [32]
000000 c0 1f 18 3f c2 da fb 3e 2b 51 07 3f e6 13 18 3f
       0.59423447 0.49190336 0.5285823 0.5940536
000010 6f cb 13 3f 23 bb 06 3f 47 1f 17 3e 08 8c 16 3f
       0.5773229 0.526293 0.14758025 0.5880742
000020 79 3a 0a bd df dd 97 3e 68 ef 27 3f 38 bf 1c 3f
       -0.03374717 0.29661462 0.6559968 0.61229277
000030 63 25 a8 3e 23 b4 6b 3d e8 3b ce bd 59 27 c3 3e
       0.32841024 0.05754484 -0.1007002 0.38115957
000040 45 ed 22 3f 01 26 f6 3e 9a 9a 16 3e 28 bb fe 3e
       0.63643295 0.4807587 0.14707413 0.49752164
000050 b7 d6 06 3f 61 50 01 3f 73 f7 19 3f 72 78 08 3f
       0.5267138 0.50513273 0.601432 0.53308785
000060 86 d2 f2 3e a5 01 cb 3e 19 3d 0c 3f 6e 29 cf 3e
       0.47426242 0.39649692 0.5478073 0.40461296
000070 d2 25 e9 3e 56 8a 15 3f b7 76 25 3f 4e 4c 1a 3f
       0.45536667 0.5841421 0.6463427 0.6027268

weight f4 [16, 32]
000000 2d b0 81 3d a0 2e e7 bd 25 c3 36 be 80 00 9c be
       0.06332431 -0.1128819 -0.17847879 -0.3046913
000010 26 f9 a4 3d ee 46 96 3e 4b cc 5c be 9f de c1 3d
       0.08055334 0.2935099 -0.21562307 0.0946629
000020 34 ee 0e 3e ce 54 74 3e bc 19 dc bd 16 4d 60 bd
       0.13958055 0.23860475 -0.10747096 -0.054761015
000030 bc 5a 48 3e 90 7b 34 3e e9 08 9c 3e ba 9d 32 be
       0.19565862 0.1762526 0.30475548 -0.1744298
000040 14 91 8e 3d 12 6d 61 3e 2a 76 9d be 31 55 45 3b
       0.06961265 0.22014263 -0.30754215 0.0030110592
000050 ca cf 0b be d7 c5 22 3e f6 99 22 be 7f c5 8d bc
       -0.13653484 0.15895782 -0.15879044 -0.017306088
000060 95 c7 19 3e b4 26 ca be b9 e1 b7 be f7 70 6b be
       0.15017541 -0.39482653 -0.359144 -0.22992311
000070 38 64 2e 3e 45 2a 22 3e 20 7e 9b be 68 51 5a 3b
       0.17030418 0.15836437 -0.30369663 0.0033312682
000080 d1 d6 81 3e 3e 17 13 3e 39 b9 36 3f 6d 0e 1f 3f
       0.25359204 0.14364335 0.7137638 0.62131387
000090 42 30 96 3e d0 c1 cc 3e c8 7a ed 3e f0 c6 07 3f
       0.29333693 0.39991617 0.46382737 0.5303793
0000a0 03 54 ab bd 77 5e 8a 3c d1 f0 29 3f 19 e6 e7 3e
       -0.08365633 0.016890747 0.6638308 0.45292738
0000b0 15 40 a8 3e d1 c0 01 3d c3 46 8b 3e 7f e9 e5 3e
       0.3286139 0.031678025 0.27202424 0.44904706
0000c0 f4 ea 25 3f a8 71 c7 3e 80 76 08 3f 9f 33 e7 3e
       0.64811635 0.389539 0.53305817 0.4515657
0000d0 ac 16 d4 3e 1d 10 45 3f 34 17 32 3f 14 a9 23 3e
       0.41423547 0.7697771 0.69566655 0.15982467
0000e0 57 1c 2a 3f ed 04 c6 3e ab a3 9b 3e 74 53 15 3f
       0.66449493 0.38675633 0.30398306 0.58330464
0000f0 7c d5 b0 3d 3c 77 25 3f 32 bf 3a 3f 4d 6b 06 3e
       0.08634469 0.6463506 0.7294799 0.1312687
000100 d0 39 be 3d 9e d4 3d 3f 06 c8 09 3f 46 d4 ae 3e
       0.092883706 0.74152553 0.53820837 0.34146327
000110 a3 fc 79 3e 10 91 ad bf c6 ea 7f 3e ad f0 bc bd
       0.2441278 -1.3559895 0.24991903 -0.09225593
000120 f2 f5 48 3e 5e 32 16 3e a7 3c d4 be 40 3e af be
       0.1962507 0.14667651 -0.41452524 -0.3422718
000130 64 7a 0b 3f 8b 23 4f 3f 30 14 a3 3c d5 f3 25 3f
       0.5448363 0.8091361 0.019907087 0.64825183
000140 68 7d 41 bf 1c cc b5 3f e6 7c dc 3e b9 05 dd 3d
       -0.7558198 1.4202914 0.4306404 0.10792107
000150 65 5e b7 3f f3 db f4 3b 6b 1c 3a bf c0 2d 4a be
       1.4325682 0.007472509 -0.7269961 -0.19744015
000160 78 ce 2e bf 83 11 1d 3f 3e 90 9a bf d4 5b 4f be
       -0.68283796 0.61354846 -1.2075269 -0.20249873
000170 1a 5b 2b bf 7f ab 15 3f d2 fd 71 bf 4b b7 2e bf
       -0.66935885 0.5846481 -0.94527924 -0.6824843
000180 77 73 38 3f 57 01 83 3e e9 9b 66 3e 31 d2 9c 3e
       0.72051185 0.2558696 0.22520413 0.30629113
000190 39 15 c8 3d c7 df 18 3f db fb 98 3e 2e cb 5e 3e
       0.09769673 0.5971646 0.2987965 0.21757194
0001a0 a3 84 6e be 46 d1 cd 3e 6a 6e b7 3e 2b 3a b0 3e
       -0.23292784 0.40198725 0.35826427 0.3441938
0001b0 bf aa 89 3d 10 0c 52 bb 7c fc 1d 3e 14 a4 ed 3e
       0.0672202 -0.0032050647 0.15428346 0.46414244
0001c0 68 27 51 3e 8e 0e 92 3e 47 1d f6 bd 9b 7f 78 3e
       0.20425189 0.2852673 -0.12017303 0.24267428
0001d0 79 c7 1f 3f ce ad d7 3e 0b 15 29 3f d1 46 61 3e
       0.62413746 0.4212479 0.66047734 0.2199967
0001e0 3a 45 03 3e e7 c6 d7 3c 24 0c 22 3f 18 5d c5 bc
       0.12819377 0.026339961 0.63299775 -0.024092242
0001f0 46 17 cc 3e 2f 38 f7 3e 1c e4 eb 3e c1 ee 09 3f
       0.39861506 0.48285052 0.4607247 0.53879935
000200 ef 25 a8 3e 3c 2f 02 3f 9f 7a 09 3e da a0 a0 3e
       0.3284144 0.50853324 0.13425682 0.3137272
000210 7c 72 24 3f ba 12 df 3e e9 73 a3 3e 09 63 b2 3e
       0.6423719 0.43568975 0.3192437 0.34841183
000220 a2 96 41 be b2 61 d7 3e 3e 86 ce 3e ed be c1 3e
       -0.18905118 0.42066723 0.40336794 0.37840977
000230 f8 d9 93 3e 19 cd e3 3e 6e d9 b0 bd 8a b1 b4 3d
       0.28877234 0.44492415 -0.086352214 0.088229254
000240 d7 f8 27 3f cb 29 f4 3e e1 46 bf bb 6f 15 99 3d
       0.65614074 0.47688136 -0.005837307 0.07474791
000250 11 84 c7 3e ce ac 1b 3f c2 e0 d7 3e bb 3a 0a 3f
       0.38967946 0.60810554 0.42163664 0.53995866
000260 8d 0c 3b 3d 93 a8 de 3e 38 76 d9 3d e1 75 e7 3e
       0.045666266 0.43487987 0.106182516 0.45207122
000270 e0 03 f8 3e e2 ab 07 3f ff 44 27 3f 96 42 f6 3d
       0.48440456 0.5299665 0.65339655 0.12024419
000280 70 b5 3b bd 4d 4b b6 bd 16 89 e8 3e 94 f3 c9 3e
       -0.04582733 -0.08901081 0.45417088 0.39443648
000290 9f e8 4c bd 5b c6 e8 3e a0 53 2c 3f 1e e0 89 bd
       -0.050026532 0.45463833 0.673151 -0.067322
0002a0 00 b8 96 3e 9d 45 2d 3e c9 95 c4 3e 8e 0f 14 3f
       0.29437256 0.16921087 0.38395527 0.57836235
0002b0 b3 8f b5 3e bc bb 4c 3e 6b 9a ba 3e 3b 13 3a 3e
       0.35461196 0.1999349 0.36445937 0.18171398
0002c0 68 b4 ab 3e 8a ea ea bd 6a a3 41 3d c7 86 82 3d
       0.33536077 -0.11470516 0.047274984 0.06373363
0002d0 d4 92 c9 3e 60 cf 9d 3e b6 17 9c 3e 4b 08 0c bd
       0.39369833 0.30822277 0.3048684 -0.034187596
0002e0 fd 5b bb bc 1b 25 b3 3e 03 c2 e9 3e 59 3b ce 3e
       -0.022871012 0.34989247 0.45655832 0.40279654
0002f0 2e 49 a6 bb 4e ec 40 3e 4a bb 33 3e 35 2e 0f 3f
       -0.0050746417 0.18840143 0.17551914 0.5592988
000300 a6 49 1c be 12 09 64 3e 96 9f 79 3e 65 8d a5 be
       -0.1526247 0.22269085 0.24377283 -0.32334438
000310 80 7e 0d 3b 30 e7 89 bd a0 24 48 be 66 4c 1c 3e
       0.0021590292 -0.06733549 -0.19545221 0.15263519
000320 90 f1 2f bd e1 7b 9e 3e f8 99 62 be ee 36 28 3e
       -0.04295498 0.30953887 -0.22129047 0.16427204
000330 90 8d 9a be 2d 76 35 be e0 90 c5 3c ab 05 8f 3e
       -0.3018613 -0.17720862 0.024116933 0.27934012
000340 56 b1 3e 3e e1 a1 94 be d0 67 20 3d 09 6b 55 be
       0.18622336 -0.29029754 0.039161503 -0.20841612
000350 20 fe 7a 3c 68 cd 96 be d2 6c d4 bd 6a 4f 78 3e
       0.015319377 -0.29453588 -0.10372318 0.24249044
000360 7f 17 a6 be 83 96 ac be f4 e2 83 3d f8 84 46 3d
       -0.324398 -0.3370858 0.06439772 0.048466653
000370 5c 6c 84 bd 7b 11 9e 3e bf fa 59 be 59 c9 5b be
       -0.064659804 0.30872712 -0.21287058 -0.21463527
000380 dc 93 a9 be 70 43 c4 bd 64 72 24 be 08 9b 17 3e
       -0.3312062 -0.09583175 -0.16059262 0.14805233
000390 c4 f8 b9 bd 15 73 a5 3d 95 72 16 be 03 8e 61 3e
       -0.090806514 0.08078591 -0.14692147 0.2202683
0003a0 4b 9a 98 3e 84 1d a2 be c4 a1 1c be b2 3e ba be
       0.29805216 -0.31663144 -0.15296084 -0.36375958
0003b0 86 4c ac 3d fa 36 b7 be 19 2d 2b be 79 67 90 3e
       0.08413033 -0.3578413 -0.16716422 0.28203943
0003c0 20 4a cf be 8f 8e 85 3e 39 5c 1c bd 43 f5 5f 3e
       -0.4048624 0.26085326 -0.038173888 0.21870904
0003d0 3e b0 5e be 9f ec 28 3e ca 9b 2a bc 20 c3 de 3c
       -0.21746919 0.16496514 -0.01041312 0.027192652
0003e0 80 f1 31 3e 1b d7 ce be 21 2d a1 be b2 6f a1 3e
       0.17377281 -0.40398487 -0.31479743 0.3153053
0003f0 ac 10 82 be d2 ef a6 be 73 62 a1 bd dc a6 27 be
       -0.25403345 -0.32604843 -0.07880106 -0.16372246

bias f4 [16]
000000 e8 e7 6d bd 05 f4 0c 3f 5b 12 00 3e b9 aa 0a 3f
       -0.05808249 0.55059844 0.12507002 0.5416675
000010 a3 a6 0b 3f 27 bf e3 3e 0a d7 23 3c 74 88 6f bd
       0.5455114 0.44481775 0.01 -0.05847974
000020 39 7e 81 bc 82 63 18 be af d6 ee bc f2 e7 55 bd
       -0.015807258 -0.14881709 -0.029155103 -0.052223153
000030 49 8f 0c 3f bf b6 0c 3f 8d 33 05 3f 91 9d 0d 3f
       0.54906136 0.5496635 0.52031785 0.5531855

weight f4 [8, 16]
000000 5e d3 fb bc 98 28 c3 3e f0 06 d3 be d3 ee 88 3e
       -0.030740436 0.38116908 -0.4121623 0.26744708
000010 74 2e 3d 3f 06 45 ea bd 44 8d 79 3e 46 46 87 be
       0.73899007 -0.114389464 0.24370295 -0.26420802
000020 45 10 d3 be f6 b8 65 3d 0a 7d 98 3e 1b cb c7 3e
       -0.4122335 0.056084596 0.29782897 0.39022145
000030 6d 4f f8 3e 32 f4 a0 3e 32 12 a3 3e ea 38 1c 3e
       0.48498097 0.31436306 0.3184982 0.15256086
000040 40 c8 37 bd 20 81 0d bd b0 d8 d9 3e 90 d2 95 3e
       -0.044868708 -0.03454697 0.42548132 0.2926221
000050 7a db cc be 00 8d 07 3b 38 75 9d be f8 8c a2 bd
       -0.40011197 0.0020683408 -0.30753493 -0.07937044
000060 ec 75 cb be a0 19 05 3e 92 98 b8 be 84 ba fc 3e
       -0.39738405 0.12998056 -0.36053902 0.4936105
000070 f4 54 c1 3e 4a 38 b0 be c8 03 f1 be 00 d1 9f 3c
       0.37760127 -0.34417945 -0.47073197 0.019508839
000080 e2 ca aa bd 0c df e3 3e 28 c2 5f bf da 5a ce 3e
       -0.08339478 0.4450611 -0.87405634 0.4030369
000090 f0 0d 57 be f3 cd e8 bd 64 94 86 be 67 db 94 3e
       -0.2100141 -0.11367407 -0.26285088 0.2907364
0000a0 00 7a 56 bc 74 c7 a4 be ec 34 92 be a8 ba 80 be
       -0.0130906105 -0.3218342 -0.28556 -0.25142407
0000b0 4c 74 2c be 0d 75 ba 3e e8 2c eb 3e 2b f9 50 3e
       -0.16841239 0.36417428 0.45932698 0.2040755
0000c0 db a4 0a be 68 b3 bd 3e 1f c3 6c bf 24 0e 31 3d
       -0.1353945 0.3705094 -0.9248523 0.043226376
0000d0 4f 06 aa 3e 6b 70 40 3f bc 71 1d be 4b 5e a4 3e
       0.33207938 0.75171536 -0.15375417 0.3210319
0000e0 3d 12 2f be 43 1d d2 3c 27 49 d8 be 1d d2 ee 3e
       -0.17096801 0.025648719 -0.4224331 0.4664468
0000f0 8a c6 59 3f af 33 b7 3e d2 3d 2b 3f 2b 50 45 3f
       0.8506857 0.3578162 0.66891205 0.7707545
000100 24 f7 48 3e b9 3c 3f 3e a8 b5 f3 be 34 a6 0c bf
       0.19625527 0.18675508 -0.4759953 -0.54941106
000110 cc 61 ed be 7c e1 b7 3d 1c 6f dd be 12 f6 e0 be
       -0.46363676 0.089785546 -0.43248832 -0.43937737
000120 16 4c 89 be 92 f3 eb be 58 27 1e bd b5 2c fc 3c
       -0.2681586 -0.46084267 -0.03861174 0.030783037
000130 44 4f b9 be 1c fe 80 3e a3 0d 84 be 1c 6b 56 be
       -0.36193287 0.2519387 -0.25791654 -0.20939296
000140 8e 8d a9 3e cc 99 b7 3e 90 f2 6a bd 9d 26 c7 be
       0.3311581 0.35859525 -0.057360232 -0.38896647
000150 a1 31 a5 be 5b 55 bd 3b b6 10 96 3e be 45 42 3e
       -0.32264426 0.0057779974 0.29309624 0.18971917
000160 18 17 62 be 8c 03 f2 be 55 6c ed be dc 8d 46 be
       -0.22079122 -0.4726833 -0.46371713 -0.19390053
000170 45 71 88 bd d1 62 98 be ce b0 ee be 49 8f 13 bc
       -0.066622294 -0.2976289 -0.46619266 -0.00900633
000180 98 32 cb be ae 96 c4 be 3a 1d d0 be 08 bd 0a be
       -0.39687037 -0.3839621 -0.40647298 -0.13548672
000190 34 1d e2 3e 94 26 48 3e 50 d4 72 bd 30 c0 d2 3d
       0.44162905 0.19545966 -0.05928451 0.10290563
0001a0 10 e2 4b 3e 00 ea 3e 3b a8 7b ce be 8e b9 9d be
       0.19910455 0.0029131174 -0.40328717 -0.3080563
0001b0 10 ea ad be 80 03 50 bc c4 57 ea be 50 2f ba bd
       -0.33967638 -0.012696147 -0.45770085 -0.090910554
0001c0 3b 49 00 be 73 08 60 3f f9 02 f5 bd e4 a7 25 3f
       -0.12527935 0.8751289 -0.119634576 0.64709306
0001d0 e8 1a c5 3e 3d 8e 1e 3e 98 98 02 3e 6b 2d 92 be
       0.3849709 0.15483947 0.12753522 -0.28550276
0001e0 89 f1 3f be b8 d6 6e 3d c2 9b 83 bd 6a 34 d8 be
       -0.18744482 0.05831024 -0.06426193 -0.4222749
0001f0 d2 78 14 3f e4 24 4a 3f a0 aa bd 3d 7e d2 03 3f
       0.5799686 0.7896254 0.0926106 0.5149306

bias f4 [8]
000000 15 3f 0f 3f 0a d7 23 3c 8e 0f 0b 3f 4f 83 0d 3f
       0.5595563 0.01 0.5432061 0.55278486
000010 7b 4c 76 bd 91 74 70 bd 0a d7 23 3c bc e0 08 3f
       -0.06013153 -0.058704916 0.01 0.5346792

weight f4 [4, 8]
000000 21 d8 84 3e 60 45 d3 bc 08 06 a1 3e 85 29 7a 3f
       0.25946143 -0.025789917 0.31449914 0.97719604
000010 10 75 29 3e d3 db c7 be ef 3a 82 be a5 e1 37 3f
       0.16548562 -0.390349 -0.25435588 0.7182868
000020 a4 35 0f 3f c0 2a 61 3c 50 ac 37 3e 56 8c ac 3d
       0.55941224 0.013743103 0.17936826 0.084252045
000030 78 2b 32 be 4d 28 ad be 10 4c ed 3d d0 85 11 3f
       -0.17399395 -0.3381981 0.115867734 0.56844807
000040 c0 95 34 3f 2c 94 23 be 3f 6b f4 3d 9d 14 21 3f
       0.70541 -0.15974492 0.11934518 0.6292208
000050 3d 96 7b 3e c7 4c 1b 3d 54 7e 5e 3e 31 f1 60 3e
       0.2456903 0.037915017 0.21727878 0.21967007
000060 f4 0c 2a bf e0 4f df 3c 9d e5 5b be 37 6e 13 3f
       -0.66426015 0.027259767 -0.2147431 0.5759005
000070 99 d7 14 3f 8b 8f ac 3d af cb 21 3f 48 df da be
       0.58141476 0.08425816 0.6320142 -0.42748475

bias f4 [4]
000000 4a 8b 04 3f 88 24 06 3f 29 3c de 3e f1 d2 4e bd
       0.5177504 0.5239949 0.43405274 -0.05049414

weight f4 [1, 4]
000000 ce 09 a6 3f 11 69 a0 3f e8 6c 91 3e cb d6 53 bf
       1.2971742 1.2532064 0.284034 -0.82749623
