experiments/neural_networks/mlartifacts/730589028942085756/models/m-a528748de8e6489f9f904f3aba38fe55/artifacts/data/model.pth (torch, 6845 bytes, 5 tensors)

weight f4 [8, 8]
0	0xbed27bab	-0.41109976
1	0x3f1b3096	0.6062101
2	0xbecd85cc	-0.4014114
3	0x3ebfcc6f	0.37460658
4	0x3e87f9e5	0.26557842
5	0x3e7f4a30	0.24930644
6	0xbea8456e	-0.3286547
7	0x3f1b3a60	0.6063595
8	0x3e378e01	0.17925264
9	0x3dff578a	0.124678686
10	0xbefcd80e	-0.49383587
11	0x3e9b216a	0.3029893
12	0xbd71789c	-0.058952913
13	0xbe8fa34b	-0.2805427
14	0x3f0f07ca	0.5587126
15	0x3e3db210	0.18524957
16	0xbe9859a9	-0.29755905
17	0xbe87d791	-0.26531652
18	0x3c669b85	0.014075165
19	0x3ec58544	0.38578236
20	0xbe4c4c25	-0.19950922
21	0xbec3bdf7	-0.3823087
22	0xbe79c5fc	-0.24391931
23	0xbefefbc6	-0.49801463
24	0x3e2cc222	0.16870931
25	0x3ed92524	0.4241115
26	0xbf20574b	-0.626332
27	0x3dbd4ca0	0.09243131
28	0x3e88a3c1	0.26687434
29	0x3d7b8c2c	0.061412975
30	0xbe87d1cc	-0.2652725
31	0x3e8a16c1	0.26970485
32	0x3eb8d8a5	0.36102787
33	0x3e89a49c	0.268834
34	0xbd8b2107	-0.06793409
35	0xbdfe11a5	-0.12405709
36	0x3dc9e265	0.098576345
37	0xbd840ce7	-0.064477734
38	0xbe086aad	-0.13321944
39	0x3ed82804	0.4221803
40	0x3f132ef8	0.57493544
41	0xbc39da45	-0.011343543
42	0xbdb2d49d	-0.08731959
43	0x3d6e42ff	0.05816936
44	0x3c3da6e6	0.011575436
45	0x3e4aa5d1	0.19789816
46	0x3e62e992	0.22159413
47	0xbf05e078	-0.5229564
48	0xbe8cc66d	-0.27495137
49	0x3eeef1d9	0.4666889
50	0x3e4209ae	0.18949005
51	0xbda31401	-0.079628
52	0xbebd0829	-0.36920288
53	0xbed6347c	-0.41836917
54	0xbf160fe7	-0.58618015
55	0xbe7af550	-0.24507642
56	0x3e39de11	0.18151118
57	0x3eb9a004	0.36254895
58	0x3e81eb24	0.2537471
59	0xbf119576	-0.56868684
60	0xbebc8c4a	-0.36825782
61	0xbd6513e0	-0.055927157
62	0x3f0d1904	0.55116296
63	0x3d8cff81	0.06884671

bias f4 [8]
0	0x3d78db81	0.06075621
1	0x3d700f4d	0.058608342
2	0xbcd195a2	-0.025584046
3	0xbd258c3f	-0.040416952
4	0x3d5a349d	0.053272832
5	0x3d78ec15	0.06077202
6	0xbd2128a3	-0.039345395
7	0xbcaf33db	-0.021387031

weight f4 [8, 8]
0	0xbe356703	-0.17715077
1	0x3e511812	0.20419338
2	0xbe8d4a8d	-0.2759594
3	0xbed44d1c	-0.4146508
4	0x3edb5710	0.4283986
5	0xbe8e9096	-0.27844685
6	0xbdfb69c4	-0.122760326
7	0xbf224cf6	-0.63398683
8	0x3eba4ef4	0.3638836
9	0x3ed505d1	0.41606
10	0x3e3b1d97	0.18273006
11	0xbef14820	-0.4712534
12	0xbf266445	-0.6499675
13	0xbf0bbc0a	-0.545838
14	0x3edf1525	0.4357082
15	0x3e7cf1fb	0.24701683
16	0x3eee4b39	0.46541765
17	0x3e8ad941	0.27118877
18	0x3de5eb81	0.112265594
19	0xbd6215f4	-0.055196717
20	0xbf0411b4	-0.5158951
21	0xbf12f759	-0.5740867
22	0xbf1c59f0	-0.61074734
23	0x3e4f43d1	0.20240714
24	0xbe99ef7d	-0.30065528
25	0xbdfc6610	-0.123241544
26	0xbeb470dd	-0.35242358
27	0xbde488a0	-0.11158872
28	0xbedcad3a	-0.4310091
29	0xbeccde55	-0.40013376
30	0x3e500174	0.20313054
31	0xbe3a5cde	-0.18199489
32	0x3ea88bde	0.3291921
33	0xbe779411	-0.24177577
34	0xbef52675	-0.47880903
35	0xbe1f44b4	-0.15553552
36	0xbeb05e07	-0.34446737
37	0xbe6f54a1	-0.23372127
38	0xbf1a9a1b	-0.60391396
39	0x3e98cad5	0.2984225
40	0xbef364e1	-0.47537902
41	0x3e83e3b3	0.25759658
42	0x3e6fb7e4	0.23409992
43	0x3ec8c824	0.39215195
44	0xbf05237a	-0.5200726
45	0x3ec7ca33	0.39021453
46	0xbea6e3cf	-0.3259568
47	0x3e36270c	0.17788333
48	0x3f202374	0.625541
49	0xbd122f1a	-0.03568945
50	0x3d2438e1	0.040093306
51	0xbdba87b1	-0.09107912
52	0xbeec704f	-0.46179435
53	0x3eb071ad	0.34461728
54	0xbf108142	-0.5644723
55	0x3edc45cf	0.4302201
56	0x3f023015	0.5085462
57	0x3f213fe5	0.6298812
58	0xbdcf0720	-0.10108781
59	0xbee851b6	-0.4537484
60	0x3e3edcf2	0.18638971
61	0x3ec73520	0.3890772
62	0xbf10847e	-0.5645217
63	0xbdb5a9c5	-0.088702716

bias f4 [8]
0	0xbd1e5fe2	-0.03866566
1	0xbd1894a9	-0.03725115
2	0xbd21c211	-0.039491717
3	0x3c23d70a	0.01
4	0xbd19473a	-0.037421443
5	0xbd220d00	-0.03956318
6	0x3d77a865	0.060463328
7	0x3d7818db	0.06057058

weight f4 [1, 8]
0	0xbee1cd65	-0.44102016
1	0xbcbf2ba2	-0.023336235
2	0xbeb53b65	-0.35396877
3	0xbeaae23e	-0.33375734
4	0xbe5bb331	-0.21455075
5	0xbf3a1b5f	-0.72698015
6	0x3f387675	0.7205575
7	0x3f3c3282	0.7351457
