experiments/neural_networks/mlartifacts/954866327486404750/models/m-943de3c54a3c45d98b302a97cfdb3599/artifacts/data/model.pth (torch, 9737 bytes, 3 tensors)

weight f4 [100, 9]
00000000: e4b7 963d 74c1 5fbe e3b0 313e 190b 20be
00000010: 5ebb b13d c705 b8bb 7d05 9dbd ab6e 04be
00000020: 6f00 18bc 3235 0dbf 2b13 1140 a9fb 39be
00000030: 0bad 96bf 2cc9 2dc0 6d6b a43f 7308 223f
00000040: 6484 673f 876a 683f 866f febe e1c6 2640
00000050: 9a5b 81be 6313 b7bf 99fb 37c0 7ead c83f
00000060: ba74 143f 4046 453f 5e9f 463f c0b6 b63e
00000070: 99fa 3940 0172 b63d 94c0 96bf 3b32 07c0
00000080: 307c 883f a85d a93f 7e20 2f3f 0a42 8d3f
00000090: 59ee 5a3e 60ab 17be 7fd0 1ebe c2d8 213d
000000a0: b668 d1bb 08b1 873d 0d45 64be c4c4 adbd
000000b0: f18b 24be 52b8 813e b54c 1b40 d4fb d13e
000000c0: e4e6 95bf 8bf3 26c0 f7e2 db3f 7701 bc3f
000000d0: 3dda 663f f7bb 103f 6952 753e 170e 1f40
000000e0: 5c2f c33e 4c98 b8bf c55b d4bf 7805 903f
000000f0: 28d2 b83f 1eaa 823f 165a a13f 941a 13bf
00000100: 8738 3440 0902 8fbe fe93 a8bf 873a 3bc0
00000110: 143f 983f 6242 3d3f 1908 543f 3da5 573f
00000120: 2950 d83e a3c5 2d40 b5e4 753e 64e1 64bf
00000130: 0db7 29c0 1bd6 ca3f 167d 9d3f 9a68 493f
00000140: 0b4c 853f 40e6 10bf dac6 1740 1665 5dbc
00000150: b421 afbf 481d 28c0 e6f3 983f a952 473f
00000160: 58d3 503f 0158 523f 63bc ea3e 683d 4d40
00000170: a056 443e 6875 cfbf 57d1 19c0 a2a0 9a3f
00000180: dda7 6c3f 62f3 323f 6083 813f 13ea 8abd
00000190: e83e c7bc 2303 f6bc 7fdb 8c3e 8a2e 11bd
000001a0: bc7e f7bd 460c 4dbc 58c0 bebd 7bfd 303d
000001b0: 6c47 ab3d 9688 183e a50d 6ebe 578b b73d
000001c0: 70b3 023e cc35 37be fa68 e13c 5a41 0b3d
000001d0: cf11 cabd 11bc 96be 4021 2540 1e66 a5be
000001e0: a740 aabf feae 2ec0 f281 8f3f 235a 533f
000001f0: 2216 493f f1f0 493f bc51 283e b8e5 aa3b
00000200: 0663 53be d476 583d fec3 85bc 0373 953b
00000210: f0c0 89bd 66b5 e73c 83b7 38be 3a83 de3d
00000220: 6e5e 2c40 b012 853e 90b5 a1bf 0445 06c0
00000230: f0c9 9d3f 2c1c 873f 12e4 1d3f 235a 7b3f
00000240: 9526 ba3d 5dee 16be 588c 2b3d 7677 23bd
00000250: 4994 c23d 0094 2b3d 3433 94be 2814 e8bd
00000260: 29b8 c6bd d515 9d3f 14c0 b23f 031c b1be
00000270: 7b2b 28c0 f161 ca3e 0eab 73c0 c0b6 7ec0
00000280: 6c2b 1e3f 69e1 77c0 45c1 493f 7f7a 3940
00000290: 56f7 8340 7a64 e6bf 9db7 49c0 4171 ce3f
000002a0: 1cf0 3d3f 85c7 223f 6db8 5740 756c 313e
000002b0: 21f6 0d40 2f2f 333f 3f7a 44be 5736 55c0
000002c0: f683 3840 34b8 a53f 4d21 9d3f d326 553e
000002d0: 4a89 00bf 86bc 2040 5eab 8cbe 7875 c7bf
000002e0: 0455 26c0 79a0 ad3f 7a30 183f a097 6c3f
000002f0: 2e98 6d3f a0a0 013f 2fed 0940 890c 8c3f
00000300: 1de1 d2be 746b 4ac0 6214 3640 016e 263f
00000310: ef95 483f 772e 243f 52bb 0e3e 4e21 d8bd
00000320: 6afa f43c 9221 8b3c 4390 863d fca0 ebbd
00000330: add0 713c af38 fc3c f4b2 26be b860 513e
00000340: 8516 0740 d037 6f3f 889e 30be fa40 61c0
00000350: 1843 2b40 fb2b b73f 073c 8a3f c0f5 673e
00000360: 3f69 b4be a643 1840 ffdf c5bd 42eb bbbf
00000370: ef0f 2dc0 bd54 9d3f 4df8 513f 9a3c 303f
00000380: 2bb3 313f bf78 69be 6bf6 89c0 de24 8d3f
00000390: 9ff0 613e bd3c bdc0 2ebb 1ac0 11bd 02c0
000003a0: 8074 68bf 75bd 08c0 aa82 4ebe c31b 4d40
000003b0: b0e2 d4bd a8a0 81bf cf62 4ec0 d062 ec3f
000003c0: 70ca b53f be3c a43e 1853 363d 3712 aabe
000003d0: daf2 1d40 19b9 72be f3db a0bf 2510 3ec0
000003e0: fdd2 973f 944c 373f a6d0 5e3f 0947 603f
000003f0: 42c9 6d3f fe2a 3240 ea8c 7540 e29e e3bf
0.07359293 -0.2185114 0.17352633 -0.15629233 0.086783156 -0.005615923 -0.076670624 -0.12932841
-0.009277447 -0.55159295 2.266795 -0.18162407 -1.1771559 -2.7154036 1.2845284 0.6329414
0.9043639 0.9078755 -0.4969446 2.6058886 -0.252652 -1.4302791 -2.8747313 1.5677946
0.5799061 0.7706032 0.77586925 0.35686302 2.9059203 0.08908463 -1.177752 -2.1124408
1.0662899 1.3231707 0.68408954 1.1035779 0.21379985 -0.14811468 -0.15509222 0.039513357
-0.0063906563 0.06625563 -0.22291966 -0.08484796 -0.16069008 0.25335938 2.4265568 0.41012442
-1.1711087 -2.6086147 1.7178639 1.4687947 0.90176755 0.5653681 0.23957218 2.485235
0.3812207 -1.4421477 -1.6590506 1.1251669 1.4439135 1.0208166 1.2605617 -0.5746243
2.8159502 -0.2793124 -1.3170164 -2.9254472 1.189425 0.7392942 0.82824856 0.8423651
0.42248657 2.7151878 0.24013026 -0.8940642 -2.6517975 1.584659 1.2303798 0.78675234
1.0413831 -0.56601334 2.371512 -0.01351287 -1.368216 -2.6267872 1.1949432 0.77860504
0.81572485 0.82165533 0.45846853 3.206873 0.1917367 -1.6207705 -2.403402 1.2080271
0.9244364 0.6990262 1.0118217 -0.06782927 -0.024321988 -0.030030793 0.27511212 -0.035444774
-0.120847195 -0.012515133 -0.093140304 0.043210488 0.08363232 0.14895853 -0.23247392 0.08962124
0.12763762 -0.17891616 0.027515877 0.03399787 -0.09866678 -0.29440358 2.5801544 -0.32304472
-1.330098 -2.7294307 1.1211531 0.8255941 0.78549397 0.7888327 0.16437429 0.005215373
-0.20643243 0.0528477 -0.016328808 0.0045608296 -0.06726253 0.02828474 -0.18038754 0.10864873
2.6932635 0.2599082 -1.2633533 -2.0979624 1.2327251 1.0555472 0.6167613 0.9818441
0.0908939 -0.14739366 0.04188189 -0.03990885 0.095009394 0.04188919 -0.28945315 -0.113319695
-0.097030945 1.2272288 1.3964868 -0.34591684 -2.6276538 0.39527848 -3.8073153 -3.9799042
0.61785007 -3.873133 0.7881053 2.8981016 4.1239424 -1.7999413 -3.1518319 1.6128312
0.741945 0.6358569 3.3706315 0.1732653 2.2181475 0.6999387 -0.19187258 -3.3314416
2.8830543 1.2946839 1.2275788 0.20815592 -0.50209486 2.5115066 -0.27474493 -1.5582724
-2.598939 1.3564597 0.5944897 0.9241886 0.9281033 0.5063572 2.1551015 1.0941325
-0.41187373 -3.1628084 2.844994 0.650116 0.7835378 0.641334 0.13938645 -0.10553227
0.029904563 0.016983781 0.065704845 -0.11505315 0.014759225 0.030788748 -0.16279203 0.20447052
2.1107495 0.9344454 -0.17247975 -3.5195909 2.67597 1.4310297 1.0799569 0.2265234
-0.35236546 2.379129 -0.096618645 -1.468117 -2.7040975 1.2291485 0.820195 0.6884247
0.69414014 -0.22799967 -4.3113303 1.1026876 0.22064446 -5.9136643 -2.4176745 -2.0427897
-0.90802765 -2.1365635 -0.20167032 3.2048194 -0.103948 -1.0127153 -3.2247808 1.8467655
1.4202404 0.32077593 0.044512838 -0.33217022 2.4679475 -0.23703422 -1.2567123 -2.9697354
1.1861264 0.71601224 0.8703712 0.8760839 0.9288522 2.783874 3.8367257 -1.7782862

bias f4 [100]
00000000: 1a3f e0bd 4387 1a3f 482c e93e da49 473f
00000010: cce6 b4bd d3ae 113f b9a3 633f df35 2e3f
00000020: 3195 513f 5752 2d3f 78d4 2e3f ec37 fbbd
00000030: 17ca 14be 5f88 063f 03ad 05be bd25 173f
00000040: 0fe2 84bd 79ad 25c0 c81d 1240 70de 6a3f
00000050: 35bc 2c3f 5783 613f da6b eebd 6549 603f
00000060: 2962 443f 475b 37c0 7200 9b3d 78d8 253f
00000070: 5229 1040 ad6a 103f b49b ff3e 6cd6 acbd
00000080: 844a aabd 8912 223f 611a 44bd cddb 123f
00000090: e98e 11be f448 343f 77bc 323f d69c 803f
000000a0: 0e97 2ac0 5add d1bd d272 debd 72b7 353f
000000b0: 818e 8b3f 0687 673f 3eb1 433f b391 2b3f
000000c0: b4df 1e3f 885a 1140 2403 6d3f a4d0 5e3f
000000d0: 8fc9 a5bd f4d6 f4bd ae7c 7e3f 98bb 233f
000000e0: e253 663f c329 ccbd 184a 00be 8fbc 303f
000000f0: 91be 333f bc52 1e3f e7c8 033f 1fff 013f
00000100: e804 523f 8b93 2d3f 6804 12be b64a 6a3f
00000110: c4b3 1040 91ff b3bd cbbe 4e3f 6c61 15be
00000120: 9e6e 673f a6a1 2a3f abea 703f 5137 2e3f
00000130: ea6a 463f 55f1 1b3f 1848 2e3f b211 07be
00000140: cb51 4c3f aa7b 1c3f 12cf 313f 7055 733f
00000150: fdea f13e f6fc f6bd 8439 ecbd 7318 1d3f
00000160: 3536 cabd b7a7 693f 1ac6 3d3f 7aff 1e3f
00000170: e6f5 1f3f efb9 40c0 1861 ccbd 47a2 2e3f
00000180: 48dc 703f ce12 203f 78c8 c6bd 2444 1e3f
-0.10949536 0.60362643 0.45541596 0.77847064 -0.088330835 0.56907386 0.88921696 0.6805095
0.81868273 0.67703766 0.6829295 -0.122665256 -0.14530216 0.52551836 -0.1305428 0.5904196
-0.0648843 -2.588713 2.2830677 0.9174566 0.6747468 0.88091034 -0.11641665 0.8761199
0.7671228 -2.8649461 0.07568444 0.6478343 2.252522 0.56412774 0.4992348 -0.08439335
-0.08314994 0.6330953 -0.04787672 0.5736664 -0.14214672 0.7042382 0.69818825 1.0047863
-2.6654696 -0.102472976 -0.10861744 0.7098304 1.0902864 0.90440404 0.76442325 0.67019194
0.62060094 2.2711506 0.9258292 0.8703711 -0.08095085 -0.119550616 0.99408996 0.6395812
0.89971745 -0.09968903 -0.12528265 0.6903772 0.70212656 0.6184499 0.5147843 0.5077991
0.82038736 0.6780326 -0.14259493 0.9152025 2.260972 -0.0878898 0.80759877 -0.14587945
0.90403163 0.66652906 0.94108075 0.68053156 0.7750689 0.6091512 0.68078756 -0.13190344
0.79812306 0.61126196 0.6945659 0.9505224 0.47249594 -0.12059967 -0.11534408 0.6136543
-0.098736204 0.9127154 0.74130404 0.62108576 0.62484586 -3.0113485 -0.09979457 0.68216366
0.9408612 0.62528694 -0.09706205 0.61822724

weight f4 [1, 100]
00000000: 248e 3dbd 328f a640 3582 ca40 c405 1640
00000010: 1263 97bd e29f 2c40 ced3 fd3f 1df8 ae40
00000020: e05d 3240 7004 a540 b292 3940 61e0 0bbd
00000030: 52fb 6ebd 4dc4 ac40 7a82 04be 00e2 2a40
00000040: fe5f 35bd 545d d540 56be 6440 f8ed 2e40
00000050: 88c9 ad40 14a2 2140 8d5c e6bc b521 3440
00000060: 4e1a a740 86d2 b7c0 fb11 e340 19a5 a540
00000070: a540 6240 e3a6 b240 d5ce 1e40 dfea 02bd
00000080: 2f86 6dbc 591b b640 ba2b 04be de27 bb40
00000090: 8259 98bd 84e6 2840 3599 9f40 2e33 3340
000000a0: e341 dfc0 9389 92bd 4543 b43a 9165 b440
000000b0: 5093 1840 a2a3 3540 c6e5 2f40 458e 3b40
000000c0: 72e9 a540 698e 7340 8ec2 2840 0ca5 3b40
000000d0: 342d 0cbe 1f86 46bd a919 2b40 a9bf ac40
000000e0: 3320 3440 44ef 58bd 6389 0bbe 3106 ab40
000000f0: 009a b840 aece a540 2803 b440 4408 4140
00000100: e622 2640 9103 a840 3202 2fbd bdcf 3540
00000110: 28ad 5e40 f32a 2ebd 4713 3640 f41e 01be
00000120: cf29 2640 7555 b340 8ca8 3140 2119 a840
00000130: 95b6 3640 69e6 ab40 06d5 3c40 c14d 83bd
00000140: 07c7 3240 962a ad40 f3f5 1a40 5b95 2f40
00000150: dd54 b340 1f65 98bc d51a 13bd 2ba6 4240
00000160: 0c2e c1bb 323b 4a40 6972 3740 9169 a240
00000170: d0e2 ae40 0264 c2c0 6942 19bd c74b 2840
00000180: 8b55 3640 7d17 ad40 a5e2 07be f1b1 b640
-0.046278134 5.20498 6.3283944 2.344102 -0.07391943 2.6972585 1.9830263 5.4677873
2.7869797 5.1567917 2.8995786 -0.03414953 -0.058345146 5.3989625 -0.12940398 2.670044
-0.044281 6.6676426 3.5741172 2.7332745 5.430851 2.5255175 -0.028120304 2.8145573
5.221961 -5.7444487 7.095945 5.1764035 3.5351956 5.582872 2.481374 -0.03196227
-0.014497324 5.6908383 -0.12907305 5.8486166 -0.07438947 2.6390696 4.987452 2.7999988
-6.976793 -0.071551464 0.0013752958 5.6373982 2.3839912 2.8381124 2.7483993 2.9305584
5.1847467 3.805567 2.6368747 2.9319487 -0.13689119 -0.04846775 2.6734412 5.398396
2.8144653 -0.052962556 -0.13626628 5.344506 5.768799 5.1814795 5.6253853 3.0161295
2.59588 5.2504354 -0.042726703 2.8408043 3.4793186 -0.04252143 2.8449266 -0.12609464
2.5963018 5.604182 2.7759123 5.2530675 2.854894 5.3718762 2.950502 -0.06411315
2.7933977 5.4114485 2.4212615 2.743491 5.6041093 -0.018602906 -0.03591426 3.041392
-0.005895382 3.159863 2.866358 5.0753865 5.465187 -6.074708 -0.03741685 2.629625
2.8489711 5.409117 -0.13270052 5.7092214
