experiments/neural_networks/mlartifacts/954866327486404750/models/m-d7f33bd51f9c48939b4b859bdf81f5ab/artifacts/data/model.pth (torch, 9737 bytes, 3 tensors)

weight f4 [100, 9]
000000 e4 b7 96 3d 74 c1 5f be e3 b0 31 3e 19 0b 20 be
       0.07359293 -0.2185114 0.17352633 -0.15629233
000010 5e bb b1 3d c7 05 b8 bb 7d 05 9d bd ab 6e 04 be
       0.086783156 -0.005615923 -0.076670624 -0.12932841
000020 6f 00 18 bc 88 d5 27 bf b7 e5 75 3f 5c cf 24 be
       -0.009277447 -0.655602 0.9605364 -0.16094726
000030 48 60 2b be c4 1c ff bf be e4 3f 3e 39 43 c1 3f
       -0.16735947 -1.9930654 0.18739602 1.509864
000040 74 35 e8 3f 75 92 da 3f b6 3a 14 bf 1e 69 9d 3f
       1.8141313 1.7075945 -0.57902086 1.2297704
000050 c4 3a 50 be 87 a6 9f be be 70 04 c0 90 38 dd 3e
       -0.20334917 -0.31181738 -2.0693812 0.43207216
000060 9a 87 c1 3f 6e ef e6 3f a1 db dc 3f ce d0 24 3f
       1.5119507 1.8041818 1.7254525 0.6438111
000070 66 87 d9 3f 55 48 09 3f 39 a2 04 3f e6 29 33 bf
       1.6994445 0.53625995 0.5181003 -0.69985807
000080 a3 ef 2b 3e 97 79 04 40 cd ea af 3f c7 86 04 40
       0.16790633 2.0699213 1.374353 2.0707262
000090 59 ee 5a 3e 60 ab 17 be 7f d0 1e be c2 d8 21 3d
       0.21379985 -0.14811468 -0.15509222 0.039513357
0000a0 b6 68 d1 bb 08 b1 87 3d 0d 45 64 be c4 c4 ad bd
       -0.0063906563 0.06625563 -0.22291966 -0.08484796
0000b0 f1 8b 24 be 8b 18 c2 3e 4c cf b3 3f 39 8d 5e 3f
       -0.16069008 0.3790935 1.4047637 0.8693424
0000c0 66 a6 9d 3e aa a7 66 bf 6c d5 0e 3f 0b 38 f4 3f
       0.30791014 -0.90099585 0.55794406 1.9079603
0000d0 c5 69 cc 3f 09 67 f7 3f 39 60 07 3f e3 1b b5 3f
       1.5969778 1.9328319 0.528812 1.4149135
0000e0 22 ef 52 3f 1b 89 2b 3e 5e 22 ab be 71 6a af 3e
       0.8239614 0.1675152 -0.33424658 0.34260896
0000f0 c5 68 02 40 1d 86 d9 3f a7 9a 0b 40 f5 a0 2e bf
       2.0376446 1.6994053 2.1813142 -0.6821435
000100 96 bd bc 3f 9f f6 83 be 9d 70 90 be eb 71 0b c0
       1.4745357 -0.25774094 -0.28210917 -2.178828
000110 29 ec 88 3d 6d 98 d2 3f d2 8d e1 3f 40 cf d6 3f
       0.06685669 1.6452767 1.7621405 1.6781998
000120 76 f4 c1 3e 89 4d f5 3f e0 90 48 3f 5d 73 60 3e
       0.3788182 1.9164287 0.7834606 0.21919008
000130 29 74 87 bf 37 99 ab 3e 0d 22 d7 3f 66 a3 b6 3f
       -1.0582324 0.3351533 1.6807266 1.4268615
000140 92 b7 0d 40 86 92 29 bf 09 89 88 3f 6c b0 61 3c
       2.2143292 -0.662392 1.066682 0.013774972
000150 b8 eb b3 be 79 ed f1 bf d0 62 d2 3d 31 ab d4 3f
       -0.35140777 -1.8900596 0.10272753 1.6614743
000160 f3 07 ec 3f 2c 72 ce 3f 47 5c 3a 3f 24 d8 f6 3f
       1.8439926 1.6128592 0.72797054 1.9284711
000170 33 4d 1e 3f 45 2a c7 3d 52 69 7d bf 05 21 7b 3e
       0.61836547 0.09724859 -0.9898883 0.24524315
000180 b7 8f d7 3f 5c 10 b4 3f f3 a5 03 40 13 ea 8a bd
       1.6840733 1.4067492 2.0570037 -0.06782927
000190 e8 3e c7 bc 23 03 f6 bc 7f db 8c 3e 8a 2e 11 bd
       -0.024321988 -0.030030793 0.27511212 -0.035444774
0001a0 bc 7e f7 bd 46 0c 4d bc 58 c0 be bd 7b fd 30 3d
       -0.120847195 -0.012515133 -0.093140304 0.043210488
0001b0 6c 47 ab 3d 96 88 18 3e a5 0d 6e be 57 8b b7 3d
       0.08363232 0.14895853 -0.23247392 0.08962124
0001c0 70 b3 02 3e cc 35 37 be fa 68 e1 3c 5a 41 0b 3d
       0.12763762 -0.17891616 0.027515877 0.03399787
0001d0 cf 11 ca bd 20 94 d2 be 55 60 96 3f 3a e7 99 be
       -0.09866678 -0.41128635 1.1748148 -0.30059224
0001e0 fc 0f 73 be c9 03 fa bf 9d 3a 36 bd 66 62 dd 3f
       -0.23736566 -1.9532405 -0.04448949 1.7295654
0001f0 d4 26 cb 3f 4e 95 e5 3f bc 51 28 3e b8 e5 aa 3b
       1.5871224 1.7936189 0.16437429 0.005215373
000200 06 63 53 be d4 76 58 3d fe c3 85 bc 03 73 95 3b
       -0.20643243 0.0528477 -0.016328808 0.0045608296
000210 f0 c0 89 bd 66 b5 e7 3c 83 b7 38 be ff 99 bc 3e
       -0.06726253 0.02828474 -0.18038754 0.3683624
000220 1a 48 bb 3f ab a9 2c 3f 95 95 cd 3e b2 f7 3c bf
       1.4631379 0.6744639 0.40153185 -0.73815453
000230 8f 9f 9e 3e 65 e5 e3 3f 24 a1 a6 3f 1f 76 fd 3f
       0.3098111 1.7804381 1.3017926 1.9801673
000240 95 26 ba 3d 5d ee 16 be 58 8c 2b 3d 76 77 23 bd
       0.0908939 -0.14739366 0.04188189 -0.03990885
000250 49 94 c2 3d 00 94 2b 3d 34 33 94 be 28 14 e8 bd
       0.095009394 0.04188919 -0.28945315 -0.113319695
000260 29 b8 c6 bd 0a 2b e1 3f 71 17 a2 3e 4a bc 07 bf
       -0.097030945 1.759126 0.3165851 -0.5302168
000270 a1 96 bc bf 8b 3c 64 bf a3 ed 1e c0 44 07 46 c0
       -1.4733468 -0.8915488 -2.4832542 -3.0941935
000280 55 06 6e 3f b3 79 6b c0 11 41 68 3f 32 03 af 3f
       0.9297841 -3.679303 0.90724283 1.367285
000290 d3 81 30 40 63 0d 58 3d ac a3 89 bf 78 b0 92 bb
       2.7579238 0.05274714 -1.0753074 -0.004476603
0002a0 2a f5 b3 3f c4 67 99 3f 6c 6e 26 40 03 e0 5d 3f
       1.4059193 1.1984792 2.6004896 0.8666994
0002b0 80 e5 8a 3f 6f bb e3 3f 2d e2 5a 3f 00 ac 69 bf
       1.0851288 1.7791575 0.85501367 -0.91278076
0002c0 e3 c2 0e 3f dc b0 eb 3f 1d 00 db 3f 1f 7d 8a 3f
       0.55766124 1.8413348 1.710941 1.0819434
0002d0 31 1e 1a bf ef 05 95 3f 7d d0 7b be 2a d2 00 bf
       -0.6020232 1.1642436 -0.2459125 -0.50320685
0002e0 4d a8 eb bf a8 d3 6f 3e db e9 be 3f cf d1 ee 3f
       -1.8410736 0.23420584 1.4915117 1.8657779
0002f0 48 a0 e4 3f 96 18 8c 3f a6 6b 85 3f 08 0f 05 40
       1.7861414 1.0945003 1.0423477 2.0790424
000300 a9 14 0a 3f 3a fa 51 bf 1b 9d 0e 3f 3a ec b0 3f
       0.53937775 -0.8202244 0.55708474 1.3822091
000310 07 53 a9 3f 74 5f 9b 3f 52 bb 0e 3e 4e 21 d8 bd
       1.3228463 1.2138505 0.13938645 -0.10553227
000320 6a fa f4 3c 92 21 8b 3c 43 90 86 3d fc a0 eb bd
       0.029904563 0.016983781 0.065704845 -0.11505315
000330 ad d0 71 3c af 38 fc 3c f4 b2 26 be 2e f6 62 3f
       0.014759225 0.030788748 -0.16279203 0.8865689
000340 92 bd 75 3f af 40 00 40 e2 0c 5e 3f e8 be 8d bf
       0.95992386 2.003948 0.8673841 -1.1073885
000350 15 b6 ae 3e b7 d3 fc 3f a9 7f cc 3f 54 91 92 3f
       0.34123293 1.975211 1.5976459 1.1450601
000360 c6 b2 e9 be e5 af 86 3f 35 bf 96 bd 19 1a e2 be
       -0.45644206 1.0522429 -0.073606886 -0.44160536
000370 e7 59 fb bf 6e 16 f2 3d c5 4b db 3f 92 10 d1 3f
       -1.9636811 0.118206844 1.7132498 1.6333182
000380 58 dc c1 3f 5c 07 2d 3d 5e 62 61 c0 db ec d8 3f
       1.5145369 0.042243347 -3.5216289 1.6947283
000390 70 e7 a4 bf d2 ba 8b c0 cf f8 6a c0 04 a7 fa bf
       -1.2883129 -4.366555 -3.671436 -1.9582219
0003a0 6e 2c 98 bf 0f 96 f9 bf 8a e8 2b be e4 74 f9 3f
       -1.1888559 -1.9498919 -0.16787925 1.9488797
0003b0 7a 58 a1 3e ce fd de 3d 21 c6 09 c0 d7 97 c2 3e
       0.31512815 0.10888253 -2.1527178 0.3800647
0003c0 13 7c 01 40 04 35 bd 3f d1 ff a2 3f 95 c5 e7 be
       2.023198 1.4781804 1.2734319 -0.4526793
0003d0 3a 23 8d 3f 4b 99 65 be 61 b8 61 be 76 3f 0e c0
       1.1026375 -0.22421758 -0.22042991 -2.2226233
0003e0 5a 33 44 3d 85 cb cd 3f 8c a7 d4 3f af 0a e2 3f
       0.047900535 1.6077734 1.6613631 1.765951
0003f0 d7 5f 89 3f aa cb a4 3f fb 63 20 40 00 d3 94 3d
       1.0732373 1.2874653 2.5061023 0.072668076

bias f4 [100]
000000 1a 3f e0 bd 2a fb e3 3f 0a dc ef 3f ba bf fe 3f
       -0.10949536 1.7811024 1.8739026 1.990226
000010 cc e6 b4 bd 97 2a 01 40 64 da ff 3f d9 fe f7 3f
       -0.088330835 2.0182245 1.9988523 1.9374648
000020 3c d5 fa 3f e1 b4 ee 3f 56 e3 fb 3f ec 37 fb bd
       1.9596324 1.864895 1.9678752 -0.122665256
000030 17 ca 14 be 71 56 f0 3f 03 ad 05 be a4 f5 e6 3f
       -0.14530216 1.877638 -0.1305428 1.8043714
000040 0f e2 84 bd 7d 23 17 c0 2c 12 03 40 9a 2d d5 3f
       -0.0648843 -2.361541 2.0479841 1.6654541
000050 4a 89 f8 3f 3f c6 c6 3f da 6b ee bd aa 1a d4 3f
       1.9416897 1.552925 -0.11641665 1.6570637
000060 69 f8 fe 3f 88 be 37 c0 20 51 e0 3f f7 73 f2 3f
       1.9919559 -2.871004 1.7524757 1.894164
000070 bc 50 fe 3f 9b 0a de 3f ec 0d e8 3f 6c d6 ac bd
       1.9868388 1.7346987 1.8129249 -0.08439335
000080 84 4a aa bd 58 a0 fa 3f 61 1a 44 bd 3c b7 f1 3f
       -0.08314994 1.9580183 -0.04787672 1.8884044
000090 e9 8e 11 be 59 ef f7 3f fd 04 ec 3f a3 c4 db 3f
       -0.14214672 1.9369918 1.8439022 1.7169384
0000a0 c9 6f 34 c0 5a dd d1 bd d2 72 de bd 29 dd f5 3f
       -2.8193228 -0.102472976 -0.10861744 1.9208118
0000b0 b3 7d da 3f b4 14 d8 3f 34 5c bc 3f df 66 f4 3f
       1.706961 1.6881318 1.4715638 1.9093894
0000c0 49 29 f4 3f f9 91 00 40 8e f7 c7 3f ab f1 d2 3f
       1.9075099 2.0089095 1.5622423 1.6480001
0000d0 8f c9 a5 bd f4 d6 f4 bd dc 9e de 3f fc 45 ef 3f
       -0.08095085 -0.119550616 1.739223 1.8693233
0000e0 21 19 ce 3f c3 29 cc bd 18 4a 00 be 7d fb f6 3f
       1.6101419 -0.09968903 -0.12528265 1.9295498
0000f0 6a ad f8 3f 8f 56 f3 3f 25 9c ee 3f 7b dc e7 3f
       1.9427922 1.901079 1.8641402 1.811416
000100 2e 71 02 40 f2 7e e6 3f 68 04 12 be d0 45 d1 3f
       2.038158 1.8007491 -0.14259493 1.634943
000110 9a 0a 01 40 91 ff b3 bd 35 d2 ce 3f 6c 61 15 be
       2.016272 -0.0878898 1.61579 -0.14587945
000120 95 ea c1 3f aa cb f7 3f 29 fd d9 3f 65 91 f1 3f
       1.5149714 1.9359028 1.7030383 1.8872496
000130 9d f8 01 40 20 2d f2 3f 11 eb f2 3f b2 11 07 be
       2.0307992 1.8920021 1.8977987 -0.13190344
000140 ca bc c4 3f 38 f4 f2 3f 66 e1 f7 3f 48 7d d6 3f
       1.5370114 1.898078 1.9365661 1.6756983
000150 80 16 e0 3f f6 fc f6 bd 84 39 ec bd e6 49 f1 3f
       1.7506866 -0.12059967 -0.11534408 1.8850677
000160 35 36 ca bd 40 4d d4 3f a0 9a ff 3f 2d 77 f3 3f
       -0.098736204 1.6586075 1.9969063 1.9020745
000170 1a a7 e2 3f aa 1b 44 c0 18 61 cc bd 1a 04 f1 3f
       1.7707245 -3.0641885 -0.09979457 1.8829377
000180 29 1b de 3f 7b 33 f4 3f 78 c8 c6 bd 9e 21 e5 3f
       1.7352039 1.907821 -0.09706205 1.7900884

weight f4 [1, 100]
000000 24 8e 3d bd 93 21 06 40 15 0c 20 40 40 11 b7 3f
       -0.046278134 2.0957992 2.5007374 1.4302139
000010 12 63 97 bd 4f 6d bb 3f f7 43 a6 3f c5 31 09 40
       -0.07391943 1.4642733 1.2989491 2.1436627
000020 86 78 c5 3f c1 41 f9 3f 14 70 c2 3f 61 e0 0b bd
       1.5427406 1.9473191 1.5190454 -0.03414953
000030 52 fb 6e bd 50 ea 05 40 7a 82 04 be 74 a6 c9 3f
       -0.058345146 2.0924263 -0.12940398 1.5753922
000040 fe 5f 35 bd 05 32 8f 40 f4 9c e5 3f 3e 8a b6 3f
       -0.044281 4.474856 1.7938523 1.4260938
000050 c8 4e 02 40 fb ea b7 3f 8d 5c e6 bc 84 8e c1 3f
       2.0360584 1.4368585 -0.028120304 1.5121617
000060 0f f3 fc 3f b9 57 9d c0 8e c9 4d 40 60 f7 04 40
       1.9761676 -4.9169583 3.215427 2.0775986
000070 90 19 e3 3f e1 75 09 40 6a 9c b3 3f df ea 02 bd
       1.7742176 2.1478198 1.4032109 -0.03196227
000080 2f 86 6d bc e4 93 07 40 ba 2b 04 be 63 bb 10 40
       -0.014497324 2.1184015 -0.12907305 2.2614372
000090 82 59 98 bd f1 84 c0 3f 96 94 fe 3f f7 42 b9 3f
       -0.07438947 1.504057 1.9889095 1.4473561
0000a0 b2 c3 a8 c0 93 89 92 bd 45 43 b4 3a 23 3d 0c 40
       -5.2738886 -0.071551464 0.0013752958 2.1912315
0000b0 3c 04 b3 3f 13 a3 bd 3f 81 ef c7 3f 6a 9f e4 3f
       1.3985667 1.4815391 1.5619966 1.7861149
0000c0 f6 92 02 40 9b d9 f3 3f 37 2f c4 3f f6 36 c9 3f
       2.0402198 1.9050783 1.5326909 1.5719898
0000d0 34 2d 0c be 1f 86 46 bd a5 70 b7 3f 36 a6 0b 40
       -0.13689119 -0.04846775 1.4331251 2.1820197
0000e0 a6 91 c2 3f 44 ef 58 bd 63 89 0b be 4f ad 03 40
       1.5200698 -0.052962556 -0.13626628 2.057453
0000f0 4e 2d 10 40 07 82 fe 3f 8e f1 0c 40 f1 99 da 3f
       2.2527652 1.9883431 2.2022433 1.7078229
000100 07 bb bd 3f 3a e6 07 40 32 02 2f bd 72 3c c0 3f
       1.4822701 2.123427 -0.042726703 1.5018446
000110 53 2e df 3f f3 2a 2e bd 3b 6c bf 3f f4 1e 01 be
       1.7436012 -0.04252143 1.4954904 -0.12609464
000120 38 84 c2 3f e4 4b 0d 40 b3 94 c4 3f 3b 44 00 40
       1.51966 2.207757 1.5357879 2.0041645
000130 6c db d2 3f 6b fc 00 40 94 01 cd 3f c1 4d 83 bd
       1.6473212 2.0154064 1.6016107 -0.06411315
000140 16 46 c5 3f 0d ff 03 40 1d 89 b8 3f 29 38 bd 3f
       1.5412014 2.062442 1.4416844 1.4782764
000150 b7 24 0c 40 1f 65 98 bc d5 1a 13 bd 6e 73 e9 3f
       2.189741 -0.018602906 -0.03591426 1.8238351
000160 0c 2e c1 bb c7 af d3 3f 8d 74 c3 3f 03 8b f6 3f
       -0.005895382 1.6538018 1.5269943 1.9261173
000170 1f 73 06 40 ca 86 a6 c0 69 42 19 bd 84 c1 bd 3f
       2.1007764 -5.2039537 -0.03741685 1.4824681
000180 4a 99 be 3f ac 11 03 40 a5 e2 07 be c3 97 12 40
       1.489053 2.0479536 -0.13270052 2.2905128
