experiments/neural_networks/mlartifacts/730589028942085756/models/m-d4b6b115bb7c493ea9f499bca67c9712/artifacts/data/model.pth (torch, 6845 bytes, 5 tensors)

weight f4 [8, 8]
0	0xbee12446	-0.43972987
1	0x3f13b6bc	0.57700706
2	0xbedc5e39	-0.43040636
3	0x3eb11e45	0.34593406
4	0x3e70d1e4	0.23517567
5	0x3e604b5d	0.21903749
6	0xbea982e7	-0.33107683
7	0x3f138ec2	0.57639706
8	0x3e1b5968	0.15170825
9	0x3dc606fd	0.09669302
10	0xbf0592c7	-0.5217709
11	0x3e8cc80a	0.27496368
12	0xbdb1551f	-0.08658814
13	0xbe8fa34b	-0.2805427
14	0x3f07e000	0.5307617
15	0x3e1fa2e3	0.1558948
16	0xbea41b8d	-0.3205227
17	0xbe94f4b6	-0.2909295
18	0xbc2adab0	-0.010428116
19	0x3eb8bcea	0.3608163
20	0xbe32f6ee	-0.17477009
21	0xbebc5b1d	-0.36788264
22	0xbe674e98	-0.22588575
23	0xbef44539	-0.47709063
24	0x3e4b616e	0.19861385
25	0x3ee885d3	0.454146
26	0xbf18aa5a	-0.59634936
27	0x3dfab120	0.12240815
28	0x3e97cab6	0.29646844
29	0x3dba6b00	0.0910244
30	0xbe73cac5	-0.23807819
31	0x3e998224	0.29982102
32	0x3eaedcce	0.34152836
33	0x3e7eb8b3	0.24875145
34	0xbdb3f8c3	-0.08787682
35	0xbe11e196	-0.1424621
36	0x3da54eb3	0.08071651
37	0xbdb4a52e	-0.08820568
38	0xbe269d3f	-0.16270922
39	0x3ed223ab	0.41042838
40	0x3f0bb102	0.5456697
41	0xbd27e84f	-0.04099303
42	0xbdf03d00	-0.11730385
43	0x3ce9b666	0.028529357
44	0xbc93ec96	-0.018057149
45	0x3e2b47a9	0.16726555
46	0x3e443b5a	0.19163266
47	0xbf0cae57	-0.5495352
48	0xbe7b4ca0	-0.24540949
49	0x3efe1497	0.49625084
50	0x3e605163	0.21906047
51	0xbd4cb7eb	-0.049980085
52	0xbebd0829	-0.36920288
53	0xbec9d7a1	-0.39422324
54	0xbf117938	-0.5682559
55	0xbe5e4dbe	-0.21709344
56	0x3e40e9c9	0.18839182
57	0x3ebdedb1	0.37095407
58	0x3e86a0ad	0.2629446
59	0xbf0f8ded	-0.56075937
60	0xbebc8c4a	-0.36825782
61	0xbda84aae	-0.08217369
62	0x3f1298a4	0.5726416
63	0x3d907be4	0.0705488

bias f4 [8]
0	0x3cf62113	0.030045068
1	0x3cefaf3b	0.029258361
2	0xbbe21b99	-0.0069002626
3	0xbc24a11b	-0.010048176
4	0x3cf52062	0.029922668
5	0x3cf62f87	0.03005196
6	0xbc1d7956	-0.009611448
7	0xbc2194ea	-0.009862164

weight f4 [8, 8]
0	0xbe226484	-0.15858656
1	0x3e6f0b65	0.2334419
2	0xbe8187b9	-0.2529886
3	0xbecaefe6	-0.39636153
4	0x3ee4d852	0.4469629
5	0xbe8e9096	-0.27844685
6	0xbdfb69c4	-0.122760326
7	0xbf1cb259	-0.61209637
8	0x3ec7acdd	0.38999072
9	0x3ee35f02	0.44408423
10	0x3e50fca4	0.20408875
11	0xbee4b3a9	-0.4466832
12	0xbf1fd0ad	-0.6242779
13	0xbf046a92	-0.51725113
14	0x3ee31d8c	0.4435848
15	0x3e8c66d8	0.27422214
16	0x3efd9ad2	0.4953218
17	0x3e9a0258	0.30079913
18	0x3e0aeb96	0.13566431
19	0xbcd481a7	-0.02594073
20	0xbef8b39f	-0.4857454
21	0xbf0b71fa	-0.5447079
22	0xbf1762b2	-0.5913497
23	0x3e6c4541	0.23073293
24	0xbe99ef7d	-0.30065528
25	0xbdfc6610	-0.123241544
26	0xbeb470dd	-0.35242358
27	0xbde488a0	-0.11158872
28	0xbedcad3a	-0.4310091
29	0xbeccde55	-0.40013376
30	0x3e500174	0.20313054
31	0xbe3a5cde	-0.18199489
32	0x3eb755a9	0.3580754
33	0xbe5d894c	-0.21634406
34	0xbeeec6f8	-0.46636176
35	0xbe02f189	-0.12787451
36	0xbea2334a	-0.31679755
37	0xbe543f24	-0.20727211
38	0xbf1895e7	-0.5960373
39	0x3ea54796	0.32281178
40	0xbee48792	-0.44634682
41	0x3e935830	0.2877822
42	0x3e845b03	0.25850686
43	0x3ed5e894	0.41779006
44	0xbefac3d4	-0.4897753
45	0x3ed73b4e	0.42037433
46	0xbe9de823	-0.3084117
47	0x3e544043	0.20727639
48	0x3f1859f5	0.59512264
49	0xbd87d955	-0.0663325
50	0x3c612eca	0.013744066
51	0xbdf7df87	-0.12103181
52	0xbefb872d	-0.49126568
53	0x3ea0bb60	0.31392956
54	0xbf16b9a5	-0.5887702
55	0x3eccdeea	0.4001382
56	0x3ef4cc73	0.47812232
57	0x3f196351	0.5991717
58	0xbe000e6c	-0.12505502
59	0xbef784d7	-0.48343536
60	0x3e20c2c1	0.15699293
61	0x3eb7771d	0.35833064
62	0xbf176888	-0.5914388
63	0xbdf39f14	-0.11895576

bias f4 [8]
0	0xbc23a25b	-0.009987439
1	0xbc216ec9	-0.009853073
2	0xbc239740	-0.009984791
3	0x3c23d70a	0.01
4	0xbc227b9f	-0.009917169
5	0xbc23717d	-0.009975788
6	0x3cf5dd71	0.030012818
7	0x3cf62df7	0.030051215

weight f4 [1, 8]
0	0xbef07974	-0.4696766
1	0xbd531d88	-0.051541835
2	0xbec39882	-0.38202292
3	0xbeaae23e	-0.33375734
4	0xbe7540ed	-0.23950548
5	0xbf418889	-0.7559896
6	0x3f30a2c3	0.68998355
7	0x3f345cf9	0.70454365
