experiments/neural_networks/mlartifacts/408745732833894938/models/m-aa9a2554591e4ff5bd6dc769973c2a82/artifacts/data/model.pth (torch, 13029 bytes, 9 tensors)

weight f4 [32, 15]
-0.3095432 0.1482258 -0.31481588 -0.22014883 0.24750379 0.18270558 -0.065205805 0.4029644
0.27554104 0.6103024 0.8896975 0.51055086 0.64079607 0.5871592 0.925862 0.1781878
0.27576375 0.42536417 0.11957399 0.14786327 0.3699834 0.23152857 0.56938714 0.2100422
0.4321518 0.4836477 0.3547941 0.6736678 0.48876938 0.099870816 -0.30446392 -0.114804976
-0.09504426 0.120091476 -0.1407033 0.05899804 0.1961083 0.17962618 0.85825825 0.1151719
0.75389546 0.44335154 0.58393776 0.4388026 1.181652 -0.5323751 -0.21780445 0.20140553
0.40280414 0.026289724 0.3318228 0.17893565 -0.08158218 0.6120106 0.42220765 0.44244388
0.538963 0.53328687 0.66227704 1.1434261 -0.1138084 0.05870936 -0.043270875 -0.16778855
0.10335254 0.052618656 -0.0035768598 -0.028706305 0.81377655 0.5354399 0.16262344 0.5269224
0.98686 0.7526456 1.0482198 0.377594 -0.007475069 0.34288713 0.5065332 -0.14500813
-0.0756289 0.21240422 0.41623086 0.19063285 0.42330232 0.48553222 0.5213172 0.23449935
0.6324111 0.66409624 -0.11726473 0.12743208 0.1265339 0.34949964 0.46049207 0.31163868
0.054799974 0.53454435 0.16177274 -0.15461172 0.2163026 -0.3890685 0.37114847 -0.3594011
0.36900586 0.051933616 0.15994012 -0.29555127 -0.120788194 0.34634113 0.45593324 -0.11095466
0.406399 0.39112732 0.4017856 0.7172907 0.76487005 0.15116675 0.7148319 0.59902
-0.031004563 0.31458476 -0.17269364 -0.11210567 -0.20638381 0.028102228 0.06338451 0.0014579096
-0.2010273 -0.16084214 0.07778748 -0.3401189 -0.093107015 -0.03474828 -0.1822267 0.23788789
0.17242482 0.39986694 0.2111315 -0.016948862 0.4832972 0.21837528 0.1335121 -0.14840443
0.49156007 -0.07534935 0.34817353 0.5271845 -0.059349265 0.11660876 -0.22865526 0.3480365
0.29647008 0.19805926 0.44068164 0.007387092 -0.25519586 0.31842116 0.7269558 0.86984295
0.4482694 0.85141736 0.65861624 0.8361869 0.08504832 0.33577222 -0.1870647 0.33803576
0.20927489 -0.14409757 0.25113 0.12769632 -0.051325116 0.5068517 0.4530525 0.70384556
0.4071287 0.655067 0.5617094 0.45489192 -0.2733658 -0.37975517 -0.5748916 -0.30837247
-0.31970352 -0.2847298 -0.017927982 -0.3163992 0.09962156 0.071509525 0.40606877 0.091789916
0.017168373 0.23887193 0.10218474 -0.3068634 -0.26356634 -0.34141308 -0.06126657 -0.2743043
-0.035384286 -0.019367384 0.15549363 0.35121226 0.39819866 0.28175804 -0.013696311 0.1806328
0.008837206 -0.028192213 -0.186382 -0.19722465 -0.19726175 0.2641461 0.14474742 0.03402896
0.2803809 -0.38227662 -0.0060864966 0.13269953 0.15671922 -0.36377916 0.03368781 -0.2829707
-0.10743054 -0.3832921 -0.36564285 -0.60138303 -0.30342463 0.14021924 0.055158675 -0.26131365
-0.09219423 0.39387417 -0.09011174 0.5028929 0.6882936 0.0631918 0.099200204 0.08331627
0.16444132 0.36587822 -0.19424304 -0.11619289 0.31218925 0.18073454 0.045380585 0.09750173
0.4460943 0.727026 0.36106616 0.79834557 0.765485 0.5859229 0.5226566 0.080685504
00000000: 727c 9ebe 81c8 173e 8c2f a1be b26e 61be
00000010: a271 7d3e 2c17 3b3e 9f8a 85bd 5a51 ce3e
00000020: b713 8d3e c73c 1c3f 37c3 633f 76b3 023f
00000030: 360b 243f 1150 163f 4b05 6d3f dd76 363e
00000040: e830 8d3e 55c9 d93e 35e3 f43d 7869 173e
00000050: 776e bd3e d315 6d3e 5bc3 113f 4d15 573e
00000060: 0043 dd3e aca0 f73e 93a7 b53e 7e75 2c3f
00000070: fb3f fa3e 1289 cc3d b2e2 9bbe df1e ebbd
00000080: 91a6 c2bd 85f2 f53d 8714 10be eea7 713d
00000090: 9dd0 483e edef 373e d0b6 5b3f 3fdf eb3d
000000a0: 4bff 403f f9fe e23e f27c 153f bcaa e03e
000000b0: 5f40 973f bc49 08bf 2108 5fbe 403d 4e3e
000000c0: 583c ce3e 8c5d d73c aee4 a93e e83a 373e
000000d0: 8f14 a7bd baac 1c3f 9a2b d83e 0188 e23e
000000e0: 7bf9 093f 7d85 083f fd8a 293f c95b 923f
000000f0: 6114 e9bd 3a79 703d cd3c 31bd c3d0 2bbe
00000100: 7faa d33d a986 573d c069 6abb 7c29 ebbc
00000110: a953 503f 9712 093f c286 263e 63e4 063f
00000120: dba2 7c3f 62ad 403f 112c 863f 0054 c13e
00000130: 6cf1 f4bb e78e af3e 29ac 013f 037d 14be
00000140: 53e3 9abd 7e80 593e 361c d53e 4235 433e
00000150: 15bb d83e ae97 f83e 0b75 053f 9920 703e
00000160: b2e5 213f 3602 2a3f 7e28 f0bd 8e7d 023e
00000170: 1a92 013e 9ef1 b23e 9ec5 eb3e 1b8f 9f3e
00000180: f075 603d e6d7 083f c1a7 253e 8952 1ebe
00000190: 6e7e 5d3e fd33 c7be 2c07 be3e 6c03 b8be
000001a0: 56ee bc3e 58b8 543d 58c7 233e 7f52 97be
000001b0: cd5f f7bd a053 b13e 1570 e93e 323c e3bd
000001c0: 8813 d03e d741 c83e d8b6 cd3e 5da0 373f
000001d0: 86ce 433f 75cb 1a3e 39ff 363f 6059 193f
000001e0: 48fd fdbc 4111 a13e 9ad6 30be a897 e5bd
000001f0: 4756 53be a536 e63c bdcf 813d 5417 bf3a
00000200: 1ada 4dbe cdb3 24be 0b4f 9f3d 1124 aebe
00000210: e4ae bebd 3654 0ebd a399 3abe e298 733e
00000220: 2290 303e 5cbb cc3e db32 583e 57d8 8abc
00000230: bb72 f73e c59d 5f3e 65b7 083e 55f7 17be
00000240: c3ad fb3e c350 9abd cd43 b23e 90f5 063f
00000250: 3718 73bd 93d0 ee3d 9b24 6abe d731 b23e
00000260: edca 973e 0cd0 4a3e 06a1 e13e 6b0f f23b
00000270: 08a9 82be 1908 a33e c619 3a3f 07ae 5e3f
00000280: 9183 e53e 7df6 593f 139b 283f 5810 563f
00000290: d02d ae3d 56ea ab3e e48d 3fbe 0613 ad3e
000002a0: 284c 563e 508e 13be 1d94 803e d3c2 023e
000002b0: 493a 52bd 08c1 013f 7ff6 e73e 392f 343f
000002c0: 2c73 d03e 79b2 273f 30cc 0f3f 98e7 e83e
000002d0: 9af6 8bbe 456f c2be 192c 13bf ffe2 9dbe
000002e0: 2eb0 a3be 1bc8 91be b4dd 92bc 13ff a1be
000002f0: 6306 cc3d 9673 923d 3fe8 cf3e 5afc bb3d
00000300: b0a4 8c3c d89a 743e 3c46 d13d 331d 9dbe
00000310: 2bf2 86be b2cd aebe a8f2 7abd 9d71 8cbe
00000320: 1def 10bd 59a8 9ebc b939 1f3e 18d2 b33e
00000330: b2e0 cb3e 9742 903e 7e66 60bc cef7 383e
00000340: eec9 103c 5bf3 e6bc ecda 3ebe 42f5 49be
00000350: fcfe 49be 283e 873e ab38 143e f361 0b3d
00000360: 168e 8f3e c3b9 c3be 3c71 c7bb 63e2 073e
00000370: 017b 203e 4341 babe 3bfc 093d 89e1 90be
00000380: 8b04 dcbd dd3e c4be 8a35 bbbe 3df4 19bf
00000390: 795a 9bbe a295 0f3e 10ee 613d e7ca 85be
000003a0: 54d0 bcbd e0a9 c93e 818c b8bd 97bd 003f
000003b0: 0234 303f b46a 813d 7a29 cb3d b8a1 aa3d
000003c0: 4e63 283e 6454 bb3e a6e7 46be 8af6 edbd
000003d0: 45d7 9f3e 7a12 393e fee0 393d fdae c73d
000003e0: 7966 e43e 601e 3a3f aadd b83e 6060 4c3f
000003f0: d3f6 433f 0bff 153f d3cc 053f 713e a53d

bias f4 [32]
0.51125675 0.4829652 0.46095228 0.51439744 0.5046315 0.47811386 0.1782387 0.5035958
-0.03374717 0.31952143 0.5643696 0.5304274 0.29902002 0.26304293 -0.1007002 0.37467596
0.54319906 0.4388937 0.23273724 0.422715 0.5077512 0.42332855 0.5176467 0.46847725
0.4108239 0.4088681 0.50859666 0.42339337 0.40536484 0.5032399 0.5549502 0.522428
00000000: b9e1 023f 3747 f73e f001 ec3e 8daf 033f
00000010: 882f 013f 57cb f43e 3584 363e a8eb 003f
00000020: 793a 0abd 5098 a33e 877a 103f 17ca 073f
00000030: 2719 993e 90ad 863e e83b cebd 87d5 bf3e
00000040: 180f 0b3f adb6 e03e ac52 6e3e 1a6e d83e
00000050: fcfb 013f 85be d83e 7e84 043f 40dc ef3e
00000060: 8357 d23e 2957 d13e 6433 023f 04c7 d83e
00000070: fb8b cf3e 55d4 003f 3711 0e3f d7bd 053f

weight f4 [16, 32]
0.06332431 -0.1128819 -0.17847879 -0.3046913 0.08055334 0.2935099 -0.21562307 0.0946629
0.13958055 0.23860475 -0.10747096 -0.054761015 0.19565862 0.1762526 0.30475548 -0.1744298
0.06961265 0.22014263 -0.30754215 0.0030110592 -0.13653484 0.15895782 -0.15879044 -0.017306088
0.15017541 -0.39482653 -0.359144 -0.22992311 0.17030418 0.15836437 -0.30369663 0.0033312682
0.23558995 0.15278497 0.70387435 0.5975079 0.27451617 0.38189185 0.40327328 0.5141563
-0.08365633 0.0647922 0.6200607 0.4458094 0.34912175 0.034115992 0.27202424 0.45991448
0.63050824 0.40112275 0.5717869 0.44374108 0.40149546 0.76254755 0.6861334 0.16911525
0.6622464 0.39502525 0.29064187 0.59147465 0.1420978 0.6315732 0.70128 0.12635794
0.06198431 1.437423 0.587774 0.40768814 0.25782028 -1.0126394 0.24991903 -0.13083008
0.1962507 0.14667651 -0.3861325 -0.6120788 0.44247556 0.7749346 0.019907087 0.6054099
-0.9117631 -0.7609197 0.47857782 0.07214639 1.9878197 -0.022827309 -0.75009686 -0.45380315
-0.77480894 0.49191803 -1.2393461 -0.3324852 -1.0512551 0.63850284 -0.8117268 -1.0019239
0.7243722 0.28585583 0.23694819 0.3046614 0.10017282 0.60031545 0.2575972 0.22292948
-0.23292784 0.47028217 0.33587295 0.35867438 0.09710232 0.008560591 0.15428346 0.48672414
0.20800643 0.3178415 -0.06048742 0.25658694 0.63230366 0.43630546 0.6723878 0.2505867
0.14724891 0.050630033 0.64090055 0.0047684717 0.47555733 0.48999017 0.45370543 0.5554241
0.32458365 0.5309037 0.13839853 0.30427268 0.6375789 0.43107516 0.2708142 0.34602186
-0.18905118 0.48161313 0.37332356 0.38508832 0.31666046 0.45473152 -0.086352214 0.10790606
0.6523248 0.50181615 0.046480615 0.08092612 0.39017126 0.61522484 0.42580256 0.5628156
0.05701443 0.45446247 0.10628545 0.47335443 0.55407244 0.52934694 0.63877875 0.12910773
-0.025853228 -0.044808198 0.48241302 0.4089027 -0.031211216 0.47223023 0.64631104 -0.046878837
0.29437256 0.25155684 0.3764781 0.6080742 0.39671543 0.2233015 0.36445937 0.21766037
0.35426807 -0.067913726 0.123399705 0.09289752 0.41618314 0.33901733 0.3316034 0.010834142
0.011203242 0.38807276 0.4788144 0.44586748 0.08647437 0.21176468 0.1833398 0.59108067
-0.1526247 0.22269085 0.24377283 -0.32334438 0.0021590292 -0.06733549 -0.19545221 0.15263519
-0.04295498 0.30953887 -0.22129047 0.16427204 -0.3018613 -0.17720862 0.024116933 0.27934012
0.18622336 -0.29029754 0.039161503 -0.20841612 0.015319377 -0.29453588 -0.10372318 0.24249044
-0.324398 -0.3370858 0.06439772 0.048466653 -0.064659804 0.30872712 -0.21287058 -0.21463527
-0.3312062 -0.09583175 -0.16059262 0.14805233 -0.090806514 0.08078591 -0.14692147 0.2202683
0.29805216 -0.31663144 -0.15296084 -0.36375958 0.08413033 -0.3578413 -0.16716422 0.28203943
-0.4048624 0.26085326 -0.038173888 0.21870904 -0.21746919 0.16496514 -0.01041312 0.027192652
0.17377281 -0.40398487 -0.31479743 0.3153053 -0.25403345 -0.32604843 -0.07880106 -0.16372246
00000000: 2db0 813d a02e e7bd 25c3 36be 8000 9cbe
00000010: 26f9 a43d ee46 963e 4bcc 5cbe 9fde c13d
00000020: 34ee 0e3e ce54 743e bc19 dcbd 164d 60bd
00000030: bc5a 483e 907b 343e e908 9c3e ba9d 32be
00000040: 1491 8e3d 126d 613e 2a76 9dbe 3155 453b
00000050: cacf 0bbe d7c5 223e f699 22be 7fc5 8dbc
00000060: 95c7 193e b426 cabe b9e1 b7be f770 6bbe
00000070: 3864 2e3e 452a 223e 207e 9bbe 6851 5a3b
00000080: 7e3e 713e aa73 1c3e 1c31 343f 47f6 183f
00000090: 628d 8c3e 5487 c33e d679 ce3e bf9f 033f
000000a0: 0354 abbd c6b1 843d 4cbc 1e3f 2141 e43e
000000b0: 16c0 b23e 36bd 0b3d c346 8b3e e979 eb3e
000000c0: fd68 213f f65f cd3e a060 123f 0832 e33e
000000d0: d090 cd3e 5136 433f 70a6 2f3f 8c2c 2d3e
000000e0: fb88 293f c040 ca3e 03cf 943e e26a 173f
000000f0: 1682 113e c8ae 213f 1687 333f fa63 013e
00000100: 43e3 7d3d 7afd b73f 5b78 163f 80bc d03e
00000110: 0501 843e 2b9e 81bf c6ea 7f3e 52f8 05be
00000120: f2f5 483e 5e32 163e 29b3 c5be 32b1 1cbf
00000130: 288c e23e 1d62 463f 3014 a33c 25fc 1a3f
00000140: 4e69 69bf a2cb 42bf 2708 f53e 7dc1 933d
00000150: e070 fe3f 5600 bbbc 5906 40bf e358 e8be
00000160: e159 46bf aedc fb3e e5a2 9ebf 803b aabe
00000170: 878f 86bf ec74 233f 54cd 4fbf 0b3f 80bf
00000180: 7570 393f b25b 923e 8ca2 723e 94fc 9b3e
00000190: 6827 cd3d 46ae 193f c8e3 833e a047 643e
000001a0: a384 6ebe d3c8 f03e 8af7 ab3e 2ba4 b73e
000001b0: 95dd c63d b941 0c3c 7cfc 1d3e e833 f93e
000001c0: a3ff 543e 1fbc a23e a8c1 77bd 5d5f 833e
000001d0: a7de 213f 6e63 df3e 9b21 2c3f e64c 803e
000001e0: 6bc8 163e 7061 4f3d 0f12 243f d740 9c3b
000001f0: 407c f33e fedf fa3e 144c e83e 4630 0e3f
00000200: d42f a63e 4ee9 073f 58b8 0d3e a1c9 9b3e
00000210: 5f38 233f e2b5 dc3e 29a8 8a3e c729 b13e
00000220: a296 41be ff95 f63e 4424 bf3e 4c2a c53e
00000230: 5221 a23e 92d2 e83e 6ed9 b0bd dafd dc3d
00000240: c2fe 263f 0677 003f 7562 3e3d 98bc a53d
00000250: 87c4 c73e 607f 1d3f cb02 da3e af14 103f
00000260: f787 693d 4eaf e83e 30ac d93d 835b f23e
00000270: b1d7 0d3f 4883 073f 0187 233f d134 043e
00000280: 26ca d3bc cd88 37bd d7fe f63e b25b d13e
00000290: aaae ffbc 29c8 f13e a474 253f 0604 40bd
000002a0: 00b8 963e 0fcc 803e bdc1 c03e c0aa 1b3f
000002b0: 491e cb3e 26a9 643e 6b9a ba3e 5ce2 5e3e
000002c0: a062 b53e 5a16 8bbd fcb8 fc3d 0e41 be3d
000002d0: f515 d53e ae93 ad3e ecc7 a93e af81 313c
000002e0: cd8d 373c 79b1 c63e 2927 f53e be48 e43e
000002f0: 7919 b13d d7d8 583e 6ebd 3b3e 1051 173f
00000300: a649 1cbe 1209 643e 969f 793e 658d a5be
00000310: 807e 0d3b 30e7 89bd a024 48be 664c 1c3e
00000320: 90f1 2fbd e17b 9e3e f899 62be ee36 283e
00000330: 908d 9abe 2d76 35be e090 c53c ab05 8f3e
00000340: 56b1 3e3e e1a1 94be d067 203d 096b 55be
00000350: 20fe 7a3c 68cd 96be d26c d4bd 6a4f 783e
00000360: 7f17 a6be 8396 acbe f4e2 833d f884 463d
00000370: 5c6c 84bd 7b11 9e3e bffa 59be 59c9 5bbe
00000380: dc93 a9be 7043 c4bd 6472 24be 089b 173e
00000390: c4f8 b9bd 1573 a53d 9572 16be 038e 613e
000003a0: 4b9a 983e 841d a2be c4a1 1cbe b23e babe
000003b0: 864c ac3d fa36 b7be 192d 2bbe 7967 903e
000003c0: 204a cfbe 8f8e 853e 395c 1cbd 43f5 5f3e
000003d0: 3eb0 5ebe 9fec 283e ca9b 2abc 20c3 de3c
000003e0: 80f1 313e 1bd7 cebe 212d a1be b26f a13e
000003f0: ac10 82be d2ef a6be 7362 a1bd dca6 27be

bias f4 [16]
-0.05808249 0.42026222 0.27734357 0.42989716 0.42731413 0.34823015 0.01 -0.05847974
-0.015807258 0.01 -0.029155103 -0.052223153 0.41640452 0.4224575 0.40872183 0.42633256
00000000: e8e7 6dbd 9c2c d73e faff 8d3e 7b1b dc3e
00000010: ebc8 da3e 394b b23e 0ad7 233c 7488 6fbd
00000020: 397e 81bc 0ad7 233c afd6 eebc f2e7 55bd
00000030: f932 d53e 594c d83e fd43 d13e 4348 da3e

weight f4 [8, 16]
-0.030740436 0.38690785 -0.7041076 0.28750727 0.756947 -0.07328187 0.24370295 -0.26420802
-0.4122335 -0.10264832 0.29782897 0.39022145 0.49877822 0.31828186 0.34433514 0.17139089
-0.044868708 -0.03454697 0.42548132 0.2926221 -0.40011197 0.0020683408 -0.30753493 -0.07937044
-0.39738405 0.12998056 -0.36053902 0.4936105 0.37760127 -0.34417945 -0.47073197 0.019508839
-0.08339478 0.47566417 -1.1627709 0.447848 -0.1674159 -0.048172537 -0.26285088 0.2907364
-0.0130906105 -0.4805143 -0.28556 -0.25142407 -0.12976955 0.39282483 0.5099515 0.24794748
-0.1353945 0.36554098 -1.2209799 0.05264431 0.3393353 0.78222835 -0.15375417 0.3210319
-0.17096801 -0.1330989 -0.4224331 0.4664468 0.8537206 0.35110718 0.68398714 0.77885514
0.19625527 0.18675508 -0.4759953 -0.54941106 -0.46363676 0.089785546 -0.43248832 -0.43937737
-0.2681586 -0.46084267 -0.03861174 0.030783037 -0.36193287 0.2519387 -0.25791654 -0.20939296
0.3311581 0.35859525 -0.057360232 -0.38896647 -0.32264426 0.0057779974 0.29309624 0.18971917
-0.22079122 -0.4726833 -0.46371713 -0.19390053 -0.066622294 -0.2976289 -0.46619266 -0.00900633
-0.39687037 -0.3839621 -0.40647298 -0.13548672 0.44162905 0.19545966 -0.05928451 0.10290563
0.19910455 0.0029131174 -0.40328717 -0.3080563 -0.33967638 -0.012696147 -0.45770085 -0.090910554
-0.12527935 0.8632177 -0.4172181 0.64954555 0.38528603 0.17842695 0.12753522 -0.28550276
-0.18744482 -0.10044271 -0.06426193 -0.4222749 0.5759957 0.7760194 0.100667104 0.51595974
00000000: 5ed3 fbbc c918 c63e 6540 34bf 2734 933e
00000010: 47c7 413f ce14 96bd 448d 793e 4646 87be
00000020: 4510 d3be 4839 d2bd 0a7d 983e 1bcb c73e
00000030: dc5f ff3e d7f5 a23e b24c b03e 1881 2f3e
00000040: 40c8 37bd 2081 0dbd b0d8 d93e 90d2 953e
00000050: 7adb ccbe 008d 073b 3875 9dbe f88c a2bd
00000060: ec75 cbbe a019 053e 9298 b8be 84ba fc3e
00000070: f454 c13e 4a38 b0be c803 f1be 00d1 9f3c
00000080: e2ca aabd 418a f33e add5 94bf 554c e53e
00000090: 136f 2bbe 9150 45bd 6494 86be 67db 943e
000000a0: 007a 56bc f805 f6be ec34 92be a8ba 80be
000000b0: 4fe2 04be 5620 c93e 2e8c 023f f2e5 7d3e
000000c0: dba4 0abe 3028 bb3e 1249 9cbf 8fa1 573d
000000d0: 5bbd ad3e 1e40 483f bc71 1dbe 4b5e a43e
000000e0: 3d12 2fbe 144b 08be 2749 d8be 1dd2 ee3e
000000f0: 6f8d 5a3f 52c4 b33e c819 2f3f 0d63 473f
00000100: 24f7 483e b93c 3f3e a8b5 f3be 34a6 0cbf
00000110: cc61 edbe 7ce1 b73d 1c6f ddbe 12f6 e0be
00000120: 164c 89be 92f3 ebbe 5827 1ebd b52c fc3c
00000130: 444f b9be 1cfe 803e a30d 84be 1c6b 56be
00000140: 8e8d a93e cc99 b73e 90f2 6abd 9d26 c7be
00000150: a131 a5be 5b55 bd3b b610 963e be45 423e
00000160: 1817 62be 8c03 f2be 556c edbe dc8d 46be
00000170: 4571 88bd d162 98be ceb0 eebe 498f 13bc
00000180: 9832 cbbe ae96 c4be 3a1d d0be 08bd 0abe
00000190: 341d e23e 9426 483e 50d4 72bd 30c0 d23d
000001a0: 10e2 4b3e 00ea 3e3b a87b cebe 8eb9 9dbe
000001b0: 10ea adbe 8003 50bc c457 eabe 502f babd
000001c0: 3b49 00be d6fb 5c3f 9c9d d5be 9e48 263f
000001d0: 3644 c53e 8eb5 363e 9898 023e 6b2d 92be
000001e0: 89f1 3fbe e8b4 cdbd c29b 83bd 6a34 d8be
000001f0: 7474 133f 35a9 463f 8e2a ce3d f015 043f

bias f4 [8]
0.4058071 0.01 0.41008195 0.39092252 -0.06013153 -0.058704916 0.01 0.36883214
00000000: f3c5 cf3e 0ad7 233c 43f6 d13e ff26 c83e
00000010: 7b4c 76bd 9174 70bd 0ad7 233c 91d7 bc3e

weight f4 [4, 8]
0.28005195 -0.025789917 0.37716416 0.9862044 0.16548562 -0.390349 -0.25435588 0.71516746
0.5803941 0.013743103 0.24238835 0.09367804 -0.17399395 -0.3381981 0.115867734 0.5657468
0.776669 -0.15974492 0.23224248 0.6889773 0.2456903 0.037915017 0.21727878 0.26718393
-0.66426015 0.027259767 -0.2147431 0.5759005 0.58141476 0.08425816 0.6320142 -0.42748475
00000000: f862 8f3e 6045 d3bc a91b c13e e477 7c3f
00000010: 1075 293e d3db c7be ef3a 82be 3715 373f
00000020: b594 143f c02a 613c a734 783e 46da bf3d
00000030: 782b 32be 4d28 adbe 104c ed3d c8d4 103f
00000040: c8d3 463f 2c94 23be f9d0 6d3e d160 303f
00000050: 3d96 7b3e c74c 1b3d 547e 5e3e 55cc 883e
00000060: f40c 2abf e04f df3c 9de5 5bbe 376e 133f
00000070: 99d7 143f 8b8f ac3d afcb 213f 48df dabe

bias f4 [4]
0.32985905 0.33622122 0.276837 -0.05049414
00000000: 49e3 a83e 3025 ac3e 94bd 8d3e f1d2 4ebd

weight f4 [1, 4]
1.321275 1.3016187 0.32398465 -0.82749623
00000000: 8a1f a93f 719b a63f 51e1 a53e cbd6 53bf
