experiments/neural_networks/mlartifacts/954866327486404750/models/m-f885594e5bee4de793b318fe97c1b445/artifacts/data/model.pth (torch, 6153 bytes, 3 tensors)

weight f4 [18, 9]
00000000: 1e46 073e 4f37 dbbe 2824 32be 7141 cb3e
00000010: 9a0b 3c3e f012 c0bc 4d84 91be 2caa 93be
00000020: 9533 d8be 514f 16c0 2140 30c0 1c0d 18bf
00000030: 01e7 20c0 502f 6bc0 aba5 51c0 2ade eebf
00000040: 3e3d 22c0 93ae 08c0 e239 edbd d9b6 74bf
00000050: 2f47 733f f3a5 d7bf 87d3 3fbf dfd1 593f
00000060: e5bb 9240 37e4 7940 0e08 8640 b5a8 5d3f
00000070: 7b45 743f 5912 ae3f 20ee 15bf e6a4 823f
00000080: 2864 1140 d7ea 6540 9441 9040 8bb7 b140
00000090: 5fae 12bf 7ab4 05c0 6289 433f c68f 0ec0
000000a0: 8383 eabf 9046 403f 45b9 8a40 b1c3 8440
000000b0: d577 7140 fd85 b0be b8e0 f5bf a606 3c3f
000000c0: b9d7 d4bf 715c cebf 7eaa 993f f9c5 8c40
000000d0: ae99 7a40 12c6 6e40 288d c0bd 2b34 7ebc
000000e0: 8888 acbe 441f b43e 8ca3 5abe 39cf 9e3e
000000f0: b529 0e3d 37a7 533d f4fe d7be ac30 ffbf
00000100: 0f9e 2bc0 bb01 3a3d f701 acbf 0d23 28c0
00000110: 4eec dbbf f64c 1ec0 f5d1 06c0 6fff 54bf
00000120: 4257 6840 7fe4 4d40 113c bf40 59e4 7d40
00000130: 739f 2140 066f 7040 7f43 8040 f159 fe3f
00000140: a29d 3d40 5643 ca3e ab93 2dbf 9d22 b03f
00000150: d592 5dbf 951f 1cbf e0fe 983f a2c4 7340
00000160: bc96 8740 fbe2 8040 256d f8be 90ed 05c0
00000170: eaa4 703f 7e38 10c0 51e4 f2bf 592d 3d3f
00000180: 0c92 8240 942b 7240 48a6 7040 cd29 51bc
00000190: c6e8 28bc 5f2f ff3d c0dd 0f3d cd56 dabc
000001a0: d9e5 d0bd a0b4 f6be 7d71 183e 0db6 91be
000001b0: 1725 053f 77bd ad3e 2c8a d43f bc2f 413e
000001c0: e652 ab3f 6c54 e53f 0fdc 5640 509e 9f40
000001d0: d6bd af40 e449 dc3e 9f58 b03e c75b 5f3c
000001e0: f744 c53d 5984 17bf 81b4 5abe ff09 b7be
000001f0: eb48 6e3c 7be9 b6be a8d7 2ebe 3640 ecbd
00000200: dd89 83be 8c06 1fbe a21a b63d 84ca 063f
00000210: e54c 05be d0ae fabe 3803 fcbe c02d b43e
00000220: 1eaf adbf cbed 8f3f ff8d 82bf c5e1 9abf
00000230: 72ea 863f c612 9140 2609 8640 9530 6840
00000240: 0d21 c2be 8ad3 cdbf b97f 723f c611 80bf
00000250: ee9a b4bf 8346 3c3f 8dbb 8d40 3ad3 8540
00000260: dd45 7a40 143f 7e40 66de 3340 ef1e 9640
00000270: 7853 4740 282d 2540 0abd 6840 3be6 5140
00000280: e5a6 0340 c6a6 3a40
0.13210341 -0.42815635 -0.17396605 0.39698365 0.183638 -0.02344653 -0.2842125 -0.28840768
-0.42226854 -2.348591 -2.753914 -0.59395003 -2.5140994 -3.6747627 -3.2757366 -1.8661549
-2.534988 -2.1356552 -0.11583306 -0.95591503 0.9503049 -1.6847519 -0.7493214 0.8508586
4.5854363 3.9045541 4.188483 0.8658555 0.9541852 1.3599349 -0.58566475 1.0206573
2.271738 3.5924585 4.508005 5.553655 -0.5729732 -2.0891404 0.76381505 -2.2275252
-1.8321384 0.7510767 4.335116 4.148888 3.772939 -0.34477225 -1.9209204 0.73447645
-1.6628333 -1.6121961 1.2005155 4.3991666 3.9156299 3.7308393 -0.094019234 -0.0155153675
-0.33697915 0.35180104 -0.2135145 0.31017473 0.034707744 0.05167314 -0.421867 -1.9936728
-2.6815221 0.045411807 -1.34381 -2.6271393 -1.718149 -2.4734473 -2.1065648 -0.8320226
3.6303258 3.2170713 5.9760823 3.9670622 2.525357 3.7567763 4.0082393 1.9871198
2.9627461 0.39504498 -0.6780345 1.3760563 -0.8655217 -0.6098569 1.1952782 3.8088765
4.23715 4.0277076 -0.4852077 -2.0926247 0.9400164 -2.253448 -1.8975927 0.7389732
4.080328 3.7839098 3.760149 -0.012766314 -0.010309404 0.12460207 0.035123587 -0.026652718
-0.1020009 -0.4818468 0.14887042 -0.28459206 0.5200972 0.33933613 1.6604667 0.18865865
1.3384674 1.7916389 3.3571813 4.9880753 5.4919233 0.43025124 0.34442613 0.013632721
0.096322946 -0.5918632 -0.2135792 -0.35749814 0.014543752 -0.35725006 -0.17074454 -0.11535685
-0.2569112 -0.15529841 0.088917986 0.52652764 -0.13017614 -0.48961496 -0.49221206 0.35191154
-1.3569067 1.1244444 -1.0199584 -1.2100149 1.0540297 4.5335417 4.1886168 3.6279652
-0.3791584 -1.6080182 0.9472614 -1.0005424 -1.4109781 0.7354509 4.4291444 4.1820345
3.910514 3.9726 2.8104491 4.691276 3.1144695 2.580881 3.636538 3.2796772
2.0570614 2.916429

bias f4 [18]
00000000: 0ad7 233c 4891 59c0 6130 9b40 40f2 9840
00000010: 7ea7 9a40 3772 9740 2a84 75be cae3 02c0
00000020: 2543 4b40 7201 8a40 8612 9340 1401 5dbe
00000030: af86 9e40 4b4b ebbe f700 40be 6ab0 9840
00000040: 20e0 8f40 35b4 3a40
0.01 -3.3994923 4.8496556 4.7795715 4.832946 4.7326922 -0.23976198 -2.0451531
3.1759732 4.3126764 4.596011 -0.21582443 4.953941 -0.4595588 -0.18750368 4.771535
4.496109 2.917249

weight f4 [1, 18]
00000000: b2cf a3be 06c4 d8c0 b705 8940 80d6 9c40
00000010: 8255 8d40 63bb 8d40 62ff 85be a3c7 c3c0
00000020: ad76 7d40 f3b7 9440 5fcd 9340 0f63 1abe
00000030: bc29 9840 ce35 42bf 16df d8bd 0fea 8e40
00000040: c9da 8a40 a0c5 8840
-0.31994396 -6.7739286 4.2819476 4.901184 4.416688 4.4291244 -0.26171404 -6.1181197
3.9603684 4.6474547 4.6188197 -0.1507685 4.7550945 -0.7586335 -0.10589425 4.4660716
4.339207 4.274124
