experiments/neural_networks/mlartifacts/408745732833894938/models/m-ed94bd1d9a3a42d9aa11d7587f9fac13/artifacts/data/model.pth (torch, 12261 bytes, 9 tensors)

weight f4 [32, 9]
00000000: 85e0 0abe 3584 af3d 8140 9bbe 6c76 a5bc
00000010: 47df 9cbe 6f6e e93d facf bbbd 3065 f8bc
00000020: f7ef a9be 24a0 473d cf18 d63e c21c 733e
00000030: a654 1ebe 9504 913d 9b8c 6a3c 1f72 6ebe
00000040: 4c55 c03e 44b6 b13d 8088 853d 36f7 22be
00000050: 959c 47be 54b1 2f3d 9805 103e 3cb6 8e3d
00000060: 7cca 3cbe 094b a73e d5af a7bd 6257 74be
00000070: 5577 41be da1c bf3e 0e22 07bb 714f 7fbd
00000080: d020 24be 898d a4bd 80c9 99be a534 b2be
00000090: cbe9 2c3e e5a0 8a3e 50c9 9e3e cb19 a8be
000000a0: 077c 183e a459 95be 698e 143e 9f53 833e
000000b0: d9aa 7d3e f3e8 313e 4710 0d3e 59fd c1bd
000000c0: d895 953d 1330 74be 6899 823d 5501 15be
000000d0: f961 cfbd e1e4 d9be b56b 07bd b504 08be
000000e0: d4d8 78bd 96cb 33be 2f02 8dbe adf0 c03d
000000f0: 988d 3e3e 1fde 943e 5995 483e 29e9 f8bd
00000100: 6e37 a5be de1d 483e 268c 853e 074e 8fbe
00000110: b79b 363e 76f2 763e 4295 a5bc 2264 86be
00000120: bf56 853e 814e de3d 8d13 4d3e 1945 9fbe
00000130: 6b9d 2a3e b933 a1be 258c 993e cbac 49be
00000140: 7128 383e 0382 ef3d a514 103e f9ed 99bc
00000150: 288d 483e 2081 f5bd e858 a4be 21a5 4ebe
00000160: 9afd 6e3e e4a1 0abe 5c0b 813d 1100 4bbe
00000170: 53ae 6c3e abde 303e 6f84 a03d 57da 80be
00000180: 8a3f b4be 104a d3bc a7d6 91be 7dd5 6d3e
00000190: 100c e6be 6735 bc3d b5c3 993e 5248 e33d
000001a0: fd17 4f3d fcda d3be 9842 ae3e 3dcb 17be
000001b0: 3217 cfbe 4cc0 a63e a84e 51be 2445 a1bd
000001c0: 471a 973e 5ef6 a3be 1ee4 83be 476f f03c
000001d0: 2924 41bd 0557 233e 5b3c 81be 6668 a93d
000001e0: 9e3a cabd 6228 fabd 009a 8fbe 520d 083e
000001f0: 39f9 9a3c ab15 acbe f9dd 753e f2da 503d
00000200: aa0c 0e3c 20f7 92be 28a8 f2bb 564e 9c3e
00000210: 4dfc 353e 2984 aebe 6052 963e 817a 4cbd
00000220: 1a66 d63d 7bfb 5d3e a05a 773e 04a5 c0be
00000230: ad1d 813e 839e 55be 99b0 2dbd fd5a adbe
00000240: 14c2 09be 9bc6 8dbd 8cdc c5bd 18fb e0bd
00000250: cad9 babc f0d5 a63e 0f03 153e 0a4d 2e3e
00000260: ebac e13d 35dd ae3e af1c e03c 50d3 9c3d
00000270: c773 fe3d 04df 93be 1d53 86be 34e8 4dbc
00000280: 97d4 37be f03f 5dbd 0750 e7bd 911b 0a3d
00000290: 75fa 633e 93c6 1bbe 4b40 8f3e de4c 8d3e
000002a0: 1c60 9bbe 1dff a9be 8cb5 a9be 2404 02be
000002b0: ac94 8cbd fdb3 6c3d 202c 16bc f8ef eabd
000002c0: 1098 1dbd 649e 62be 83bd aa3e d746 23be
000002d0: 00d0 5cbe e5b1 5f3e bdaa 113d a59c b23e
000002e0: 0c70 993e 1996 d13e f0b9 51be 6c34 943e
000002f0: 8dff bf3e 8306 84be e2f8 903e 7660 603e
00000300: a77e 83bd 7d60 ee3d ca8e 4ebe 9ddf bebe
00000310: 67b4 4b3d f9de 463d e9d8 48be b685 783e
00000320: 30ef 88be 85ca c13e 88a8 dc3e 7217 233e
00000330: 1d9a 2abe f9ab 173e 2474 d93d 5d9e 2b3e
00000340: 6700 3f3e 386b b23e e90b cebd 8053 ebbc
00000350: 634a 283e 1521 9e3d 4782 ad3e c95f 39be
00000360: 8d4e cebc 452a 863d 146b dcbd 65d2 803e
00000370: 4e26 253d 5f82 b7be b1b8 b1bd d1bb 4ebe
00000380: c863 91bc 90c0 a53c aba0 a6be 87a1 39bc
00000390: 10e4 cb3c fd24 90bd b671 cd3e f249 05be
000003a0: 383d 7a3e 8d27 913d 7baf 8fbe fedf 073e
000003b0: 0d53 b73e 9f44 56be b70c 51be c537 d53e
000003c0: 78ba bf3e 7f1c 88be 6650 863e b7a2 d5bd
000003d0: 0c5c dbbe 67e5 afbc 62d7 903d 1723 28be
000003e0: 0348 a73d a34f 7ebe d8b7 8c3e f285 a43e
000003f0: bd8a 003e 1440 9ebc 503a 2d3d 3016 b6be
-0.1356221 0.08570138 -0.3032265 -0.02019807 -0.30639097 0.11398017 -0.09170528 -0.030321687
-0.3319089 0.048736706 0.41815802 0.23741439 -0.15461978 0.07080952 0.0143157495 -0.23285721
0.37565076 0.086773425 0.06520176 -0.15914616 -0.19493325 0.042893723 0.14064634 0.06968352
-0.18436617 0.32674435 -0.08187834 -0.23861459 -0.18893178 0.373267 -0.0020619663 -0.06233162
-0.16028142 -0.08034808 -0.30036545 -0.3480579 0.1688606 0.27075878 0.31012964 -0.32832178
0.14891063 -0.29169953 0.1450745 0.25649735 0.24772204 0.1737402 0.1377574 -0.0947215
0.07303971 -0.23846464 0.06376916 -0.1455129 -0.10126109 -0.42557433 -0.0330617 -0.13283046
-0.06075366 -0.1755813 -0.27540728 0.09420905 0.18608701 0.29075715 0.19588222 -0.12153847
-0.32268852 0.19542643 0.26083487 -0.27989218 0.17832838 0.24115929 -0.020212773 -0.2624827
0.26042745 0.10854817 0.2002699 -0.31107405 0.16661613 -0.31484774 0.29989734 -0.19694822
0.17984177 0.1169472 0.14070375 -0.018790232 0.19585097 -0.11987519 -0.3209908 -0.20180179
0.23338929 -0.13538319 0.06300995 -0.19824244 0.23113374 0.17272441 0.0783776 -0.2516658
-0.35204726 -0.025792152 -0.2848408 0.2322597 -0.44931078 0.09189873 0.30032125 0.110977784
0.050559986 -0.4137801 0.34035182 -0.14823623 -0.40447384 0.32568586 -0.20440161 -0.07874516
0.29512236 -0.320239 -0.25759977 0.029349936 -0.047153626 0.15951164 -0.2524136 0.082718655
-0.098744616 -0.12214734 -0.2804718 0.13286331 0.018917667 -0.3361028 0.24010457 0.050990053
0.008670012 -0.28704166 -0.0074052997 0.30528516 0.17772026 -0.34085205 0.29359722 -0.049921516
0.10468693 0.21677963 0.24155664 -0.37625897 0.25217953 -0.20861249 -0.042404745 -0.3385848
-0.13452941 -0.069226466 -0.096612066 -0.10985392 -0.022808928 0.32585096 0.14551948 0.17021576
0.110193096 0.34153143 0.027357427 0.07657492 0.124244265 -0.28881085 -0.26235285 -0.012567569
-0.1795219 -0.054016054 -0.11294561 0.033717696 0.2226351 -0.15212469 0.2797874 0.27597708
-0.30346763 -0.33202448 -0.33146322 -0.12696892 -0.068642944 0.057788838 -0.009165794 -0.11471552
-0.038475096 -0.22130734 0.3334771 -0.15944992 -0.2156372 0.21845205 0.03556322 0.34885135
0.29968297 0.40934828 -0.20481086 0.28946245 0.37499657 -0.25786218 0.28314883 0.21911797
-0.064206414 0.116394974 -0.20171657 -0.37279978 0.049732592 0.048552487 -0.19613995 0.24269757
-0.26744986 0.37849823 0.4309733 0.15926912 -0.16660352 0.14811696 0.10617855 0.1675963
0.18652497 0.34847426 -0.100608654 -0.02872634 0.16434626 0.07721154 0.33888456 -0.18102945
-0.02518394 0.06551031 -0.10762611 0.25160518 0.040319733 -0.35841653 -0.08677805 -0.20188834
-0.017747775 0.020233423 -0.32544455 -0.011330015 0.024889022 -0.07038305 0.40125817 -0.13016489
0.24437416 0.07087622 -0.28063568 0.1326904 0.3580555 -0.20924614 -0.20415007 0.4164411
0.37446952 -0.2658424 0.26233214 -0.10431426 -0.42843664 -0.021471692 0.07072331 -0.16419636
0.08168032 -0.24835066 0.27484012 0.32133442 0.12552924 -0.019317664 0.04229194 -0.35563803

bias f4 [32]
00000000: d7cb b63d 13ca c43d 2499 13bd 2c5f d33c
00000010: 6a0a 5abd 3bc3 b7bd 8291 60bd f1f3 72bd
00000020: a013 6abd 104a 91bd 5341 38bd 67dd 58bd
00000030: 4329 c4bc a0d4 7fbd 1280 6cbd 45dd 73bd
00000040: 94a7 44bd 46c8 4abd 62a6 a3bc 650c 45bd
00000050: 2a68 9f3d 3e05 5fbd a187 513d db89 343d
00000060: c631 52bd 9a0f fbbc 5f1c 403d e6d0 043d
00000070: 8019 95bc 386d 75bd 5baf b73d e47b 193d
0.08925598 0.09608855 -0.03603472 0.025802217 -0.053232588 -0.08972784 -0.054826267 -0.059314672
-0.057147622 -0.070942044 -0.044984173 -0.05294552 -0.023945456 -0.062458634 -0.057739325 -0.05953719
-0.048011377 -0.049507402 -0.019976798 -0.048107523 0.077835396 -0.05444836 0.051154736 0.04407678
-0.051317 -0.030647088 0.046902057 0.032425784 -0.018200636 -0.059918612 0.08968993 0.037471667

weight f4 [16, 32]
00000000: cb5f b5bd 6c02 cc3e 7cf1 e0bd dcc0 c3bd
00000010: 268a c93d 1c8f 49be b275 81bb dffe 8fbe
00000020: 86d6 b23d 4ff1 363d cb6c e53d 829e 60be
00000030: 973d c2be 3b1f 0b3e d550 bb3e d2da 70be
00000040: ea20 213e fbdb 8abe e27e bf3d 2cf7 8f3e
00000050: 627b b23e 3ac2 3cbe e852 993e a7fc 873e
00000060: c62d 113c 19cb 963e bd22 00be 681d 01be
00000070: e08b 1bbe a37a f23d 1663 9f3d 29a1 9f3d
00000080: fee2 72be 630b 5ebe 86f7 873d 2a1e 99be
00000090: af56 bbbd f8fe 79bd beef 47be a552 0c3e
000000a0: 43cc 4838 3456 4a3e e09c 00bd 617d 71be
000000b0: 3b37 393e 436b cf3c a433 0abe f22f 89be
000000c0: d922 203d 3263 bcbe 94f1 8e3d c9f2 e33d
000000d0: add9 c5be bdb8 83be 5cec a4be 9123 733e
000000e0: 3b2f 883e 73d5 37bd 5e49 a33e f958 3fbe
000000f0: 941c bfbe 9575 cb3d c09b bb3d f7f7 8e3e
00000100: 00a0 d6b8 87bb 8a3e a6ea 5d3e 2304 833e
00000110: 9da1 b3be d30f 953e 7a4f 9abe 2d49 a23e
00000120: c00c 70bc 246c a0be 545c c93d 3462 93bd
00000130: 2297 a2be bb40 03be f04f 153d 7dfc 8c3e
00000140: 549a debd 120a 573e a859 353d c041 433c
00000150: 708c 8a3d 3b98 6dbe 8476 96be 7483 e3bd
00000160: 00af a8be 41d6 28be 403f 853c 2871 6ebe
00000170: 152c 16be 5c1b 82bd 10d5 26bd c3d9 47be
00000180: 1f2b 963d 867c 013c 837c 243e eaef 813d
00000190: e165 f4bd 44c3 a0bd b98f 3c3d 09e5 12be
000001a0: 7a9d 533d 77da 113d ebba 323e fab9 093e
000001b0: 59ca 943e e44a 533d fbfa 47be c9da 543e
000001c0: c417 3ebe 7f71 2f3c d339 8ebd 03c4 8dbd
000001d0: 06c5 64bd 1d8d c33e ea57 8f3e 866c 1a3e
000001e0: 21a6 b43e c598 89be 35dd b63d af10 883e
000001f0: ee01 7f3e 340b 5bbe 06dd 313e 4686 0fbe
00000200: 997d 973d 39de 12bd 5371 84be 5839 7cbe
00000210: 8049 3bbe e08f 5a3e 441f 813e 92f4 5dbe
00000220: fc70 a1bd ad4f 7f3d 739a 83be f19c 7e3e
00000230: 5a6f b53e a191 1b3e 160d 5abe 9e51 083e
00000240: 78a8 323e 4317 b03e b2df 0dbe f655 6dbe
00000250: 1dee 4e3e c77a 963d c22e 90bd 85e0 d8bd
00000260: f099 c4bd fc87 ab3e 322e 79bc 5eeb a03e
00000270: ad1a bd3e 27ff c53d 40b5 2b3e 52fe 833c
00000280: 3833 4f3e 2e00 c3be ec27 2a3e 47a9 e7bd
00000290: 9baa be3d cfa1 6cbd 5c98 47be 4d10 dfbd
000002a0: cdcf ea3d 5a72 7bbe 694e 87be 83e5 f9bd
000002b0: f236 1dbe 5161 9f3d 5292 2d3e 3e82 bbbd
000002c0: 707d 863e 93e6 3fbe 7832 7bbe 2cad 53be
000002d0: 5833 99be d1ae 93be fc05 bdbe 6b06 c7be
000002e0: 1c68 753d 80d9 2d3e 4a77 813e aec0 883e
000002f0: 2744 7cbd 68ec 37bb a2b1 8ebe c46c 643d
00000300: 8fcf d5be b24c db3d bfe7 193c dbf4 cf3c
00000310: 64b0 813d 202a 6bbe daf0 663e 5dc5 bc3d
00000320: 80cb 253e 0494 18bc 1c4b 203e 5141 313e
00000330: 095a b13d 6732 433e d875 06be f9d8 2a3e
00000340: 5150 553c 8ea7 193e 46f9 8d3e 1d25 fa3b
00000350: 081d 47be ea7b cebd e0fc 163d 109f 17bb
00000360: 3745 34be d535 5f3e d0b1 123e 20fd 8ebe
00000370: 39a5 c2bd 9f64 cfbd 2d2d 9dbe 632f 4ebc
00000380: ff43 ebbd e1ec 82be e5f1 30be 0407 f2bd
00000390: 66f6 843e 23fc 783d 6e83 9d3e a8fd 833d
000003a0: 5523 223b 0be1 bb3d 04e8 9c3c 16aa aabe
000003b0: 8457 83be 79a1 d8bd 045b 99bd 519b 7a3d
000003c0: 1847 6b3d 853f 803e bcbb 033c 5dc6 2bbe
000003d0: 2d30 b1be 2b53 9fbe c45d 94be 7df2 c23c
000003e0: d36a 423e f211 7b3e 45d7 48be c1aa c0bd
000003f0: 8bf7 1fbe 794d a7bd 9390 c43d 582c b7bd
-0.08856162 0.39845598 -0.109835595 -0.095582694 0.09840803 -0.19683498 -0.003950798 -0.2812414
0.08732323 0.044663724 0.11202391 -0.21935466 -0.37937614 0.13586132 0.36585107 -0.23520973
0.15735212 -0.27120957 0.09350373 0.28118265 0.3485976 -0.18433467 0.29946065 0.26559946
0.008861011 0.29451826 -0.12513252 -0.12608874 -0.15190077 0.11839797 0.07782571 0.07794411
-0.23719403 -0.21684031 0.06639008 -0.29905826 -0.09147393 -0.061034173 -0.19525048 0.13703401
4.787395e-05 0.19759446 -0.031399608 -0.23582985 0.18087475 0.025319701 -0.13496262 -0.26794392
0.039095733 -0.3679443 0.06979671 0.11130292 -0.38642636 -0.25726882 -0.32211578 0.23744036
0.26598534 -0.044881295 0.31891912 -0.18686284 -0.3732649 0.09934536 0.09160566 0.27923557
-0.000102341175 0.27096197 0.21671543 0.25589094 -0.3508424 0.29113635 -0.3013876 0.31696454
-0.014651477 -0.31332505 0.09832063 -0.07196465 -0.3175593 -0.12817661 0.036453187 0.27536383
-0.108692795 0.20999935 0.044274956 0.0119175315 0.067650676 -0.23202603 -0.29387295 -0.11109057
-0.32946014 -0.16487981 0.016265512 -0.23285353 -0.14665253 -0.06352875 -0.040730536 -0.19516663
0.073324434 0.007903224 0.16063122 0.06344588 -0.11933494 -0.07849744 0.046035502 -0.14345182
0.051663853 0.035608735 0.17454116 0.1344985 0.2906063 0.051585093 -0.19529335 0.20786585
-0.18563753 0.010708212 -0.06944623 -0.06922152 -0.05585196 0.38193598 0.2799676 0.15080461
0.35282996 -0.26874366 0.08928911 0.2657523 0.2490308 -0.21390992 0.1736947 -0.14016065
0.07397003 -0.03585646 -0.2586771 -0.2463125 -0.18289757 0.21343946 0.25219166 -0.21675327
-0.07882878 0.062331844 -0.25703773 0.24864556 0.35436517 0.15192272 -0.21294054 0.13312384
0.17447078 0.34392747 -0.13854864 -0.23177323 0.2020802 0.07347637 -0.07040168 -0.10589699
-0.09599674 0.33502185 -0.015208768 0.3142957 0.36934415 0.09667807 0.1676836 0.01611248
0.20234382 -0.38086075 0.16616791 -0.11311584 0.09309884 -0.0577715 -0.19491714 -0.10891781
0.11465416 -0.2455534 -0.2642701 -0.12201979 -0.15352991 0.077822335 0.16950348 -0.09155701
0.26267576 -0.18740301 -0.24530971 -0.20671529 -0.29921985 -0.28844312 -0.36918628 -0.38872084
0.05991374 0.16977501 0.25286323 0.26709503 -0.061588433 -0.0028064493 -0.27869898 0.05576779
-0.41759917 0.10707988 0.0093936315 0.02538531 0.06332472 -0.22965288 0.22552815 0.092173316
0.1619091 -0.009312633 0.15653652 0.17310072 0.08659751 0.19062196 -0.13130891 0.16684331
0.013019637 0.15005323 0.27729243 0.007633819 -0.19444668 -0.100822285 0.036862254 -0.002313558
-0.17604528 0.21797879 0.14325643 -0.27927494 -0.0950417 -0.10126614 -0.3069853 -0.01258454
-0.114875786 -0.2557135 -0.17279775 -0.118177444 0.25969237 0.06078733 0.30764335 0.064448655
0.0024740298 0.09173783 0.019153602 -0.3333289 -0.25652707 -0.105776735 -0.07488063 0.061183278
0.057440847 0.25048462 0.008040365 -0.16774888 -0.34607068 -0.3111814 -0.28977787 0.023797268
0.18986063 0.24518564 -0.19613369 -0.09407569 -0.15621774 -0.081690736 0.09597888 -0.08944005

bias f4 [16]
00000000: f172 3a3d e9b1 5ebd 0ad7 233c 55b1 813d
00000010: 6840 873d 714c 88bd 9c96 79bd a2f6 90bd
00000020: 1215 273a 7cc2 e1bc 16b4 be3d 5a06 4ebd
00000030: 38da 85bd 2a17 30bd d4d3 86bd f903 c63c
0.045519773 -0.054368887 0.01 0.063326515 0.066040814 -0.06655205 -0.060934648 -0.070782915
0.0006373684 -0.027558558 0.093116924 -0.050299026 -0.065357625 -0.04299084 -0.06583372 0.024171816

weight f4 [8, 16]
00000000: f32d 42be 5160 6c3e 02f6 cbbe 65ae 54be
00000010: 755f a73e 9d92 a13d 58a8 f9bd b2b2 2dbe
00000020: 18ab a3be 4563 7d3e ef13 00bd 034e 64bd
00000030: ffed 753d 5c0d a33e 4ac5 9bbe 5347 57be
00000040: 9756 853e ef4c 4a3e 18df 7bbe 048a 0cbf
00000050: c8bf 8b3c eafd 393e 9fce 4a3d d8ec 933e
00000060: 5ad3 edbe 0523 3a3e 69d7 c3be 6322 653e
00000070: cfb5 9a3e 8f7d bc3d 02f0 ae3e 77a5 cabe
00000080: 0ff4 06bf 5a04 0ebf 90b9 a03e 4e2e e53d
00000090: a683 e4be 7050 303e 65fc c43e 8a6a 10bf
000000a0: 2930 9c3e 42c8 a03b d96e 29bd cac2 c53e
000000b0: 0d53 c43e 7cd7 0f3e 0d79 a53e 73d4 043e
000000c0: 4b17 343d 4f8e b9be f843 bf3d b784 acbe
000000d0: 811e 293e f024 1b3e 88cd 713d 97d8 90be
000000e0: fc52 93be 6f44 d93e aef6 8b3e 00aa a13e
000000f0: e1d2 c7bd 7121 2ebd e181 a4bd 1e21 aa3e
00000100: 4f41 97be b6ba a73e aa82 b03e 0386 02bf
00000110: 021b 8ebd 8d65 abbd a804 b0be 91c4 423e
00000120: 0fc2 f9bd c411 c13e 2a51 c0be 2ce4 6d3e
00000130: 4b58 e6be 272d a5be 40b3 0b3d 6cfe a23e
00000140: 8a5b 513e 5249 e9be 00d9 623d 060f b7be
00000150: 5ce1 38bd c046 ecbe 668a 44be 8187 953e
00000160: 4867 03bf bf39 07bf c9fd 053d 27eb a63c
00000170: d481 0fbe 5792 c63e b6ea aebe 4c34 b8be
00000180: bf22 ecbe ac89 19be 38aa 02be f8c2 733e
00000190: 00ab dfbd 82ae db3d 705d 93be 4f2c b73e
000001a0: ad68 b63e 9329 03bf 0da2 42be 2037 d9be
000001b0: 4186 1b3e c9fc 01bf a4ef 8abe bf6c d73e
000001c0: 6302 d2be 2c87 dd3e 6003 2d3d e29d bf3e
000001d0: cc01 8fbe 7bb1 c83e 688d f23d 94e1 c73d
000001e0: 6eba ae3e 4f87 d6be 5ca0 babe 4c25 ea3e
000001f0: bfa3 6ebe 2d9e 9cbe c150 f13c 2665 febd
-0.1896284 0.23083617 -0.39836127 -0.20769651 0.32690015 0.078892924 -0.12190312 -0.16962698
-0.31966472 0.247449 -0.03126901 -0.05573846 0.060041424 0.3184613 -0.30423957 -0.21023302
0.26042625 0.1975591 -0.24596822 -0.54898095 0.017059222 0.18163267 0.049513455 0.28891635
-0.4645031 0.18177421 -0.38250282 0.22376399 0.30216834 0.09203636 0.34167486 -0.39579365
-0.52716154 -0.5547539 0.31391573 0.111904725 -0.4463169 0.17218184 0.38473812 -0.56412566
0.30505493 0.004906685 -0.04136548 0.38625175 0.38344613 0.14047045 0.32318917 0.12971668
0.043967526 -0.36241385 0.09339136 -0.33695003 0.16515543 0.1515081 0.0590339 -0.28290245
-0.2877425 0.42435023 0.2733664 0.31575012 -0.09757019 -0.04251236 -0.08032585 0.3322839
-0.29542014 0.32759637 0.3447469 -0.50985736 -0.06938745 -0.08368979 -0.34378552 0.19020297
-0.12195217 0.37708867 -0.37561923 0.23231572 -0.44989237 -0.3226101 0.034106493 0.31834733
0.20445076 -0.4556375 0.05538273 -0.3575365 -0.045136794 -0.46147728 -0.1919342 0.29204944
-0.5132947 -0.5282249 0.03271273 0.020375801 -0.14014369 0.38783523 -0.34163445 -0.359774
-0.4612026 -0.14993924 -0.12760246 0.23804843 -0.109212875 0.10726644 -0.28782225 0.35775992
0.35626736 -0.5123531 -0.1900713 -0.4242487 0.15187933 -0.50776345 -0.27135956 0.42075154
-0.41017446 0.4326719 0.042239547 0.37425143 -0.27931058 0.39197907 0.11843377 0.097598225
0.3412661 -0.41900107 -0.3645047 0.4573158 -0.23304652 -0.3058943 0.029457452 -0.12421636

bias f4 [8]
00000000: 87e8 58bd 3b1f 8ebd b586 8bbd a811 113d
00000010: 506b 74bd eded 2abd d261 9ebd 1b2d 943d
-0.05295613 -0.069395505 -0.06812803 0.03541723 -0.059672654 -0.04173081 -0.077335015 0.07235166

weight f4 [4, 8]
00000000: 39ca 0dbe de03 03bf e8ee 553e 0e39 28bf
00000010: a094 6a3d 62b4 c23e 101f 0b3e 886a c03d
00000020: 3f74 9f3d 6c1e 54be 78ef 09be 52c2 a5be
00000030: 4491 f4be 00af bfbe d5f2 323f a85b f2bd
00000040: 01f3 413e 1bdc d83e 71a3 ecbd 3d29 e5be
00000050: 4531 01bf 0be6 9abe dcd9 543e 2036 28bf
00000060: 977b 19be 0e22 4c3e 0cc2 013f 293b ac3d
00000070: db4e 853d fe9a e03e 322d 803e e4c2 2f3e
-0.13846673 -0.51177776 0.20891917 -0.6571206 0.057270646 0.38028246 0.13586068 0.09395319
0.07785844 -0.2071473 -0.13470256 -0.32374817 -0.4776708 -0.37438202 0.6990178 -0.11833888
0.18940355 0.42355427 -0.115546115 -0.44758025 -0.50465804 -0.30253634 0.20786232 -0.6570759
-0.14988552 0.19934866 0.5068672 0.084097214 0.06509181 0.4386825 0.2503448 0.17164189

bias f4 [4]
00000000: 3bbf f3bc 3108 7fbc 8908 82bd a6ba d6bd
-0.029754272 -0.015565918 -0.06349284 -0.10484819

weight f4 [1, 4]
00000000: 3a3e 97be bb55 5abf 9c92 37be d7ca f7bd
-0.29539663 -0.85287064 -0.17927021 -0.120992355
