experiments/neural_networks/mlartifacts/408745732833894938/models/m-fe2713c051ab4cb4ad30654d02175df2/artifacts/data/model.pth (torch, 12517 bytes, 9 tensors)

weight f4 [32, 11]
000000 05 d1 c4 be f7 3c 54 3e d2 c5 55 3e 35 48 21 be
       -0.3844072 0.20726381 0.20876244 -0.15750201
000010 f2 b5 b1 3e e5 3c df 3e 4c 1a 55 3e 23 ff 06 3d
       0.34709126 0.43601146 0.20810813 0.03295816
000020 2e 4b 83 3f 5d 3b 58 3f ab a4 8f 3f 24 c6 3e be
       1.0257318 0.8446558 1.1222128 -0.18630272
000030 ad 24 55 3e 9c 58 b8 be 51 c0 06 3f 9a cf ed bd
       0.20814772 -0.36005104 0.526372 -0.116118625
000040 9f c1 45 3e 8e ac 08 3e f7 f6 8c 3e 2a 3e 0c 3f
       0.19312142 0.13347074 0.2753217 0.54782355
000050 e1 07 2a 3f b2 38 02 3f 80 62 70 be 18 ac cf bd
       0.6641827 0.5086776 -0.23475075 -0.10140246
000060 38 70 b8 3e 8a d3 1d 3c d1 9c 54 3e 8c f7 c0 bd
       0.36023116 0.009632954 0.20762946 -0.09422216
000070 95 56 b0 3e dc 49 b1 3e 50 10 65 3f 4a e4 12 3f
       0.34441057 0.34626663 0.89478016 0.5737959
000080 8d 70 67 3e bf ae a6 bc df 2d 73 be ef 89 a4 3e
       0.22601528 -0.020346997 -0.23747967 0.32136485
000090 94 4a ae be cf 07 92 3e cd 78 cb 3e ec cf 3b 3e
       -0.34041274 0.28521582 0.397406 0.18341035
0000a0 4d 02 09 3e 04 f5 ca 3e f0 fc 70 3f 81 16 eb 3e
       0.13379784 0.39640057 0.9413595 0.45915607
0000b0 1e f9 97 be b1 0f d8 3e d3 50 23 be 90 a5 05 3e
       -0.2968225 0.42199472 -0.159488 0.13051438
0000c0 60 2d e8 3e a2 4b 45 be ce 15 11 be f2 54 82 3e
       0.45347118 -0.19267133 -0.14168474 0.25455433
0000d0 74 f9 1b 3f 0d 7e 39 3f 45 93 09 3f be a7 28 3d
       0.6092751 0.72457963 0.5374034 0.041175596
0000e0 4c 55 e6 bd 40 c7 3a be 4d 2e 47 be 71 ed ad 3e
       -0.11246738 -0.1824007 -0.19451256 0.33970216
0000f0 85 9a 32 3e 76 d6 41 be ea 21 ff 3e 67 81 42 3f
       0.17441757 -0.18929467 0.49830562 0.759787
000100 02 3c 3b 3f a6 f6 1b 3f 35 ca 93 3e 7c 17 0c 3f
       0.7313844 0.6092323 0.2886521 0.54723334
000110 37 45 f9 3e 80 e3 5e bd 37 f4 23 3f 8e 45 96 3e
       0.4868562 -0.05441618 0.6404452 0.2934994
000120 66 56 b3 3e d1 da f9 3e e6 55 65 3f 15 65 05 3e
       0.35026854 0.48799756 0.89584196 0.13026841
000130 2b 9a 45 3f a2 f1 30 be 15 09 dd 3d 70 6d 77 be
       0.77188367 -0.17279676 0.10792748 -0.24162841
000140 af 00 d4 3d ad 02 f7 3d 93 30 35 3d 96 bb b5 3d
       0.10351693 0.12061057 0.044235777 0.0887367
000150 65 06 7e 3e 0c e5 85 3f 95 a3 4e 3f 5b 05 7a 3f
       0.24807127 1.0460525 0.80718356 0.9766442
000160 37 ac a2 3e 6f 23 c1 3e 0d f8 c6 3d f0 55 35 3e
       0.31772014 0.37722346 0.09715281 0.17708564
000170 5d a7 40 3e 36 40 85 be ac ed 4b be e8 88 4a 3e
       0.18813844 -0.26025552 -0.19914883 0.19778788
000180 31 02 0f 3f 9e d4 40 3f 78 6f df 3e 11 69 2c 3d
       0.5586272 0.7532443 0.4363973 0.042092387
000190 43 48 88 3e 30 09 25 be d8 bd cb 3e c0 9d c8 3e
       0.2661763 -0.16116786 0.39793277 0.39182854
0001a0 26 cc 85 be da 26 44 be 70 41 22 be e5 2b d6 3e
       -0.26132315 -0.19155446 -0.15845275 0.41830364
0001b0 0a 6d de 3e bc 58 3c 3f bf f7 51 3d 7b 13 00 be
       0.43442565 0.735729 0.05126166 -0.12507431
0001c0 64 73 3b bd 3b 5d 9d 3c 64 a0 05 3f 42 56 32 bd
       -0.045764342 0.019209495 0.5219786 -0.043539293
0001d0 5d 7e 29 be d9 66 ae 3e cc 15 11 3f 9f 77 6a 3f
       -0.1655211 0.34062842 0.56673884 0.9158878
0001e0 de e4 2d 3f a6 db 0a 3f f6 16 d2 bd 85 64 ee 3e
       0.6792735 0.54241407 -0.10258286 0.46561065
0001f0 ed de 05 3f 1a a5 f4 3d 51 ed 18 3f 20 25 e4 3e
       0.5229328 0.11945553 0.59737116 0.44559574
000200 a1 89 3f 3e 53 33 46 3f e6 58 02 3f b1 36 58 3d
       0.18704845 0.77422065 0.509169 0.052786533
000210 64 81 da 3d 30 d8 11 3e 4b 23 3b be 3d 84 7c 3e
       0.106692106 0.14242625 -0.18275182 0.2465982
000220 03 d4 25 be 5c d2 ca 3e a8 28 d2 3e 40 08 24 3e
       -0.16194157 0.39613616 0.41046643 0.16018772
000230 20 6c 1c 3f 67 28 76 3f 1a 20 1c 3f 4e 12 a3 3d
       0.61102486 0.961554 0.60986483 0.07962476
000240 be 19 f2 3d 90 f9 ae 3e bd bb ee bd f9 b2 81 3c
       0.11821316 0.34174776 -0.11656902 0.015832411
000250 62 ba 29 3e ca 54 3f 3d c4 68 ad 3e 6d 32 0b 3f
       0.16575006 0.04671172 0.33868992 0.5437382
000260 d6 fb 23 3f aa 48 0d 3f 70 f7 b3 bd 18 83 93 3e
       0.64056146 0.55189 -0.08787429 0.28810954
000270 8a 43 8a 3c 40 45 6f be f0 68 53 3d 83 75 07 be
       0.016877908 -0.2336626 0.051613748 -0.13228421
000280 5d c2 08 3e 23 e6 d3 3d fc 46 7e 3e e5 56 0e 3f
       0.13355394 0.103466295 0.24831766 0.5560134
000290 54 88 45 3f 4c f2 85 3d 48 95 fd 3e ff 0c ed 3d
       0.77161145 0.06540355 0.49527955 0.115747444
0002a0 db 7d d3 3e 30 40 bf 3e 8b 15 e3 bd 9d 83 6e 3e
       0.41306958 0.3735366 -0.11088093 0.23292394
0002b0 13 56 e7 3e 9d 30 b8 3e 99 05 ca 3e 2b dd 54 3f
       0.45182857 0.3597459 0.39457396 0.83149976
0002c0 36 b5 81 3e 42 9d 4d be 63 09 2a 3e ca a2 0e 3d
       0.25333565 -0.2007952 0.16605143 0.034823216
0002d0 66 81 8c be 61 64 1d 3d a0 7b 5a 3e 23 b1 e2 3c
       -0.27442473 0.038425807 0.21336222 0.027672356
0002e0 8b f7 43 3f 65 3a 81 3e 2f 30 6f 3f a1 4c 9c 3e
       0.76549596 0.25239864 0.934329 0.30527213
0002f0 5f 75 4a 3e 1f 9d 4b 3c df b9 52 3e 14 ae 55 be
       0.19771336 0.012427597 0.20578717 -0.20867187
000300 0b a5 c2 bd 2b 99 bd 3c d3 e5 bc bd 7b 54 94 3e
       -0.09504136 0.023144325 -0.09223523 0.28970703
000310 32 aa 2d 3f 8b a7 3e 3f d1 03 d6 be f1 66 f6 bc
       0.6783782 0.744744 -0.41799787 -0.030078383
000320 01 ff b0 bd 41 60 a5 3e 2c bb 24 3e b6 74 07 3e
       -0.08642388 0.32299998 0.16087025 0.13228115
000330 49 d1 15 be 39 c3 a1 3e 3c e0 4c 3f ce bf 82 3e
       -0.14630617 0.31594256 0.80029655 0.2553696
000340 51 35 73 3d 89 0a 49 3d 94 95 28 3e 3c 39 50 be
       0.05937702 0.049082313 0.1646331 -0.20334333
000350 fe 25 ba 3b cf 05 92 bc 6a 3e a2 3d b7 3c 80 be
       0.0056807986 -0.017825035 0.07922061 -0.25046322
000360 dc 20 2b 3e f1 66 71 3d d5 13 94 be af 76 d6 bd
       0.16711754 0.058936063 -0.2892138 -0.10471856
000370 32 23 18 3e 50 fc 7f 3e 78 8d 07 3f 91 c1 8b 3e
       0.14857176 0.24998593 0.5295024 0.27296117
000380 94 19 47 3e d0 94 0d 3f 6d 78 5f bc 37 7e ff 3c
       0.19443351 0.55305195 -0.013639552 0.031188114
000390 f7 9e 48 3f 2f 36 c7 3e ca 86 bf 3e c6 bc e0 bd
       0.7836756 0.38908526 0.37407523 -0.10973506
0003a0 8d 4c 7a 3d 83 3e bb 3d a5 a9 2c 3e eb b6 74 be
       0.06110816 0.091427825 0.16861589 -0.23897903
0003b0 42 4d 9b be da fb 4a 3e 70 8e e1 3e 64 93 77 3e
       -0.3033238 0.19822636 0.44053984 0.24177319
0003c0 b3 c0 63 3f f7 5c d6 3d c4 9d 51 3e ab c8 01 3f
       0.8896591 0.104669504 0.20470339 0.5069682
0003d0 99 4c fc 3e 52 06 a6 bd 99 57 08 3f de 6d e0 3e
       0.4927719 -0.08106674 0.53258663 0.43833822
0003e0 4c 84 1f 3e ba e7 07 3f b6 64 e5 3e d7 ea 1d 3f
       0.15577811 0.5308796 0.448034 0.6168646
0003f0 86 49 51 3e 1a a2 8d 3d 73 bc 0f 3e 70 99 69 3c
       0.20438203 0.06915684 0.14036731 0.014257774

bias f4 [32]
000000 3c 12 63 3f 4c 91 43 3f c7 b5 4e 3f 01 99 34 3f
       0.886997 0.7639358 0.8074612 0.70545965
000010 60 d2 61 3f 66 77 5c 3f 2b ea 0b 3f 63 0e 57 3f
       0.8821163 0.8611969 0.54654187 0.8400633
000020 d9 13 42 3f 0f ea 51 3f 3f cc 2b 3f b5 86 1c 3f
       0.75811535 0.8199777 0.6710853 0.61143047
000030 9a e2 56 3f f0 ed 36 3f a3 10 59 3f 64 fe 21 3f
       0.83939517 0.71456814 0.8479101 0.63278794
000040 3c 6b 50 3f 66 44 18 3f a3 72 3f 3f 16 7d 36 be
       0.81413627 0.5947937 0.74784297 -0.17821154
000050 29 ae 27 3f 3a 72 2c 3f 25 36 24 3f 8e d4 56 3f
       0.6550012 0.67361796 0.6414512 0.8391808
000060 29 c5 67 3f d5 fb 43 3f e9 20 26 3f bd 27 4d 3f
       0.9053522 0.7655614 0.64893967 0.8013876
000070 4a 93 59 3f 03 e8 57 3f 52 33 2b 3f 9b a0 15 3f
       0.8499037 0.84338397 0.66875184 0.5844819

weight f4 [16, 32]
000000 c1 b3 bb bd 63 6b 09 be b0 a0 b3 be 07 2a dd be
       -0.09165145 -0.13419871 -0.35083532 -0.43196127
000010 d3 2f 8e be 42 f3 b3 3d de b8 8c 3d c0 45 c5 be
       -0.27770862 0.08786632 0.06871198 -0.38529778
000020 f4 13 63 be 2a 77 0b be 91 c9 bc be 61 16 da 3d
       -0.2217558 -0.13619676 -0.36872533 0.106488
000030 33 31 67 3e 48 31 d9 bc 87 6d c0 be f0 48 3f bc
       0.22577362 -0.026512757 -0.37583563 -0.0116751045
000040 2b fa ce 3c a8 b8 48 3e 79 ed 89 be 64 df c2 be
       0.025265774 0.19601691 -0.2693899 -0.3806106
000050 c3 74 79 3d 25 66 a4 3c 67 20 56 be 5c 70 82 be
       0.06090237 0.020068238 -0.20910798 -0.25476348
000060 53 ad 82 be cc e9 42 3e 8a 73 1e be 11 f9 4f 3e
       -0.2552286 0.19034499 -0.15473762 0.20309855
000070 f9 15 78 3e 3f 75 5a bd b6 87 7e bc 51 da ef bd
       0.24227132 -0.05333447 -0.015535286 -0.117115624
000080 7f 75 54 3f c0 8e 30 3e b0 d7 0a 3f 39 7d 9c 3e
       0.82991785 0.17241955 0.54235363 0.30564287
000090 80 3e 11 3f 60 a0 cc 3e 9d bd 29 3e a9 41 c0 3e
       0.5673599 0.39966106 0.16576238 0.37550095
0000a0 f4 e7 11 3f a1 f1 d1 3d 13 68 94 3e c1 06 5e 3e
       0.5699456 0.10251165 0.28985652 0.21682264
0000b0 a6 4e 52 3e 0e 66 ea 3e 28 44 0f 3f 59 4a 71 3e
       0.20537814 0.45780987 0.55963373 0.23563518
0000c0 29 57 35 3f 64 26 1e 3e 2e 8e d3 3e c7 ee ab 3a
       0.7083612 0.15444332 0.41319412 0.0013117426
0000d0 82 26 63 3d e4 6e 28 3e 18 b1 c7 bc 90 63 d5 3c
       0.055456646 0.16448551 -0.024376437 0.026048452
0000e0 46 ae 0c bf 94 39 18 3f ff e0 26 3f f3 6e 53 3f
       -0.5495342 0.5946286 0.65187067 0.8259117
0000f0 a3 f0 a6 3e b1 f7 dc 3e f9 38 1e 3e 2b 12 d2 3e
       0.32605466 0.43157724 0.15451421 0.41029486
000100 fd 68 b0 3d fd 6f f8 3e 8a 3a 4a 3e 71 5e 2e 3e
       0.08613775 0.4852294 0.19748893 0.17028214
000110 8a be ce 3e b3 4b c9 3d b0 0f 96 3e e0 da dc 3e
       0.40379745 0.098288916 0.29308844 0.43135738
000120 23 9b af 3e b6 81 8a 3e fe f1 f4 3e 0f a3 69 3e
       0.34298047 0.27052087 0.47840875 0.22816108
000130 5a fe 5d 3e ca 3d a2 3e b1 83 7f 3d f4 96 52 3e
       0.21679059 0.31687766 0.06238145 0.20565397
000140 5d 78 9f 3e d0 ae 9d 3e 25 bd 14 3f e2 e3 00 bc
       0.31146517 0.30797434 0.5810111 -0.0078668315
000150 7e 9a fb bd 88 2f 08 3e 75 ff b1 3d 7b b5 74 3e
       -0.122853264 0.13299382 0.08691303 0.23897354
000160 7b 25 86 bf 3d 82 c3 3e 52 37 67 3e a2 39 39 3e
       -1.0480188 0.381853 0.22579697 0.18088391
000170 9f c9 26 3e 3f d8 3d 3e 68 fe be bd 99 5d bc 3c
       0.1628785 0.18539523 -0.09325868 0.02299385
000180 98 2c f0 3e db 79 98 3e 90 6d 77 3e 34 9d 6b 3e
       0.46909022 0.29780468 0.24162889 0.23009187
000190 d6 ed 3d 3f 25 0e 08 3f e2 6f 1f 3f a3 77 01 3f
       0.74191034 0.5314658 0.62280095 0.50573176
0001a0 86 b3 e1 3e f3 12 fd 3e 0c b7 10 3f 79 ff 71 bc
       0.44082278 0.4942852 0.5652931 -0.014770382
0001b0 0a 53 ec 3d 24 8d 63 3e bb 8f a7 3e f6 71 cc 3e
       0.11539276 0.2222181 0.32726845 0.39930695
0001c0 43 2a 02 3f 3c 6f 13 3f 57 98 29 3f ff ce 80 3b
       0.50845736 0.57591605 0.6624808 0.003930926
0001d0 1e 73 a2 3c 20 c2 03 3e 6a 70 70 3d 94 42 e3 3e
       0.019830283 0.12867022 0.058700956 0.44386733
0001e0 d8 a8 f1 be 12 39 2d 3f a6 c9 38 3e 44 51 fc 3e
       -0.4719913 0.6766521 0.18045673 0.4928075
0001f0 d9 66 77 3e 2b 65 b8 3e d0 29 f0 3e 22 94 7c 3e
       0.24160327 0.36014685 0.469069 0.24665883
000200 79 55 3a 3a 70 76 37 3d 7b 55 e7 3d a0 af db bd
       0.00071080733 0.044790685 0.11295601 -0.10726857
000210 25 88 71 be 92 a7 80 3d eb 1a 6a bd ef 0b 35 be
       -0.23587091 0.062819615 -0.057154577 -0.17680334
000220 a5 5b cf 3d 80 22 52 3b c0 a7 52 bd b8 5c 43 be
       0.10124902 0.003206402 -0.05142951 -0.19078338
000230 7f 0c dc bd 23 14 aa be 78 b8 a4 3d 56 86 28 bd
       -0.10744571 -0.33218488 0.08042997 -0.041143738
000240 92 62 41 3e 10 04 bb 3c 53 9e ca 3c 51 26 d7 3d
       0.18885258 0.022829086 0.024733698 0.10505355
000250 06 3a 7a 3e 8b 15 2b be e6 ed 3f 3e 7b 35 07 3d
       0.24436197 -0.16707437 0.18743095 0.033009987
000260 a6 85 71 be 94 47 8e 3d 00 97 84 be a1 f3 03 be
       -0.23586139 0.06947246 -0.25896454 -0.12885906
000270 2e 83 4b be b2 9e 8a be cf 90 8e 3e 07 de b9 be
       -0.1987426 -0.270742 0.27844855 -0.36302206
000280 01 31 3f 3f 5b 8c 11 3e bd 2d ad 3e 45 68 b3 3e
       0.7468415 0.14213698 0.33823958 0.3504049
000290 be df 27 3f 01 58 8a 3e 3f 79 ca 3e 75 b3 ee 3e
       0.6557578 0.27020267 0.39545628 0.4662129
0002a0 02 a2 11 3f 4d c3 bd 3e be 2e 21 3f bf 04 7f 3d
       0.5688783 0.37063065 0.6296195 0.062260386
0002b0 5f 83 be 3d bc d5 21 3f 93 16 83 3d 22 8e 5a 3e
       0.09302401 0.6321676 0.0640079 0.21343282
0002c0 cd cf a9 3e 7a bd 28 3f 07 72 09 3f 1f 1f e9 bd
       0.33166352 0.6591412 0.53689617 -0.11382889
0002d0 ce bd 52 3e 19 c3 13 3f b9 47 d1 3e 76 86 21 3f
       0.20580217 0.5771957 0.40875033 0.63095796
0002e0 6f 5e 3a bf 09 58 0b 3f 00 df 12 bd 81 38 29 3f
       -0.72800344 0.54431206 -0.0358572 0.66101843
0002f0 60 d3 02 3f 3c ea 16 3f b9 0d 1c 3e b1 1c 15 3e
       0.5110378 0.58951163 0.1523961 0.14561726
000300 9e b9 1a 3f 71 bc 2a 3e fb 68 52 3d c8 b6 07 be
       0.6043948 0.16673447 0.05136965 -0.1325332
000310 06 0b a5 3e 08 02 08 3f 4a 16 8d 3e 28 b6 a4 3e
       0.32234973 0.531281 0.27556068 0.32170224
000320 55 99 aa 3e 98 9b 97 bb 9d e9 d2 3e 5e 0c f1 3d
       0.33320108 -0.0046267025 0.41193858 0.11769937
000330 51 ae 4c 3d 9f 22 f9 3e b4 fd c7 bd a8 c3 2a 3e
       0.04997093 0.48659226 -0.09765187 0.166762
000340 f1 e6 97 bd 75 71 21 3e e0 d9 db 3e 14 5f 67 3e
       -0.074170955 0.15765937 0.42939663 0.22594863
000350 50 15 3c bc be ac df 3e 5e 4b 08 be ec 67 ce 3e
       -0.011479691 0.4368648 -0.1331 0.4031366
000360 a2 aa 7b bf 2b f3 ef 3e de de a0 3d 0e 2f d0 3e
       -0.9830724 0.4686521 0.078550085 0.406609
000370 a7 9a 0b 3e ba e0 e6 3e 95 51 8e 3e 2e b2 3e be
       0.13633214 0.45093328 0.27796617 -0.18622658
000380 4e ed 15 be d6 c6 96 bf 1b a4 21 be e2 8a 41 bd
       -0.14641306 -1.177943 -0.15785258 -0.04725159
000390 f9 6b c3 be 01 7c 1e bf a1 ac 2b 3d 0c 91 af be
       -0.38168314 -0.61907965 0.04191268 -0.3429035
0003a0 a0 70 78 bf f7 77 f7 3e b3 3e d4 be 27 62 59 3c
       -0.9704685 0.48333713 -0.41454086 0.01326803
0003b0 36 64 c2 be 85 c5 3e 3e ce 51 a4 3c 33 75 32 be
       -0.3796708 0.18630035 0.020058539 -0.1742752
0003c0 8c bc 16 be fc 36 12 3d c8 63 d3 3d 94 f9 0e bd
       -0.14720362 0.03569697 0.10321766 -0.034905985
0003d0 e2 9f be 3d ba 81 b3 bf 79 c0 9b bd 93 aa 5d be
       0.09307839 -1.4023964 -0.076050706 -0.216471
0003e0 ae a8 42 3d e3 b4 a7 be 58 2d 4b be 0f 5c 3d bd
       0.047524147 -0.32755193 -0.19841516 -0.046230372
0003f0 63 c0 39 3f 23 bd 90 bd 0e 6b e9 bf a2 f7 e5 bc
       0.72559184 -0.07067325 -1.8235795 -0.028072182

bias f4 [16]
000000 d1 69 a7 bd 4e 04 20 3f a4 71 c7 3e e4 cc 1d 3f
       -0.0817448 0.6250657 0.38953888 0.61640763
000010 0e 63 02 bb 62 6a 1f 3f 28 5d 1a 3f dd fb af bd
       -0.0019895467 0.622717 0.60298395 -0.08592961
000020 de 06 1c 3f 04 56 e7 bd ba 3b 24 3f fb 68 18 3f
       0.6094798 -0.11295703 0.64153636 0.5953519
000030 e4 31 1f 3f a3 ee 16 3f db e4 18 3f 2a 5c 3d bd
       0.621855 0.5895788 0.59724206 -0.046230473

weight f4 [8, 16]
000000 68 18 8c bd 3d bf b9 be 18 47 1c 3e 97 83 ea be
       -0.068405926 -0.36278716 0.15261495 -0.4580352
000010 a0 df 25 3d c7 27 87 3e 07 d3 8b 3d 7e 45 1e 3d
       0.04049647 0.26397535 0.0682736 0.03864049
000020 ed b3 39 3d c5 73 32 be f8 11 c3 bd 57 5e 74 be
       0.045337606 -0.17426975 -0.09524912 -0.23864113
000030 81 2a bb be 70 8a 87 be 3d d7 ee 3e 80 5f ab bd
       -0.36555865 -0.26472807 0.4664859 -0.083678246
000040 19 b8 89 3e 52 7a 43 3f 6b 3b b4 3e 04 a8 1a 3e
       0.26898268 0.7635852 0.35201582 0.15103155
000050 1e e8 85 be ca 6b 7c 3e e6 ec 1c 3f 13 e1 a5 bf
       -0.26153654 0.24650493 0.6129898 -1.2959312
000060 80 d0 b8 3e 34 1b 9a 3e 2b 9b 43 3f c1 79 0b 3f
       0.36096573 0.3009888 0.7640864 0.54482657
000070 16 14 08 3f 93 22 39 3f 2b 67 27 3f 72 ac 62 3e
       0.5315565 0.7231838 0.65391797 0.22136095
000080 6c be 1e be 3e 49 cd be a8 2f dd bd 70 b7 b9 bd
       -0.15502328 -0.40094942 -0.10800105 -0.09068191
000090 40 66 16 3d 50 3d 61 bd e8 fe 4e 3e f4 1f aa 3e
       0.036718607 -0.054990113 0.20214427 0.33227503
0000a0 40 93 4f be 88 e8 f2 be e0 57 83 be dc fa 74 be
       -0.20271015 -0.47443032 -0.2565298 -0.2392382
0000b0 70 1c 91 3e 94 21 a5 be 00 a1 40 bd 90 06 d9 bd
       0.2834201 -0.3225218 -0.04702854 -0.10596955
0000c0 ea 5f 9b be dd ec a0 3e 36 56 2a be 39 03 6f 3d
       -0.30346614 0.31430712 -0.1663445 0.058352683
0000d0 5c fd b3 be a6 1c 0a 3d e9 59 0d 3e 6c cb 12 3d
       -0.35154235 0.033718728 0.13803829 0.03583853
0000e0 54 7b e2 bd ea c9 60 3e 70 a8 04 be 4d a5 80 be
       -0.11058679 0.21952024 -0.12954879 -0.25126114
0000f0 2a f8 a9 be 12 4a 35 bd d7 2e d4 be 2a a6 f0 3e
       -0.33197147 -0.044260092 -0.41441986 0.47001773
000100 76 e9 18 be ed 58 57 3e 4a eb da 3e 97 db 0c 3f
       -0.14932808 0.21030016 0.42757636 0.5502257
000110 9c 68 f1 3c c4 d6 45 3f f0 f9 0f 3e af 36 89 be
       0.029468827 0.7728083 0.14060187 -0.26799533
000120 90 1e d7 3e c0 dd 97 be df d8 29 3e d9 04 05 3f
       0.42015505 -0.2966137 0.16586636 0.5196052
000130 37 16 07 3f 6f 2a 3e 3f 31 6a 42 3f 2e 8f 5f be
       0.5276827 0.742835 0.75943285 -0.21831962
000140 9c a3 5a be 5f 59 2f be 1b bc d8 be 26 54 31 be
       -0.21351475 -0.17123936 -0.42331013 -0.17317256
000150 5b f0 e3 be 21 a4 1b 3e 9c 22 b5 3e 6e 7c 39 3b
       -0.44519314 0.15199329 0.35377967 0.0028302926
000160 57 6e d5 be da 9a dc be dc 69 69 be f4 e0 a5 3d
       -0.41685745 -0.43086892 -0.22794288 0.08099547
000170 33 6d cf bc d7 64 cc 3c e3 69 de 3e 58 cb 6d 3e
       -0.025320625 0.024950428 0.4344016 0.232221
000180 27 45 d2 3c 6d fe 49 be 3d 8e 05 3e 1c a8 0a 3e
       0.02566774 -0.19725962 0.13042541 0.13540691
000190 1a 6d e6 be cd 29 ad be 2c e9 ce bc f3 85 f7 3d
       -0.45005113 -0.33820954 -0.02525767 0.12086096
0001a0 bf 5a 4c 3e 58 bc c9 be 64 d0 14 bf 9f 6c 0d be
       0.19956492 -0.39401507 -0.5813048 -0.13810967
0001b0 8d e3 bb bd 13 b7 08 3d 6c ff 26 be 31 4d ae 3e
       -0.09174261 0.03337772 -0.16308373 0.34043267
0001c0 ad 94 f9 3d 3e ac 48 3f 03 93 02 3d 6d f9 1e 3f
       0.12186561 0.7838782 0.031878483 0.62099344
0001d0 ad a5 0b 3e 07 f5 38 3e 13 a6 2d 3f bd 7e f6 bf
       0.13637419 0.1806222 0.67831534 -1.9257427
0001e0 70 8b 53 3f e3 7d 1c 3e 67 72 d0 3e f1 5a 1c 3f
       0.8263464 0.15282397 0.40712282 0.61076266
0001f0 0d ee f2 3e 1a 7a 13 3f 81 44 3e 3f 18 e7 ad be
       0.47447243 0.5760819 0.7432328 -0.33965373

bias f4 [8]
000000 b3 c5 91 bc b8 dc 0c 3f 0a d7 23 3c 22 67 b9 3d
       -0.017794466 0.5502429 0.01 0.09052874
000010 00 ab f8 3e be 5c 6b bd 77 c3 c4 bd 5b cb 00 3f
       0.48567963 -0.057461493 -0.096075945 0.50310296

weight f4 [4, 8]
000000 bf bd fd 3e 93 48 9c 3e 2c 62 28 be 6d f8 58 3e
       0.49558827 0.3052412 -0.164437 0.21188517
000010 e5 bb 77 3f fd 3b a5 be 3d 88 c2 be ab f3 5a 3f
       0.9677108 -0.3227233 -0.37994567 0.8552806
000020 a6 ce 9b be fe 75 24 3f d8 59 d5 bd 22 01 87 3e
       -0.30431098 0.6424254 -0.10417527 0.26368052
000030 f2 f3 74 3f 7f dc 97 be ab a9 7c be 64 64 43 3f
       0.9568473 -0.29660413 -0.24674098 0.7632506
000040 80 94 1e 3d e1 51 9c 3e 57 01 1f bf d8 30 2b 3f
       0.03871584 0.3053122 -0.6211142 0.66871405
000050 01 6f b0 3e 18 4b be bd 4d 00 80 be 0a a3 7e 3e
       0.3445969 -0.09291667 -0.2500023 0.24866882
000060 96 f6 af 3e 53 c9 44 3d 2f cf 1a 3f 15 fc ec 3b
       0.34367818 0.04804356 0.6047239 0.007232199
000070 4e 5c 5a bd 72 5a cc 3e 03 00 09 3d 78 ff 92 bd
       -0.053310685 0.39912754 0.033447277 -0.07177633

bias f4 [4]
000000 d7 de e3 3e 15 96 d2 3e 8a cf f5 3e 49 3e 8c 3d
       0.4450595 0.41130129 0.48009902 0.068478175

weight f4 [1, 4]
000000 19 09 48 3f 43 06 a4 3f 0f ae 21 3f 1d 8b 4f 3f
       0.7813888 1.2814411 0.6315622 0.81071645
