experiments/neural_networks/mlartifacts/730589028942085756/models/m-51b26e0d153a4b9781297048095d1cac/artifacts/data/model.pth (torch, 6845 bytes, 5 tensors)

weight f4 [8, 8]
000000 37 52 e3 be e4 8f 12 3f b1 a0 de be 91 ed ae 3e
       -0.44398662 0.5725081 -0.43481973 0.34165624
000010 ec b3 6b 3e b6 26 5b 3e e7 82 a9 be 92 53 12 3f
       0.23017853 0.21401486 -0.33107683 0.5715877
000020 09 9f 17 3e 28 1c be 3d 1c 8e 06 bf 12 cb 8a 3e
       0.14806761 0.09282714 -0.5256059 0.27108055
000030 44 cd b9 bd 4b a3 8f be c2 d6 06 3f 0b 04 1b 3e
       -0.090723544 -0.2805427 0.52671444 0.15138261
000040 64 41 a6 be e7 43 97 be 6d 06 73 bc 52 76 b6 3e
       -0.32471764 -0.29543993 -0.014833075 0.35637146
000050 ac 86 2e be da 5d ba be 01 d5 63 be ef e6 f1 be
       -0.1704356 -0.36399728 -0.22249223 -0.472465
000060 db 4d 50 3e 84 03 eb 3e 89 6c 17 bf 1b 4e 02 3e
       0.203422 0.4590112 -0.59149987 0.12725107
000070 c0 53 9a 3e 66 a8 c4 3d 11 ad 6e be 1f f9 9b 3e
       0.3014202 0.09602432 -0.23308207 0.30463502
000080 9d 67 ac 3e bf c4 79 3e 9b d8 bd bd 26 c2 16 be
       0.336728 0.24391459 -0.0926983 -0.14722499
000090 d5 df 9e 3d e3 ea be bd 98 b5 2b be 1f ec cf 3e
       0.07757536 -0.09322145 -0.16768491 0.40609834
0000a0 89 82 0a 3f 52 55 3b bd 8c 2a fa bd 1b eb c2 3c
       0.5410543 -0.045735665 -0.122151464 0.023793748
0000b0 70 ac ba bc b4 21 26 3e ae 18 3f 3e 3c 91 0d bf
       -0.022787303 0.16223794 0.18661758 -0.55299735
0000c0 90 9b 76 be 14 37 00 3f 02 06 65 3e 4b c2 39 bd
       -0.2408278 0.5008404 0.22365573 -0.045351308
0000d0 29 08 bd be d4 56 c7 be d8 3c 10 bf 77 53 5a be
       -0.36920288 -0.38933432 -0.5634284 -0.21320902
0000e0 44 1c 45 3e 8f 50 c0 3e cf 1b 89 3e f6 5f 0e bf
       0.19249064 0.3756146 0.2677903 -0.55615175
0000f0 4a 8c bc be e5 4b b0 bd 64 d6 13 3f da f2 98 3d
       -0.36825782 -0.08608226 0.5774901 0.07468195

bias f4 [8]
000000 b3 ff cc 3c 50 ea ca 3c 22 10 56 bb b9 a5 a4 bb
       0.02502427 0.024769932 -0.0032663424 -0.0050246385
000010 c6 78 cc 3c 5d 00 cd 3c ef 51 a2 bb 36 a6 a0 bb
       0.024959933 0.025024587 -0.004953615 -0.0049026264

weight f4 [8, 8]
000000 84 64 22 be b7 1c 74 3e a9 17 7e be e6 ef ca be
       -0.15858656 0.23839079 -0.24813713 -0.39636153
000010 52 d8 e4 3e 96 90 8e be c4 69 fb bd ec f3 1b bf
       0.4469629 -0.27844685 -0.122760326 -0.6091907
000020 61 31 ca 3e 68 e5 e5 3e 66 93 55 3e 27 37 e2 be
       0.39490798 0.44901586 0.2085701 -0.44182703
000030 8e 8b 1e bf cb 25 03 bf 9a 33 e4 3e e4 e6 8e 3e
       -0.61931694 -0.5122954 0.4457062 0.2791053
000040 ce 14 00 3f 33 92 9c 3e 9c a4 0f 3e bf cf ab bc
       0.50031745 0.3058029 0.14027637 -0.020973084
000050 cd 21 f6 be a7 28 0a bf 70 46 16 bf 48 5c 71 3e
       -0.48072663 -0.5396828 -0.5870123 0.23570359
000060 7d ef 99 be 10 66 fc bd dd 70 b4 be a0 88 e4 bd
       -0.30065528 -0.123241544 -0.35242358 -0.11158872
000070 3a ad dc be 55 de cc be 74 01 50 3e de 5c 3a be
       -0.4310091 -0.40013376 0.20313054 -0.18199489
000080 12 e3 b9 3e d0 79 58 be 90 0f ed be 5b cf fb bd
       0.36306053 -0.21140218 -0.46300936 -0.12295409
000090 44 a5 9f be 00 29 4f be e0 0a 18 bf 83 c9 a7 3e
       -0.31180775 -0.20230484 -0.59391594 0.3277093
0000a0 5d f5 e1 be 3c e8 95 3e 54 bf 86 3e aa 63 d8 3e
       -0.4413251 0.29278743 0.26317847 0.42263538
0000b0 5e 30 f8 be cc cd d9 3e 95 b0 9b be 56 58 59 3e
       -0.484744 0.42539823 -0.3040816 0.21225104
0000c0 10 11 17 3f 97 20 92 bd 61 d2 1d 3c 2a 06 01 be
       0.5901041 -0.07135122 0.009632678 -0.12600008
0000d0 d1 1a fe be 40 28 9e 3e 62 dd 17 bf 79 51 ca 3e
       -0.49629834 0.30890083 -0.5932218 0.39515284
0000e0 50 47 f2 3e bf 19 18 3f 7a d1 04 be 53 f6 f9 be
       0.47320032 0.59414285 -0.12970534 -0.48820743
0000f0 4f 27 1c 3e f7 e3 b4 3e 25 6d 18 bf bd e9 fd bd
       0.1524937 0.35330173 -0.5954154 -0.12398098

bias f4 [8]
000000 74 aa a3 bb c9 ad a1 bb 32 a1 a3 bb 0a d7 23 3c
       -0.004994685 -0.004934047 -0.004993581 0.01
000010 02 96 a2 bb 9e 6d a3 bb 23 da cc 3c 30 fe cc 3c
       -0.00496173 -0.0049874326 0.02500636 0.02502355

weight f4 [1, 8]
000000 30 f6 f2 be 30 4b 67 bd b0 1d c6 be 3e e2 aa be
       -0.4745345 -0.05646819 -0.38694525 -0.33375734
000010 55 2f 7a be 96 cd 42 bf 87 59 2f 3f a2 13 33 3f
       -0.24432118 -0.7609495 0.6849598 0.6995183
