experiments/neural_networks/mlartifacts/408745732833894938/models/m-f6ce6af3fe3340ed83cad01a71040fc1/artifacts/data/model.pth (torch, 12261 bytes, 9 tensors)

weight f4 [32, 9]
-0.35739675 -0.13780366 -0.524832 -0.24214359 -0.5316611 -0.10904358 0.13295767 -0.09592691
-0.3319089 -0.35222304 -0.038742647 -0.22652121 -0.6191927 -0.37293863 -0.44691703 -0.0077025774
0.5206978 0.42975202 -0.010300592 -0.36176965 -0.54933214 -0.30456614 -0.22090043 -0.2953927
-0.18436617 -0.047799665 -0.05631247 -0.53455204 -0.47919703 0.07631101 -0.30025694 -0.35220376
-0.45947644 0.19999258 -0.32219118 -0.304003 0.32622096 0.4374486 0.4957425 -0.13253747
0.33007297 -0.08781337 -0.07206354 0.49075872 0.4660054 -0.077056594 -0.112722084 -0.34405044
-0.17375246 -0.4885032 -0.18312004 -0.42322627 -0.34944826 -0.7022509 0.20631178 0.10207676
0.18267354 0.06942697 -0.035570912 0.3462427 -0.05201097 0.089715585 -0.12277758 0.12267525
-0.20169592 -0.019656278 0.18627542 -0.24880208 0.09816977 0.023158602 -0.10028872 -0.5307433
-0.110379204 -0.26066 -0.170286 -0.6825061 -0.20130353 -0.6853152 0.078251824 -0.16208465
-0.17992648 0.021601299 0.040512588 -0.0991133 0.096075706 -0.22413652 -0.42381084 -0.44725075
-0.1332654 -0.37865743 -0.13896368 -0.39011222 0.0794176 0.028885948 -0.10221492 -0.39184064
-0.61286485 -0.04770321 -0.5246987 -0.09831213 -0.7735501 -0.23344363 -0.020372624 -0.20872347
-0.2669074 -0.6683404 0.040616076 -0.43778938 -0.5927487 0.09938352 -0.5203038 -0.45057976
-0.064602494 -0.66967326 -0.27064747 -0.036158245 -0.19837768 0.38839167 -0.02056801 0.31171605
0.13013418 0.11221232 -0.049997907 -0.097442396 -0.22658291 -0.623696 0.303091 0.108460486
0.009696965 -0.2600738 0.03683568 0.3213871 -0.03789294 -0.59472865 0.47959283 -0.30717415
-0.15369423 -0.041106943 -0.011099608 -0.63596195 -0.002297584 0.04045967 -0.31279835 -0.5968348
-0.36530763 -0.26275066 -0.2704688 -0.27125365 -0.18290506 0.19517115 -0.078011654 0.27317706
0.13053693 0.35717985 0.067689285 0.14617774 0.15387717 -0.23194596 -0.2101327 -0.2533747
-0.41110915 -0.28496432 -0.042778023 0.08931108 0.22071269 -0.12694874 0.31579462 0.28311193
-0.59387845 -0.5901185 -0.16604586 -0.07673776 -0.09608129 -0.05067247 -0.12449811 -0.18290067
-0.18060246 -0.4386593 -0.030068304 -0.44205797 -0.2686693 0.16894418 -0.03448154 0.2683865
0.23677757 0.32088515 0.020114142 0.05828252 0.3566866 -0.61266804 -0.07009884 -0.13720426
-0.41777748 -0.23654903 -0.55509377 -0.6339256 -0.32298094 -0.27045426 -0.4510841 -0.030838769
-0.5406309 0.11548675 0.14567225 -0.11733583 0.06025491 -0.21607354 -0.15866682 -0.271516
-0.2352385 0.07624442 -0.37299088 -0.32835034 -0.067162886 0.34195796 0.71165705 -0.5717753
-0.08466003 0.0025563014 -0.14521325 0.17773165 -0.021996614 -0.42880005 -0.34171876 -0.1735064
-0.3595073 0.37043372 0.0287935 0.3255837 0.3495477 0.2739028 0.72128475 0.21680407
0.4522433 0.18636237 -0.3672542 0.010413197 0.19823246 -0.380942 -0.34840813 0.23481181
0.60765463 -0.49136484 0.106923714 -0.11957444 -0.6034022 -0.2559921 -0.29714957 -0.50315374
-0.28553903 -0.026840106 -0.10271002 -0.020898528 0.031511877 -0.31065091 -0.22446354 -0.6729078
00000000: b5fc b6be 671c 0dbe 645b 06bf 7df4 77be
00000010: f11a 08bf 3e52 dfbd 0e26 083e 5475 c4bd
00000020: f7ef a9be 9456 b4be 9cb0 1ebd 2df5 67be
00000030: 6a83 1ebf d0f1 bebe 4fd2 e4be e765 fcbb
00000040: 734c 053f 7508 dc3e d0c3 28bc df39 b9be
00000050: 08a1 0cbf 18f0 9bbe b933 62be b63d 97be
00000060: 7cca 3cbe 95c9 43bd e8a7 66bd 67d8 08bf
00000070: 5059 f5be f248 9c3d 47bb 99be 0d54 b4be
00000080: 7f40 ebbe dbca 4c3e 3ef6 a4be 48a6 9bbe
00000090: 6f06 a73e 43f9 df3e f6d1 fd3e e7b7 07be
000000a0: 53ff a83e 7fd7 b3bd 0d96 93bd ba44 fb3e
000000b0: 4398 ee3e d9cf 9dbd d6da e6bd 6127 b0be
000000c0: 2aec 31be 171d fabe d283 3bbe 1db1 d8be
000000d0: e2ea b2be b7c6 33bf 6543 533e 9f0d d13d
000000e0: c60e 3b3e ba2f 8e3d ceb2 11bd b946 b13e
000000f0: 7409 55bd cebc b73d d072 fbbd 293d fb3d
00000100: 6089 4ebe 3406 a1bc fcbe 3e3e f9c5 7ebe
00000110: 3b0d c93d 1cb7 bd3c 2c64 cdbd cbde 07bf
00000120: 7e0e e2bd 3a75 85be 745f 2ebe b8b8 2ebf
00000130: 8322 4ebe d170 2fbf 7e42 a03d 85f9 25be
00000140: a63e 38be 35f5 b03c 87f0 253d eafb cabd
00000150: 57c3 c43d 0b84 65be bcfd d8be 0dfe e4be
00000160: ba76 08be 63df c1be 7f4c 0ebe cabc c7be
00000170: b2a5 a23d 39a2 ec3c 0e56 d1bd 569f c8be
00000180: b6e4 1cbf 7164 43bd a752 06bf df57 c9bd
00000190: 6107 46bf d90b 6fbe 7de4 a6bc 9bbb 55be
000001a0: 16a8 88be 5b18 2bbf 0b5d 263d ee25 e0be
000001b0: 61be 17bf 9689 cb3d a132 05bf 64b2 e6be
000001c0: 504e 84bd b56f 2bbf 4e92 8abe ab1a 14bd
000001d0: 8523 4bbe 46db c63e 3e7e a8bc 3f99 9f3e
000001e0: e541 053e 93cf e53d 9bca 4cbd e18f c7bd
000001f0: 5a05 68be 8baa 1fbf be2e 9b3e 8820 de3d
00000200: 05e0 1e3c 6528 85be 03e1 163d da8c a43e
00000210: a135 1bbd 2340 18bf 318d f53e ee45 9dbe
00000220: 0562 1dbe c15f 28bd 21db 35bc 67ce 22bf
00000230: 1093 16bb 0ab9 253d 1b27 a0be 2aca 18bf
00000240: 9a09 bbbe 4187 86be e37a 8abe c2e1 8abe
00000250: 774b 3bbe f2da 473e 93c4 9fbd dddd 8b3e
00000260: 79ab 053e 47e0 b63e aea0 8a3d 9eaf 153e
00000270: fa91 1d3e 3e83 6dbe 072d 57be 54ba 81be
00000280: e67c d2be d8e6 91be 0238 2fbd bae8 b63d
00000290: 8202 623e dafe 01be d5af a13e 0cf4 903e
000002a0: 6b08 18bf 0212 17bf ed07 2abe b028 9dbd
000002b0: 44c6 c4bd f08d 4fbd ddf8 febd 504a 3bbe
000002c0: daef 38be f497 e0be ce51 f6bc 6c55 e2be
000002d0: 068f 89be b4ff 2c3e 843c 0dbd f569 893e
000002e0: d275 723e 0f4b a43e 6ac6 a43c a7b9 6e3d
000002f0: a09f b63e d0d7 1cbf fb8f 8fbd 467f 0cbe
00000300: eee6 d5be e939 72be a01a 0ebf f348 22bf
00000310: c25d a5be fb78 8abe 7ff4 e6be 96a1 fcbc
00000320: c966 0abf 5184 ec3d 1b2b 153e c54d f0bd
00000330: dacd 763d 6242 5dbe 8e79 22be 2504 8bbe
00000340: 5de2 70be 0926 9c3d a9f8 bebe 891d a8be
00000350: b28c 89bd 1d15 af3e 282f 363f de5f 12bf
00000360: 3d62 adbd 9f87 273b c8b2 14be 49ff 353e
00000370: 3e32 b4bc ae8b dbbe c3f5 aebe a9ab 31be
00000380: 5711 b8be 7da9 bd3e 59e0 eb3c e8b2 a63e
00000390: ebf7 b23e fd3c 8c3e 1ea6 383f e301 5e3e
000003a0: 6f8c e73e c7d5 3e3e be08 bcbe 1d9c 2a3c
000003b0: 73fd 4a3e d40a c3be 8d62 b2be 8272 703e
000003c0: 418f 1b3f 2c94 fbbe d2fa da3d 72e3 f4bd
000003d0: 9178 1abf 6611 83be fd23 98be afce 00bf
000003e0: 2c32 92be c8df dbbc a259 d2bd 6433 abbc
000003f0: 9912 013d a30d 9fbe c5d9 65be b043 2cbf

bias f4 [32]
0.31027538 0.30336535 -0.40921253 0.3102754 0.18194263 -0.3396944 -0.2689179 -0.14871414
-0.41240063 -0.40982944 -0.17333572 -0.3288514 -0.107173264 -0.2902754 -0.07223727 -0.32709166
-0.062498737 -0.41591528 -0.08319528 -0.39452162 -0.051056974 -0.40102682 -0.35688493 0.196969
-0.41312632 0.19213587 -0.14778179 -0.32849833 -0.121589184 0.18998665 -0.06695724 0.40039587
00000000: 6adc 9e3e b452 9b3e 4e84 d1be 6bdc 9e3e
00000010: 2b4f 3a3e 6dec adbe 9baf 89be 8548 18be
00000020: 2d26 d3be 2ad5 d1be eb7e 31be 365f a8be
00000030: a87d dbbd fa9e 94be 22f1 93bd 8f78 a7be
00000040: adfe 7fbd d9f2 d4be 4962 aabd bdfe c9be
00000050: 1e21 51bd 6353 cdbe 9fb9 b6be 3eb2 493e
00000060: 4b85 d3be 44bf 443e 1c54 17be ef30 a8be
00000070: c003 f9bd dc8b 423e e120 89bd b000 cd3e

weight f4 [16, 32]
-0.38060942 0.52454513 0.057910483 -0.4029372 0.20421112 -0.1266638 -0.08701788 -0.5163698
0.13801013 0.21710075 -0.032485474 -0.08895436 -0.53065395 -0.1375992 0.46581393 -0.12041706
0.23235555 -0.05155057 -0.17711432 0.35170636 0.48280552 -0.08211242 0.43448904 0.39865232
0.21327277 0.49595922 0.04892398 -0.08526716 -0.39711332 0.21725954 -0.03927428 0.2196055
0.10134135 0.14111732 0.4205374 -0.009730505 -0.055060476 -0.007831782 -0.44352242 0.4289394
0.02278784 0.5484924 -0.031399608 0.077129 -0.050471596 0.34964862 -0.40153196 -0.23302802
-0.21740627 -0.03692738 0.0931181 -0.12546262 -0.6104123 -0.23146164 -0.5544537 0.597439
0.0002877259 -0.27814266 0.031642597 -0.4184697 -0.64351255 0.12349439 -0.17502245 0.046342157
-0.000102341175 0.27096197 0.21671543 0.25589094 -0.3508424 0.29113635 -0.3013876 0.31696454
-0.014651477 -0.31332505 0.09832063 -0.07196465 -0.3175593 -0.12817661 0.036453187 0.27536383
-0.108692795 0.20999935 0.044274956 0.0119175315 0.067650676 -0.23202603 -0.29387295 -0.11109057
-0.32946014 -0.16487981 0.016265512 -0.23285353 -0.14665253 -0.06352875 -0.040730536 -0.19516663
0.016988605 -0.32756954 -0.17682979 0.015969098 -0.45449853 -0.39966744 -0.13949096 -0.26267347
-0.25026658 -0.3029076 -0.14077342 -0.19427058 0.05553489 0.2886203 -0.48907158 -0.11990316
-0.4534484 -0.32654136 -0.39242622 -0.32935053 -0.35754696 0.04694279 -0.024876667 -0.1799616
0.11012819 -0.52975804 -0.1615126 0.042799566 0.030837854 -0.55932117 -0.003770826 -0.42523825
-0.013814688 0.33914 0.12147071 -0.33725968 0.16077423 0.56555426 0.34993055 0.016095517
0.14517026 0.4186874 0.012026538 0.6185657 0.6783323 0.3628054 0.07170736 0.5027684
0.5383839 0.5539669 0.13385595 0.064281344 0.5304196 0.438079 0.27289224 0.2500722
0.029933453 0.6656397 0.13803649 0.67894506 0.49346328 0.4359867 0.16202292 0.36446846
0.2428259 -0.61885774 0.14060217 -0.057604045 -0.13883705 -0.3018501 -0.4311842 -0.3384413
-0.10935903 -0.2455534 -0.52375585 -0.37947008 -0.42851785 -0.1613855 -0.0623446 -0.33814043
0.03403546 -0.14772166 -0.4986752 -0.45855913 -0.5438636 -0.5480926 -0.6152966 -0.6136221
-0.2079983 -0.084659316 0.031657323 0.00088051334 -0.32063782 -0.2316694 -0.511813 -0.16361943
-0.6392762 -0.014046219 -0.15012075 -0.19162683 -0.15143059 -0.45098042 0.018638691 -0.13033468
-0.06802802 -0.17673552 -0.06685004 0.042818863 -0.12686245 -0.030949524 -0.3644021 -0.010164895
-0.17446789 -0.08754357 0.044085186 -0.18650821 -0.28508294 -0.31525347 -0.079331346 -0.07012201
-0.39685556 0.08403989 -0.020349735 -0.48713073 -0.3290834 -0.3272837 -0.50494987 -0.12446978
-0.40881252 -0.48280138 -0.41395938 -0.42633426 0.037947953 -0.1646621 0.047661208 -0.20333251
-0.2202197 -0.15493175 -0.23959397 -0.5777337 -0.50935006 -0.3859338 -0.29496032 -0.16708659
-0.1641401 -0.019796716 -0.22830145 -0.42094076 -0.5661565 -0.5592213 -0.5114657 -0.19364233
-0.10926026 0.009053007 -0.41210845 -0.3281647 -0.40526778 -0.30156723 -0.1867841 -0.30804348
00000000: 3ddf c2be 9748 063f 8b33 6d3d c94d cebe
00000010: b81c 513e 28b4 01be 6e36 b2bd d030 04bf
00000020: 8752 0d3e a94f 5e3e 7d0f 05bd b42d b6bd
00000030: f0d8 07bf cee6 0cbe 2a7f ee3e 389d f6bd
00000040: 9dee 6d3e b126 53bd 755d 35be db12 b43e
00000050: 4932 f73e 8e2a a8bd 5975 de3e 281c cc3e
00000060: 2d64 5a3e 5eee fd3e 8364 483d 8ca0 aebd
00000070: 7052 cbbe 4979 5e3e 11de 20bd 44e0 603e
00000080: 0e8c cf3d 0f81 103e ae50 d73e b26c 1fbc
00000090: 1887 61bd e050 00bc 5f15 e3be f29d db3e
000000a0: 90ad ba3c ff69 0c3f e09c 00bd cff5 9d3d
000000b0: 4ebb 4ebd 2505 b33e 9995 cdbe e69e 6ebe
000000c0: c09f 5ebe 2a41 17bd b4b4 be3d 4679 00be
000000d0: fb43 1cbf 4804 6dbe adf0 0dbf c3f1 183f
000000e0: ebd9 9639 b768 8ebe ab9b 013d a941 d6be
000000f0: 3dbd 24bf a0ea fc3d 1639 33be 46d1 3d3d
00000100: 00a0 d6b8 87bb 8a3e a6ea 5d3e 2304 833e
00000110: 9da1 b3be d30f 953e 7a4f 9abe 2d49 a23e
00000120: c00c 70bc 246c a0be 545c c93d 3462 93bd
00000130: 2297 a2be bb40 03be f04f 153d 7dfc 8c3e
00000140: 549a debd 120a 573e a859 353d c041 433c
00000150: 708c 8a3d 3b98 6dbe 8476 96be 7483 e3bd
00000160: 00af a8be 41d6 28be 403f 853c 2871 6ebe
00000170: 152c 16be 5c1b 82bd 10d5 26bd c3d9 47be
00000180: b02b 8b3c 32b7 a7be de12 35be a0d1 823c
00000190: 08b4 e8be 36a1 ccbe b8d6 0ebe 237d 86be
000001a0: f122 80be b416 9bbe e826 10be deee 46be
000001b0: 8e78 633d 0ac6 933e 9767 fabe ca8f f5bd
000001c0: 642a e8be 6e30 a7be 17ec c8be a2a0 a8be
000001d0: 6510 b7be 1547 403d 27ca cbbc db47 38be
000001e0: e38a e13d 399e 07bf 8f63 25be 994e 2f3d
000001f0: ab9f fc3c ac2f 0fbf f61f 77bb d4b8 d9be
00000200: 0057 62bc c2a3 ad3e a3c5 f83d 4dad acbe
00000210: 00a2 243e 2ac8 103f 192a b33e bfda 833c
00000220: 83a7 143e 325e d63e f50a 453c 525a 1e3f
00000230: 30a7 2d3f a1c1 b93e 4fdb 923d 6eb5 003f
00000240: 87d3 093f c6d0 0d3f 8911 093e f0a5 833d
00000250: 94c9 073f e44b e03e 88b8 8b3e 7709 803e
00000260: 0037 f53c 5d67 2a3f 7059 0d3e 58cf 2d3f
00000270: 38a7 fc3e a639 df3e 56e9 253e 9c9b ba3e
00000280: 5aa7 783e 766d 1ebf 04fa 0f3e 38f2 6bbd
00000290: 4d2b 0ebe 198c 9abe 2dc4 dcbe 2e48 adbe
000002a0: a1f7 dfbd 5a72 7bbe dd14 06bf e749 c2be
000002b0: b166 dbbe 3e42 25be 0d5d 7fbd be20 adbe
000002c0: c468 0b3d 5944 17be 5b52 ffbe 43c8 eabe
000002d0: a53a 0bbf cc4f 0cbf 1484 1dbf 5716 1dbf
000002e0: 82fd 54be dd61 adbd 1cab 013d 40d2 663a
000002f0: a42a a4be be3a 6dbe 2d06 03bf da8b 27be
00000300: 9ba7 23bf 1d22 66bc 41b9 19be d339 44be
00000310: 9f10 1bbe e8e6 e6be 2bb0 983c 7476 05be
00000320: 4652 8bbd 28fa 34be ace8 88bd d562 2f3d
00000330: 3be8 01be db89 fdbc e992 babe a98a 26bc
00000340: b6a7 32be 0b4a b3bd ab92 343d 02fc 3ebe
00000350: 64f6 91be e768 a1be 7978 a2bd 219c 8fbd
00000360: a730 cbbe 1b1d ac3d 7db4 a6bc 3369 f9be
00000370: 9f7d a8be bb91 a7be 6544 01bf 03ea febd
00000380: e04f d1be be31 f7be 7cf2 d3be 7c48 dabe
00000390: 506f 1b3d 2e9d 28be 6638 433d 6636 50be
000003a0: 4681 61be 6ea6 1ebe 1f58 75be 5be6 13bf
000003b0: c464 02bf 1d99 c5be 0a05 97be bf18 2bbe
000003c0: 5814 28be b92c a2bc dbc7 69be 8c85 d7be
000003d0: a2ef 10bf 2129 0fbf 6bef 02bf 2d4a 46be
000003e0: d8c3 dfbd 1053 143c e1ff d2be 3405 a8be
000003f0: 427f cfbe 0567 9abe 5544 3fbe e0b7 9dbe

bias f4 [16]
0.1881968 -0.29027537 0.01 -0.20949043 0.39665416 -0.29027534 -0.2148255 -0.29027534
-0.2679447 0.18629938 0.31355748 -0.2902754 -0.29027534 -0.15641902 -0.29027537 -0.08687334
00000000: a9b6 403e f99e 94be 0ad7 233c a984 56be
00000010: 4116 cb3e f89e 94be 37fb 5bbe f89e 94be
00000020: 0c30 89be 44c5 3e3e 9b8a a03e fa9e 94be
00000030: f89e 94be 4f2c 20be f99e 94be a6ea b1bd

weight f4 [8, 16]
-0.4310868 0.009106399 -0.39836127 -0.47619587 0.06574539 -0.15188536 -0.3668616 -0.4170407
-0.30530727 0.0037705062 -0.3161754 -0.31719226 -0.18202852 0.06869883 -0.55536675 -0.4724741
0.03854017 -0.017889097 -0.24596822 -0.7949051 -0.20751956 -0.037328325 -0.18084666 0.05438185
-0.39673704 -0.04813236 -0.61111474 -0.018871993 0.07158183 -0.1419172 0.104261935 -0.6298509
-0.74506116 -0.78102773 0.31391573 -0.10278961 -0.56745446 -0.05813496 0.15710604 -0.79331696
0.6406549 -0.2557283 -0.25376484 0.14962134 0.15251982 -0.0761587 0.09479214 0.043965966
0.29428083 -0.13923033 0.09339136 -0.025613312 0.48514986 0.38849232 0.37275487 -0.041587953
-0.025154002 0.46495005 -0.13826017 0.563895 0.15128683 0.31695426 0.17213637 0.6853702
-9.2048154e-05 0.3149324 0.3447469 -0.17933351 0.268787 -0.095226765 0.0015334575 0.21585876
0.21719699 0.5393572 -0.69566727 0.23231572 -0.42689633 0.02589296 0.034106493 0.6687055
-0.03691576 -0.71081775 0.05538273 -0.59501964 -0.2786105 -0.7168117 -0.44696212 0.042657863
-0.45876807 -0.7769864 -0.20920308 -0.23173307 -0.39171812 0.13633081 -0.60131955 -0.6038152
-0.6516825 -0.09306127 -0.12760246 0.03142876 -0.3060192 0.15967679 -0.485723 0.4055962
0.14356485 -0.7257289 -0.1284998 -0.4242487 0.21241343 -0.714786 -0.23640591 0.22164176
-0.4774596 0.36890227 0.042239547 0.39981735 -0.25374466 0.32841426 0.060326874 0.0384562
0.3412661 -0.4752636 -0.40272564 0.48288172 -0.30024827 -0.36040384 -0.024447322 -0.16005123
00000000: 69b7 dcbe 0133 153c 02f6 cbbe f2cf f3be
00000010: 85a5 863d d687 1bbe 49d5 bbbe 5c86 d5be
00000020: 3c51 9cbe 991a 773b bee1 a1be 0667 a2be
00000030: af65 3abe f9b1 8c3d 842c 0ebf 20e8 f1be
00000040: 4cdc 1d3d 288c 92bc 18df 7bbe e77e 4bbf
00000050: 0280 54be 96e5 18bd de2f 39be 81bf 5e3d
00000060: 1e21 cbbe 7026 45bd 0472 1cbf 7099 9abc
00000070: 7f99 923d be52 11be 4887 d53d e93d 21bf
00000080: 54bc 3ebf 6ff1 47bf 90b9 a03e 5c83 d2bd
00000090: b244 11bf ec1e 6ebd 68e0 203e d216 4bbf
000000a0: f601 243f d2ee 82be 77ed 81be 5636 193e
000000b0: 282e 1c3e 18f9 9bbd 6222 c23d a815 343d
000000c0: faab 963e 6592 0ebe f843 bf3d 02d3 d1bc
000000d0: 9065 f83e 77e8 c63e bad9 be3e 2158 2abd
000000e0: c40f cebc ef0d ee3e 1394 0dbe 6c5b 103f
000000f0: efea 1a3e d447 a23e 8444 303e 6c74 2f3f
00000100: fa09 c1b8 d23e a13e aa82 b03e 34a3 37be
00000110: 739e 893e 4006 c3bd 4cfe c83a 140a 5d3e
00000120: e368 5e3e 5013 0a3f 4017 32bf 2ce4 6d3e
00000130: 2892 dabe 791d d43c 40b3 0b3d 4930 2b3f
00000140: fb34 17bd 27f8 35bf 00d9 623d 3553 18bf
00000150: 09a6 8ebe f980 37bf 38d8 e4be 03ba 2e3d
00000160: a6e3 eabe 95e8 46bf 5539 56be 6f4b 6dbe
00000170: 478f c8be 4e9a 0b3e 14f0 19bf a293 1abf
00000180: aad4 26bf e896 bebd 38aa 02be 72bb 003d
00000190: 8cae 9cbe 5082 233e afb0 f8be 4eaa cf3e
000001a0: aa02 133e 5fc9 39bf 7495 03be 2037 d9be
000001b0: e882 593e 37fc 36bf 6414 72be 0ff6 623e
000001c0: 9675 f4be c2e0 bc3e 6003 2d3d dcb4 cc3e
000001d0: d2ea 81be ea25 a83e 5019 773d 4084 1d3d
000001e0: 6eba ae3e c055 f3be 0e32 cebe 463c f73e
000001f0: 24ba 99be da86 b8be c045 c8bc 78e4 23be

bias f4 [8]
-0.29027537 -0.29027537 -0.28555787 0.39026982 0.28128418 -0.29027534 -0.26794463 0.01
00000000: f99e 94be f99e 94be a434 92be 72d1 c73e
00000010: 7b04 903e f89e 94be 0a30 89be 0ad7 233c

weight f4 [4, 8]
-0.39701596 -0.7740264 -0.04513791 -0.90872747 0.057270646 0.112349436 0.13586068 0.09395319
0.10342431 -0.2071473 -0.41264725 -0.57612664 -0.7556152 -0.37438202 0.42107314 -0.11833888
-0.052578658 0.18872729 -0.35551304 -0.6806802 -0.47909242 -0.5607756 0.25239217 -0.595496
-0.3866108 -0.03130144 0.25809258 -0.28131166 -0.25372246 0.18380342 0.048800778 0.2392239
00000000: ad45 cbbe 9826 46bf 87e2 38bd 5da2 68bf
00000010: a094 6a3d 7617 e63d 101f 0b3e 886a c03d
00000020: 20d0 d33d 6c1e 54be 8046 d3be 097d 13bf
00000030: ff6f 41bf 00af bfbe e696 d73e a85b f2bd
00000040: b85c 57bd ba41 413e ce05 b6be 0f41 2ebf
00000050: 9a4b f5be fd8e 0fbf 8c39 813e 6d72 18bf
00000060: daf1 c5be f035 00bd b624 843e 1508 90be
00000070: e9e7 81be f736 3c3e 53e3 473d 1cf7 743e

bias f4 [4]
-0.29027534 -0.2679447 -0.29027534 -0.4625971
00000000: f89e 94be 0c30 89be f89e 94be 87d9 ecbe

weight f4 [1, 4]
-0.039363626 -0.6004918 0.06365687 0.20212407
00000000: c13b 21bd d5b9 19bf 885e 823d 9df9 4e3e
