experiments/neural_networks/mlartifacts/730589028942085756/models/m-aa51a740af59443cbfb679a1f1ce8c67/artifacts/data/model.pth (torch, 6845 bytes, 5 tensors)

weight f4 [8, 8]
000000 d1 8a d7 be e7 a0 18 3f 2d 9f d2 be a4 bc ba 3e
       -0.42098096 0.5962052 -0.41137066 0.36472046
000010 a4 bb 82 3e 7c f8 74 3e e7 82 a9 be 65 a0 18 3f
       0.25533783 0.23922914 -0.33107683 0.5961974
000020 c3 97 2d 3e b5 3f eb 3d f1 ee 00 bf 26 1a 96 3e
       0.16952424 0.114867605 -0.50364596 0.29316825
000030 c1 c2 8c bd 4b a3 8f be f9 87 0c 3f 9b 64 33 3e
       -0.06873084 -0.2805427 0.5489498 0.17518847
000040 68 33 9c be 2e 31 8c be bd d2 c4 3b e5 4a c1 3e
       -0.3050797 -0.2738127 0.0060065673 0.37752452
000050 e3 27 44 be 22 de c1 be fb b5 73 be 80 33 fc be
       -0.1915584 -0.37864786 -0.23799889 -0.4925804
000060 83 0a 37 3e fd 4b de 3e da c4 1d bf 44 e3 d1 3d
       0.17875104 0.4341735 -0.61628497 0.102484256
000070 08 af 8d 3e c4 99 91 3d 92 ae 83 be 5e 52 8f 3e
       0.276726 0.071094066 -0.25719124 0.2799253
000080 59 04 b8 3e 82 98 88 3e 58 58 8f bd 99 04 00 be
       0.35940817 0.26678854 -0.06999272 -0.12501754
000090 b5 ba be 3d 51 73 8b bd 04 87 12 be d9 81 d9 3e
       0.09312955 -0.06809104 -0.14309317 0.42481878
0000a0 23 a7 10 3f 2e c7 ae bc 36 81 c7 bd 20 49 45 3d
       0.5650503 -0.02133521 -0.09741442 0.04816544
0000b0 85 31 cf 3a a2 0e 40 3e 09 c1 58 3e 30 41 08 bf
       0.0015807605 0.18755582 0.21167387 -0.5322447
0000c0 3f 99 87 be a5 1f f4 3e ab 65 4c 3e cf 55 8e bd
       -0.26484105 0.47680393 0.19960658 -0.069499604
0000d0 29 08 bd be 3b f7 d2 be cf e5 14 bf 57 e8 70 be
       -0.36920288 -0.41204247 -0.5816316 -0.2352613
0000e0 86 73 34 3e 7b 20 b7 3e 89 22 7f 3e c8 dd 12 bf
       0.17622194 0.35766968 0.24915518 -0.5736966
0000f0 4a 8c bc be d8 10 84 bd 4c 62 0e 3f 51 3c 80 3d
       -0.36825782 -0.06448525 0.5561874 0.062615044

bias f4 [8]
000000 af 63 4e 3d 5a a4 46 3d 47 d4 a0 bc b4 40 f8 bc
       0.050388034 0.04849658 -0.019632472 -0.03030429
000010 4a f9 46 3d b1 6f 4e 3d 8a 1e ef bc f3 f9 c2 bc
       0.048577584 0.050399486 -0.029189367 -0.023800826

weight f4 [8, 8]
000000 59 87 2c be 65 f9 5a 3e 08 3a 8a be b2 fa cf be
       -0.16848506 0.21384199 -0.269974 -0.40620953
000010 a6 c6 df 3e 96 90 8e be c4 69 fb bd da 36 20 bf
       0.43706244 -0.27844685 -0.122760326 -0.62583697
000020 91 66 be 3e 1c 96 d9 3e 2f 3b 41 3e ee 78 ed be
       0.37187627 0.42497337 0.18870233 -0.46381325
000030 a5 60 24 bf a7 66 09 bf 22 1b e0 3e 91 d3 82 3e
       -0.6420997 -0.5367226 0.437707 0.25552037
000040 77 63 f3 3e 28 d3 8f 3e c7 ed f3 3d 09 ad 3a bd
       0.47536823 0.28090787 0.11910587 -0.045575175
000050 9c 7f 01 bf af 8a 10 bf 60 0e 1b bf 86 7c 58 3e
       -0.5058534 -0.56461614 -0.6056881 0.21141252
000060 7d ef 99 be 10 66 fc bd dd 70 b4 be a0 88 e4 bd
       -0.30065528 -0.123241544 -0.35242358 -0.11158872
000070 3a ad dc be 55 de cc be 74 01 50 3e de 5c 3a be
       -0.4310091 -0.40013376 0.20313054 -0.18199489
000080 d6 45 ad 3e a6 22 70 be 71 88 f3 be ae 7a 16 be
       0.33842343 -0.23450717 -0.47565034 -0.14695236
000090 1a 1f ac be 83 6e 67 be 1c 17 1a bf db 3d 9c 3e
       -0.3361748 -0.2260075 -0.6019151 0.30515942
0000a0 f5 eb ee be a4 0f 89 3e 85 2a 77 3e 9c 8b cc 3e
       -0.46664396 0.26769745 0.24137314 0.39950264
0000b0 b9 98 02 bf ba df cc 3e 28 99 a4 be c3 0e 40 3e
       -0.51014286 0.4001444 -0.321481 0.18755631
0000c0 d6 85 1d 3f c1 98 3c bd 12 e9 01 3d 49 44 cf bd
       0.6153234 -0.046044115 0.031716414 -0.10120446
0000d0 56 5b f1 be b0 22 ab 3e 1c a0 12 bf fc 13 d7 3e
       -0.47139996 0.33424902 -0.5727556 0.42007434
0000e0 dc 19 ff 3e 58 99 1e 3f 06 86 dd bd 2e 67 ed be
       0.49824417 0.61952734 -0.108165786 -0.46367782
0000f0 bd 7e 34 3e 7e e4 c1 3e b8 c8 12 bf 50 47 ca bd
       0.17626472 0.37869638 -0.5733752 -0.09876883

bias f4 [8]
000000 8a 53 ec bc 33 c2 ea bc 8b 07 f4 bc 0a d7 23 3c
       -0.028848428 -0.028657055 -0.029788753 0.01
000010 09 cf ec bc 3a 98 f4 bc 95 88 4d 3d 56 38 4e 3d
       -0.028907316 -0.029857744 0.050179083 0.050346695

weight f4 [1, 8]
000000 df e1 e6 be d1 b4 04 bd 57 d6 b9 be 3e e2 aa be
       -0.450942 -0.032399002 -0.3629634 -0.33375734
000010 35 5a 63 be 8a 89 3c bf 70 d2 35 3f 1d 8d 39 3f
       -0.2220238 -0.7364737 0.7102423 0.72480947
