experiments/neural_networks/mlartifacts/730589028942085756/models/m-5c7fe11f11354925bbf95589e3fa8ec3/artifacts/data/model.pth (torch, 6845 bytes, 5 tensors)

weight f4 [8, 8]
000000 7c d6 de be 28 e8 14 3f f7 02 da be da 6d b3 3e
       -0.43523014 0.5816674 -0.42580387 0.35044748
000010 89 f3 75 3e 9f 72 65 3e e7 82 a9 be 4e ce 14 3f
       0.24018683 0.22407006 -0.33107683 0.58127296
000020 b2 8d 1f 3e f5 b6 ce 3d 15 7e 04 bf 7e f5 8e 3e
       0.15581396 0.1009349 -0.51754886 0.2792167
000030 c2 de a8 bd 4b a3 8f be 9a f8 08 3f 04 69 24 3e
       -0.08245613 -0.2805427 0.53504336 0.16055685
000040 76 10 a2 be 7b b9 92 be 13 71 cb bb df ec ba 3e
       -0.31653184 -0.28657135 -0.006208548 0.36508843
000050 3e 59 37 be 8e 09 be be e3 8b 6a be e6 83 f6 be
       -0.17905137 -0.37116665 -0.22904925 -0.48147506
000060 0f 61 46 3e 15 00 e6 3e 72 ec 19 bf 6e a2 f0 3d
       0.19372962 0.44921938 -0.6012641 0.11749731
000070 8d 42 95 3e b8 32 b0 3d 2a e7 78 be fe 01 97 3e
       0.29152337 0.08603424 -0.24306932 0.29493707
000080 8c 5c b1 3e bf df 81 3e 45 f1 a9 bd cd e9 0c be
       0.3464092 0.25366017 -0.08297972 -0.13761063
000090 c8 a8 ab 3d f0 53 aa bd 99 88 21 be 25 77 d4 3e
       0.08381802 -0.08316791 -0.15774764 0.4149715
0000a0 de e7 0c 3f b4 1a 14 bd f5 2d e6 bd fc a1 08 3d
       0.550413 -0.03615828 -0.11239234 0.033357605
0000b0 43 b8 58 bc 3e 71 30 3e 06 5d 49 3e 4c a8 0b bf
       -0.013227525 0.17230698 0.19664392 -0.54553676
0000c0 d0 12 80 be 68 a7 fb 3e 36 76 5b 3e d8 3e 60 bd
       -0.25014353 0.49151158 0.21431813 -0.054747432
0000d0 29 08 bd be 93 58 cc be a1 84 12 bf 5f aa 62 be
       -0.36920288 -0.39911327 -0.57233626 -0.22135304
0000e0 db 6a 3c 3e 3e 7f bb 3e e6 1d 84 3e d0 c2 10 bf
       0.18400137 0.36620516 0.2580406 -0.5654726
0000f0 4a 8c bc be fd b0 9f bd ad 67 11 3f 53 68 87 3d
       -0.36825782 -0.0779743 0.5679882 0.06611695

bias f4 [8]
000000 0a ba 0f 3d 14 d4 0a 3d 47 66 28 bc a1 4e 77 bc
       0.03508953 0.03389366 -0.010278291 -0.01509443
000010 9b 0e 0f 3d 62 c5 0f 3d cc db 6b bc 53 47 71 bc
       0.03492604 0.03510035 -0.014395665 -0.014726478

weight f4 [8, 8]
000000 84 64 22 be 75 00 6a 3e ca f6 83 be e6 ef ca be
       -0.15858656 0.22851737 -0.25774223 -0.39636153
000010 52 d8 e4 3e 96 90 8e be c4 69 fb bd 98 8e 1d bf
       0.4469629 -0.27844685 -0.122760326 -0.61545706
000020 40 3c c5 3e 17 df e0 3e b8 a3 4c 3e cd 0d e7 be
       0.3852253 0.43920204 0.19984329 -0.45127717
000030 f2 04 21 bf 65 ae 05 bf 87 32 e2 3e 27 ef 89 3e
       -0.6289817 -0.5221923 0.44179174 0.2694027
000040 56 0c fb 3e 68 74 97 3e 9b 5f 06 3e bb 0a fd bc
       0.4903285 0.29580998 0.13122408 -0.030888906
000050 a3 45 fb be ab b9 0c bf c4 6f 18 bf 8d 3c 67 3e
       -0.49076566 -0.54970807 -0.5954554 0.22581692
000060 7d ef 99 be 10 66 fc bd dd 70 b4 be a0 88 e4 bd
       -0.30065528 -0.123241544 -0.35242358 -0.11158872
000070 3a ad dc be 55 de cc be 74 01 50 3e de 5c 3a be
       -0.4310091 -0.40013376 0.20313054 -0.18199489
000080 ed c8 b4 3e 50 8d 62 be 5e 3a f0 be 98 f4 07 be
       0.35309544 -0.22124219 -0.4691953 -0.13276899
000090 f4 c0 a4 be dc 47 59 be 6a 0b 19 bf 24 d1 a2 3e
       -0.32178462 -0.21218818 -0.5978304 0.31800187
0000a0 bf 1c e7 be 82 c7 90 3e cf 08 82 3e 46 78 d3 3e
       -0.4513912 0.28277212 0.25397345 0.413027
0000b0 f1 59 fd be 13 a7 d4 3e 48 ea 9f be 12 2c 4f 3e
       -0.49482682 0.41533718 -0.3123343 0.20231655
0000c0 76 a3 19 3f 58 12 7b bd f8 a9 94 3c a4 c0 ed bd
       0.60015047 -0.06129679 0.018147454 -0.11609009
0000d0 1a f1 f8 be a4 50 a3 3e 0e ae 15 bf 0b 6b cf 3e
       -0.48621446 0.3189746 -0.5846871 0.40511355
0000e0 e0 56 f7 3e 4c ae 1a 3f 63 e7 f6 bd 67 07 f5 be
       0.48308468 0.60422206 -0.12055852 -0.4785721
0000f0 4d 85 25 3e 14 0d ba 3e db 4c 16 bf 38 4a e9 bd
       0.16164131 0.36338103 -0.5871102 -0.11391109

bias f4 [8]
000000 5b 5d 75 bc a8 db 70 bc 84 1c 75 bc 0a d7 23 3c
       -0.014975871 -0.014700808 -0.014960412 0.01
000010 7b 30 73 bc 75 1c 75 bc 36 77 0f 3d 22 c5 0f 3d
       -0.014843102 -0.014960398 0.035025798 0.03510011

weight f4 [1, 8]
000000 84 1a ee be 12 1e 3f bd f8 19 c1 be 3e e2 aa be
       -0.46504605 -0.046659537 -0.37715125 -0.33375734
000010 53 78 70 be 22 45 40 bf dc ec 31 3f e9 a6 35 3f
       -0.234834 -0.7510549 0.69502044 0.7095781
