experiments/neural_networks/mlartifacts/954866327486404750/models/m-976707449f43442fa2227707b70ae703/artifacts/data/model.pth (torch, 6537 bytes, 3 tensors)

weight f4 [30, 9]
000000 c2 70 33 bf b9 7e 86 bf 06 0d dc bc a9 57 80 bf
       -0.7009393 -1.0507423 -0.026861679 -1.0026752
000010 5a 5b 27 c0 98 13 be bd b3 2e 82 40 6d e8 75 40
       -2.6149507 -0.09281081 4.0682006 3.8423111
000020 61 9c 81 40 cf 46 29 3e af 3f df 3d b0 ce e5 3b
       4.050339 0.16530918 0.109008186 0.0070131645
000030 d5 f7 10 be 6f 59 ed bd 71 a2 e8 ba e8 f6 e1 3d
       -0.1415704 -0.11589324 -0.0017748607 0.11033422
000040 06 e1 9e be d7 66 b0 be 12 80 26 ba 39 9c 9d 3c
       -0.31031054 -0.3445346 -0.00063514814 0.019239532
000050 3a ce f6 3d 24 69 58 3e 99 d3 09 3e c5 3c f1 be
       0.12051053 0.21133858 0.13459624 -0.47116676
000060 02 76 cb bd 0e cf 4d 3d 4f 66 12 be ed 49 ff 3f
       -0.099346176 0.05024629 -0.1429684 1.9944435
000070 37 11 d5 3f 98 31 3b 40 83 bb bb 3f 02 39 32 3f
       1.6645879 2.924902 1.4666599 0.69618237
000080 f3 a4 37 40 c1 02 48 40 51 a6 50 40 e0 6f 3d 40
       2.8694427 3.125168 3.2601511 2.9599533
000090 f7 f6 68 be a2 04 98 be 50 b6 9a 3d a7 59 da 3e
       -0.2275046 -0.29691035 0.075543046 0.42646524
0000a0 10 f2 96 3e 99 55 23 be c6 0e f5 bd 16 38 a6 be
       0.29481554 -0.15950622 -0.119657084 -0.32464665
0000b0 f1 82 60 be f6 ae 68 c0 80 b3 52 c0 44 fa c9 bf
       -0.2192495 -3.6356788 -3.2922058 -1.57795
0000c0 83 2b 85 c0 a6 87 0b 3f 46 7a f1 be 2b ef 3e c0
       -4.1615615 0.5450386 -0.471636 -2.9833477
0000d0 f5 0f 4c c0 94 c7 f1 bf 0b ee 29 bf df 54 e2 bf
       -3.188474 -1.8889031 -0.6637885 -1.7682151
0000e0 6f 63 88 3e 57 24 9a bf de b3 0b c0 89 4b 84 be
       0.26638362 -1.204234 -2.1828532 -0.2583888
0000f0 97 81 84 40 1a 11 89 40 3f 96 8a 40 52 cf 26 bf
       4.140819 4.2833376 4.3308406 -0.65160096
000100 16 ea 8b bf 63 1e a3 3d bf 7d a2 bf 1f 3e 00 c0
       -1.0930812 0.0796478 -1.2694625 -2.0037916
000110 0b f0 83 be f4 e6 6f 40 0d fc 77 40 e3 1c 7b 40
       -0.25769076 3.7484713 3.874759 3.923638
000120 b4 06 07 bf 7e 77 34 bf 6e e0 35 bb b6 11 b4 bf
       -0.52744603 -0.7049483 -0.0027752179 -1.4067905
000130 f2 cb 1a c0 a5 59 3d be 95 d7 72 40 94 51 6f 40
       -2.4186978 -0.18491228 3.794408 3.7393541
000140 5f dc 75 40 2b 86 14 40 08 b8 9f 3f bf 51 3f 40
       3.8415754 2.320689 1.2478037 2.9893644
000150 f9 d1 a1 3f 08 8c 35 3f bb e8 29 40 bd b8 2a 40
       1.2642204 0.70916796 2.6548297 2.6675255
000160 b0 12 26 40 ed 9c 24 40 10 4c 24 be 0a 68 9e be
       2.5948906 2.572078 -0.1604464 -0.3093875
000170 d3 06 59 3e 12 7c 95 3e c9 b2 50 3d 87 92 b8 bd
       0.2119401 0.2919622 0.050951753 -0.09012323
000180 6b c1 c7 be f1 0e 71 be 81 4b c3 bb b1 f0 1b 3e
       -0.39014754 -0.23540856 -0.0059599285 0.15228535
000190 88 3a 6d bd d4 af 32 be f5 a9 43 3e 03 f4 9a be
       -0.057917148 -0.17449886 0.19107802 -0.3026429
0001a0 fc ca 70 3e b0 de 4f be 7f ce 0e be bc f5 15 be
       0.23514932 -0.20299792 -0.1394596 -0.14644521
0001b0 5a 58 f9 3f 95 46 70 3f ee 64 3a 40 7d be b3 3f
       1.9480088 0.938577 2.9124103 1.4042507
0001c0 8a 5e 8e 3f 0c ca 33 40 ea 1a 24 40 3e 97 1e 40
       1.1122601 2.809207 2.5641427 2.477981
0001d0 ee b3 37 40 9b a4 e2 be 49 36 c3 bf 96 81 e6 3e
       2.870357 -0.4426621 -1.5250942 0.4502074
0001e0 68 32 cf bf 89 4b 1a c0 2f 9d e8 bc 03 4d 83 40
       -1.6187258 -2.4108603 -0.028395263 4.103151
0001f0 91 ed 81 40 22 c5 83 40 93 86 20 40 34 f0 a8 3f
       4.06025 4.117814 2.5082138 1.3198304
000200 2d b4 2e 40 6a 2d cd 3f 8d 21 8f 3f 0f 57 38 40
       2.729747 1.6029484 1.1182114 2.8803136
000210 52 69 31 40 08 a8 5c 40 55 e0 29 40 f0 01 e4 3f
       2.7720532 3.4477558 2.6543171 1.7813091
000220 4b aa 81 3f b7 8b 52 40 a8 e2 f5 3f b8 fd aa 3f
       1.0130094 3.2897775 1.9209795 1.3358679
000230 c3 29 3b 40 01 0d 53 40 3b d3 47 40 c0 07 26 40
       2.924424 3.2976687 3.1222675 2.594223
000240 7b dd 68 3e 2b 81 3d be 85 27 79 be dc f1 df bd
       0.22740738 -0.18506305 -0.24331482 -0.10934803
000250 d8 8f bc 3d 26 a6 54 3e 42 c0 3a be 2c 65 6c be
       0.092071235 0.20766506 -0.18237403 -0.23085469
000260 36 bf db bc f9 f7 91 be ea 7f a6 be ac 55 08 3e
       -0.026824575 -0.285095 -0.32519466 0.13313931
000270 09 13 0d be 3c 0b 8e 3e 84 8b 98 3e 3f dd 4b bd
       -0.13776793 0.27742946 0.29793942 -0.049771544
000280 b5 71 06 bd 3c d1 f4 bc f1 76 ed 3f 5f 6d 80 3f
       -0.032823283 -0.029884927 1.8551923 1.0033377
000290 6e 58 25 40 1a b0 c3 3f 2b cd 93 3f 09 a0 12 40
       2.5835223 1.5288117 1.1546987 2.2910178
0002a0 0d 47 25 40 e0 0a 34 40 3c c9 14 40 16 34 4e c0
       2.5824616 2.8131638 2.3247824 -3.221929
0002b0 60 2e 95 c0 f4 44 f5 bf 69 7f 86 c0 45 b3 1c c0
       -4.661911 -1.9161668 -4.203053 -2.4484417
0002c0 ce 44 04 c0 36 02 87 c0 ff a8 47 c0 34 82 4a c0
       -2.0666995 -4.21902 -3.1196897 -3.164197
0002d0 7f 36 a5 bf 5d 93 93 bf fb da 86 3e 08 f0 c2 bf
       -1.2907256 -1.1529347 0.26338944 -1.5229502
0002e0 89 50 12 c0 d0 a7 a6 3e 9a a6 76 40 48 e6 88 40
       -2.2861655 0.32549906 3.8539186 4.2781105
0002f0 c3 c9 8a 40 79 78 bb bd db b9 44 3e d7 33 a1 bd
       4.337129 -0.09153838 0.19211523 -0.07871216
000300 a2 30 53 3e 6d 69 69 3e 0d 18 c2 be ed 08 3d bd
       0.2062402 0.22794123 -0.37908974 -0.04615109
000310 c6 d9 f8 bc 4f 63 d3 bc d9 4d 4f bd 37 9e bc ba
       -0.03037728 -0.02580419 -0.05061135 -0.0014390413
000320 f4 84 97 be 46 d4 1f be e0 c5 86 3e df 8f 20 3e
       -0.29593623 -0.1560832 0.26322842 0.15679882
000330 8b 7d 0d be 0e f1 d6 be 99 11 c2 bd 95 67 a7 bf
       -0.13817422 -0.41980785 -0.09476013 -1.3078486
000340 f5 3f 05 bf c4 e1 28 3d 19 b0 bb bf 08 55 14 c0
       -0.52050716 0.041230932 -1.4663116 -2.31769
000350 66 62 d7 bc b4 8b 92 40 43 24 86 40 68 bd 8c 40
       -0.026292037 4.5795536 4.1919265 4.398121
000360 88 06 6b 3e b4 e5 74 3e 70 d3 4d be 90 a8 1a be
       0.2295171 0.2391575 -0.20100188 -0.15103364
000370 45 c5 e1 3d d2 9d 2d be e4 17 02 bd cf 2c 30 be
       0.11023954 -0.16954735 -0.031761065 -0.17204593
000380 67 cc af be 9c f8 70 40 99 6f 8e 40 7a 80 d4 40
       -0.34335634 3.765174 4.4511228 6.640683
000390 9e 17 fc 3f a3 92 8c 40 9b a3 0c 40 9f e3 57 40
       1.9694707 4.3929 2.1974857 3.373268
0003a0 51 d8 67 3f 24 43 30 40 dc bd 43 bf e8 bd 71 bf
       0.9056445 2.754098 -0.7646158 -0.944304
0003b0 fa 01 79 3e e1 26 a9 bf b3 ba 25 c0 ad 88 04 be
       0.2431716 -1.321499 -2.5895202 -0.12942763
0003c0 5d 1d 63 40 b0 86 78 40 5b 20 8b 40 b2 53 35 c0
       3.5486672 3.8832207 4.3476996 -2.8332334
0003d0 99 d1 95 c0 04 03 0a c0 88 2d 7a c0 ab 06 11 c0
       -4.6818357 -2.156434 -3.909029 -2.266032
0003e0 67 0a d8 bf e1 81 17 c0 a3 68 39 c0 22 da 28 c0
       -1.6878175 -2.3673022 -2.8970115 -2.6383138
0003f0 be d9 14 40 f7 75 96 3f fc b8 38 40 f9 3c a1 3f
       2.32579 1.175475 2.8862906 1.2596732

bias f4 [30]
000000 1d f6 90 40 4b b9 71 be 78 5d 0e be 74 8b 4e 40
       4.530043 -0.2360584 -0.13902843 3.2272615
000010 53 ab 80 bd b0 34 90 c0 da 0c 97 40 f1 bf 87 40
       -0.062826775 -4.5064316 4.720319 4.2421803
000020 fd 95 8b 40 95 ad 3f 40 c3 a2 ca bd 10 f4 bc bd
       4.362059 2.9949696 -0.098943256 -0.09226239
000030 7f cc 38 40 43 3f 94 40 6b 6d 53 40 fe c7 4d 40
       2.8874815 4.6327224 3.3035533 3.2153316
000040 49 62 8c bd b8 e3 14 be 81 72 3a 40 24 16 b0 c0
       -0.06854684 -0.14539993 2.9132388 -5.5027027
000050 82 0c 97 40 b2 d1 08 be 09 e6 dd bd 99 75 95 40
       4.720277 -0.13361242 -0.10834891 4.670605
000060 d6 97 09 be 34 c0 2c 40 04 bc 94 40 73 4f 92 c0
       -0.13436827 2.6992311 4.647951 -4.5721984
000070 2a ca 4b 40 af 63 4f be
       3.184214 -0.2025287

weight f4 [1, 30]
000000 e9 52 85 40 17 66 73 be 6f 97 48 bd bc aa 23 40
       4.166371 -0.23769413 -0.048972543 2.5572958
000010 9a 06 a1 be 4f ff cc c0 17 68 87 40 ed ee 88 40
       -0.3145035 -6.4061656 4.2314563 4.2791657
000020 bc cb 86 40 df f9 31 40 f8 40 34 be fe ef 39 be
       4.21237 2.780876 -0.17602909 -0.18157956
000030 62 59 33 40 5a 94 84 40 9d dc 20 40 6e a1 21 40
       2.8023305 4.1431093 2.5134652 2.525478
000040 9e 05 99 be 4d d5 04 bd b1 00 3b 40 2a d4 d8 c0
       -0.29887098 -0.032429982 2.9219172 -6.775899
000050 8a ab 7c 40 c4 96 86 be 99 75 21 be b9 13 7f 40
       3.94797 -0.262869 -0.15767516 3.9855788
000060 ad a1 27 be 37 87 99 40 31 5a 75 40 e8 66 e7 c0
       -0.16370268 4.7977557 3.8336298 -7.231312
000070 60 1c 28 40 23 ed f6 bd
       2.6267319 -0.12056949
