experiments/neural_networks/mlartifacts/954866327486404750/models/m-e9351c6fd0c44b168ab54311c6a4e9a1/artifacts/data/model.pth (torch, 7561 bytes, 3 tensors)

weight f4 [50, 9]
-0.5402611 2.6618903 -0.42134103 -1.0735769 -4.1657953 0.44331574 2.627205 1.9668382
2.1586044 0.25248602 0.3431996 0.05739546 -0.23518352 -0.17868431 -0.15357989 -0.32367986
-0.24472496 -0.32136014 -1.1746131 2.24119 -0.937419 -0.9899827 -3.6779552 0.8209295
2.2730148 2.5353472 2.665596 -0.13058458 -0.14310427 0.19193698 -0.2675124 0.030114064
0.27584538 -0.043754566 -0.03958859 -0.18572244 -0.043084055 -0.023925921 0.0422145 0.092263356
0.23499921 -0.2726505 -0.09752134 -0.15933222 -0.29719207 -0.014720296 -0.26050732 0.23051378
0.04339895 -0.1463583 0.17701955 -0.30181247 -0.18522257 -0.118132055 -1.5141202 2.2075322
-0.7081005 -0.91165394 -3.3393054 0.7676674 2.627108 2.3209028 2.5015526 0.09457054
0.000801398 0.027907098 -0.266267 -0.10937999 0.3005177 -0.11850458 -0.07697819 -0.2647896
-1.3191121 2.4246738 -0.6684979 -1.0337751 -3.4178154 0.4382232 2.8456988 2.244316
2.3942635 -0.80523753 2.5654428 -0.726087 -0.9492589 -4.1318045 0.2567103 2.0958307
2.4950905 2.57651 -0.2416425 0.33256483 0.25327715 -0.2574571 -0.10004934 0.15700462
-0.12105004 -0.108019024 -0.17178123 0.046438113 -5.8719144 -0.8381679 -3.1838627 -0.17543036
2.2695127 -1.0336412 -1.2048464 -0.5511547 1.8190943 1.7381696 0.75267506 -0.35099885
-1.7395853 3.4886918 1.2551188 2.5339258 1.4831657 1.7039485 1.7511885 0.59071994
0.11388473 -1.601105 3.4766176 0.8128867 2.7080097 1.2353312 -0.993257 2.1351624
-0.7041647 -0.6163505 -3.7737966 0.34003517 2.347902 2.417784 2.555245 -0.15734339
-0.0070658876 -0.2280722 -0.045964237 0.16462496 0.35537595 -0.0746865 0.06988824 -0.056411497
2.5382087 2.5882335 8.474854 -0.74664253 -1.5236849 0.040363614 2.3764362 -0.23493212
1.1605207 1.5617386 1.6709354 0.76477057 0.005961746 -2.2225661 3.2510636 1.0768896
2.2475474 1.5220641 1.0896837 2.2239542 0.8095609 0.052147668 -2.2941165 3.0209007
1.0271524 2.0808494 1.5265886 1.1321812 -3.1923182 0.85286355 -5.462225 2.9066439
-1.7350066 -0.97507554 -6.4068575 -1.7306262 -1.451167 1.9352288 -0.33152413 -0.7302785
-3.4845102 0.3191663 2.4102395 2.6405423 2.7253735 0.19046691 -5.526799 -0.98679084
-2.7917116 -0.63832045 1.6762702 -0.9149985 -1.1112688 -0.7738123 -0.024289018 -5.3578687
-0.75719035 -3.1419322 0.29618257 2.8125582 -0.7458459 -1.0083802 0.05984033 -1.1375166
2.479112 -0.6418056 -0.82203704 -3.648328 0.22686952 1.9829323 2.485696 2.571465
-0.25683555 -0.16765012 0.34225202 0.1559092 0.1613724 -0.15985398 -0.16983043 -0.12342712
-0.09272041 -1.1232679 1.8137466 -0.35744342 -0.71817154 -3.2736907 0.16406175 2.409648
2.4243503 2.5067012 -4.543211 -5.02152 2.1873395 -5.149702 0.27179658 -0.24417531
-2.2555625 1.2458471 -1.9667687 -0.71913993 1.2401122 -0.53231305 -0.71846694 -3.465128
0.47621915 2.3775516 2.4665918 2.5616205 -0.070307694 -5.799886 -1.5039331 -3.2446675
00000000: 8d4e 0abf 695c 2a40 03ba d7be f86a 89bf
00000010: 324e 85c0 48fa e23e 2024 2840 5bc1 fb3f
00000020: 9326 0a40 d945 813e dcb7 af3e 8017 6b3d
00000030: f3d3 70be 05f9 36be 0c44 1dbe 5eb9 a5be
00000040: 2e99 7abe 5189 a4be b959 96bf a86f 0f40
00000050: b1fa 6fbf 826f 7dbf 9e63 6bc0 7028 523f
00000060: 1379 1140 2143 2240 2099 2a40 f7b7 05be
00000070: ed89 12be 218b 443e 63f7 88be c5b1 f63c
00000080: 9b3b 8d3e fd37 33bd a527 22bd 062e 3ebe
00000090: e878 30bd 4b00 c4bc 1de9 2c3d 92f4 bc3d
000000a0: a2a3 703e d998 8bbe 45b9 c7bd fc27 23be
000000b0: 8f29 98be 652d 71bc 3761 85be ce0b 6c3e
000000c0: 19c3 313d f3de 15be 9d44 353e 2a87 9abe
000000d0: fcaa 3dbe 38ef f1bd b1ce c1bf 3548 0d40
000000e0: 1346 35bf 2762 69bf 2eb7 55c0 da85 443f
000000f0: 8a22 2840 ac89 1440 7019 2040 33ae c13d
00000100: e914 523a 6d9d e43c 2654 88be 9e02 e0bd
00000110: 75dd 993e 87b2 f2bd bea6 9dbd 8192 87be
00000120: aad8 a8bf db2d 1b40 ae22 2bbf be52 84bf
00000130: 7dbd 5ac0 cb5e e03e ee1f 3640 e0a2 0f40
00000140: 9d3b 1940 0c24 4ebf 3730 2440 d6e0 39bf
00000150: a202 73bf be37 84c0 886f 833e 1722 0640
00000160: 90af 1f40 8ae5 2440 2271 77be f045 aa3e
00000170: 8bad 813e 6bd1 83be abe6 ccbd d2c5 203e
00000180: 15e9 f7bd 1439 ddbd 6be7 2fbe e435 3e3d
00000190: b9e6 bbc0 2c92 56bf 68c4 4bc0 04a4 33be
000001a0: b23f 1140 5b4e 84bf 6838 9abf 7918 0dbf
000001b0: 15d8 e83f 577c de3f 50af 403f 1fb6 b3be
000001c0: bbaa debf ba46 5f40 bca7 a03f d72b 2240
000001d0: 60d8 bd3f fc1a da3f f226 e03f 6c39 173f
000001e0: 663c e93d 02f1 ccbf e780 5e40 5819 503f
000001f0: 0850 2d40 551f 9e3f 1746 7ebf 80a6 0840
00000200: 2344 34bf 25c9 1dbf e285 71c0 1719 ae3e
00000210: 0744 1640 f9bc 1a40 2289 2340 a01e 21be
00000220: f688 e7bb c28b 69be ff44 3cbd 7293 283e
00000230: d6f3 b53e 3cf5 98bd 9121 8f3d be0f 67bd
00000240: 0372 2240 9ea5 2540 0199 0741 f723 3fbf
00000250: 1b08 c3bf 5154 253d 8817 1840 0c92 70be
00000260: f18b 943f 0de7 c73f 36e1 d53f 01c8 433f
00000270: c05a c33b 863e 0ec0 6d11 5040 85d7 893f
00000280: d1d7 0f40 ffd2 c23f c17a 8b3f 4455 0e40
00000290: 623f 4f3f cb98 553d ced2 12c0 7056 4140
000002a0: bb79 833f a32c 0540 4167 c33f 50eb 903f
000002b0: f14e 4cc0 4455 5a3f 8cca aec0 7406 3a40
000002c0: b214 debf 8d9e 79bf fa04 cdc0 2985 ddbf
000002d0: d7bf b9bf 94b5 f73f 88bd a9be 88f3 3abf
000002e0: 3702 5fc0 c469 a33e 5d41 1a40 a5fe 2840
000002f0: 856c 2e40 c209 433e 8adb b0c0 539e 7cbf
00000300: 67ab 32c0 f868 23bf 0690 d63f 573d 6abf
00000310: 0e3e 8ebf 9018 46bf c3f9 c6bc a973 abc0
00000320: 3ad7 41bf 6b15 49c0 3ea5 973e f400 3440
00000330: c2ef 3ebf 9a12 81bf 221b 753d 259a 91bf
00000340: c5a9 1e40 5f4d 24bf 0571 52bf 357e 69c0
00000350: 7c50 683e bad0 fd3f a515 1f40 e292 2440
00000360: f37f 83be 79ac 2bbe a83b af3e a9a6 1f3e
00000370: ce3e 253e c3b0 23be 07e8 2dbe 5cc7 fcbd
00000380: 33e4 bdbd 3ec7 8fbf d928 e83f d302 b7be
00000390: 17da 37bf 2684 51c0 ceff 273e ac37 1a40
000003a0: 8e28 1b40 cb6d 2040 fc61 91c0 4bb0 a0c0
000003b0: 5ffd 0b40 5cca a4c0 ec28 8b3e 1809 7abe
000003c0: 235b 10c0 eb77 9f3f 14bf fbbf 8e19 38bf
000003d0: ffbb 9e3f ab45 08bf 73ed 37bf a8c4 5dc0
000003e0: ffd2 f33e ce29 1840 a4dc 1d40 97f1 2340
000003f0: 7bfd 8fbd ab98 b9c0 e180 c0bf a2a8 4fc0

bias f4 [50]
2.0954916 -0.07647633 2.7554977 -0.11046601 -0.07129716 -0.051734477 2.6996763 -0.048591826
2.9226356 2.7445846 -0.06064065 -2.2870762 1.7433739 1.6933825 2.5623796 -0.1950001
0.9249236 1.5334662 1.5823597 -2.4372585 2.8017964 -2.3564985 -1.9695333 2.5664206
-0.061269518 2.6267948 -0.22073531 2.7963998 -2.5839777 1.5718764 -0.11767966 -2.8597438
-0.14923386 1.7591125 0.79480505 1.5595475 -0.14960332 1.8260548 2.7316236 -0.07620639
0.82116115 2.8068461 2.7608783 -0.09468348 -0.16447242 2.7992194 1.6100703 1.7558054
-0.09559114 2.4826713
00000000: 891c 0640 9f9f 9cbd 135a 3040 013c e2bd
00000010: 3f04 92bd 88e7 53bd 7fc7 2c40 3908 47bd
00000020: 760c 3b40 46a7 2f40 5562 78bd 755f 12c0
00000030: e026 df3f c2c0 d83f 07fe 2340 1bae 47be
00000040: cbc7 6c3f 9f48 c43f c38a ca3f 0bfc 1bc0
00000050: a250 3340 dfd0 16c0 ab19 fcbf 3c40 2440
00000060: bff5 7abd 681d 2840 7008 62be 37f8 3240
00000070: e45f 25c0 3f33 c93f 0902 f1bd 0b06 37c0
00000080: c3d0 18be 992a e13f 5878 4b3f 419f c73f
00000090: 9d31 19be 2abc e93f ecd2 2e40 1912 9cbd
000000a0: 9e37 523f 5ea3 3340 3bb2 3040 6ae9 c1bd
000000b0: 756b 28be 6926 3340 c916 ce3f 3bbe e03f
000000c0: 4ac5 c3bd 16e4 1e40

weight f4 [1, 50]
4.935901 -0.123111814 4.0142407 -0.076217204 -0.0962687 -0.034165412 4.4043293 -0.08875388
4.5695634 4.590104 -0.22046858 -6.262686 2.1978002 2.1067502 4.2286444 -0.086988755
6.0222836 2.6715896 2.787536 -7.9033723 4.1460047 -5.9127107 -6.2800155 4.4956164
0.010480319 3.7961516 -9.425681 3.4493363 -6.3576784 2.398741 -0.026542537 -5.756293
-0.17099579 2.480348 6.415317 2.6563199 -0.06374955 2.4310806 4.0556197 -0.1904669
6.249257 3.459375 4.5464253 -0.045179136 -0.028995622 4.0812855 2.5565698 2.1637433
-0.06911481 4.5784497
00000000: e7f2 9d40 0c22 fcbd a974 8040 c417 9cbd
00000010: 8628 c5bd 08f1 0bbd 44f0 8c40 98c4 b5bd
00000020: dd39 9240 22e2 9240 84c2 61be ec67 c8c0
00000030: c2a8 0c40 ffd4 0640 0e51 8740 2927 b2bd
00000040: 8cb6 c040 53fb 2a40 fd66 3240 6de8 fcc0
00000050: 12ac 8440 ed34 bdc0 e3f5 c8c0 17dc 8f40
00000060: a5b5 2b3c 26f4 7240 97cf 16c1 edc1 5c40
00000070: 1a72 cbc0 f984 1940 bc6f d9bc 8d33 b8c0
00000080: 8519 2fbe 06be 1e40 474a cd40 2501 2a40
00000090: 208f 82bd d396 1b40 a3c7 8140 c109 43be
000000a0: eaf9 c740 6666 5d40 517c 9140 c20d 39bd
000000b0: 3a88 edbc e499 8240 d79e 2340 c57a 0a40
000000c0: 118c 8dbd a982 9240
