experiments/neural_networks/mlartifacts/954866327486404750/models/m-905f51426c0341e38142ed15eac6c411/artifacts/data/model.pth (torch, 27337 bytes, 3 tensors)

weight f4 [500, 9]
0	0x3daa843a	0.083260015
1	0x3c03bb01	0.008040191
2	0x3a79ae07	0.0009524528
3	0xbb91ecdf	-0.004453286
4	0xbd2d4238	-0.04229948
5	0xbd160135	-0.036622245
6	0xbdb0f4dc	-0.08640453
7	0xbb01bb30	-0.001979541
8	0xbda0ea46	-0.07857184
9	0xbdbe2ae4	-0.092855245
10	0xbe294c0b	-0.16532914
11	0x3d8cc877	0.06874173
12	0xbf4fa5ca	-0.8111235
13	0xbecc1418	-0.3985908
14	0x3f4d313e	0.8015326
15	0x3f084d6f	0.53243154
16	0x3ebd73bf	0.3700237
17	0x3edc10ae	0.42981476
18	0x3d474aa4	0.048655167
19	0x3d774dc6	0.060376905
20	0xbd23f468	-0.040028006
21	0xbdb74316	-0.089483425
22	0xbcca5ec3	-0.024703389
23	0x3cb48ae2	0.02203888
24	0x3baa9006	0.005205157
25	0xbd637264	-0.055529013
26	0xbdc43230	-0.09579885
27	0xbdc330f0	-0.095308185
28	0xbe2ea30b	-0.17054383
29	0xbbf7d090	-0.0075627044
30	0xbf53d4d5	-0.8274663
31	0xbeb04d26	-0.3443386
32	0x3f38746b	0.7205264
33	0x3f26e1e1	0.65188414
34	0x3f25dc86	0.6478962
35	0x3f1a2f20	0.6022816
36	0x3f05763a	0.52133524
37	0xbd85b721	-0.0652907
38	0x3e90f6bd	0.28313246
39	0xbe2cf5fe	-0.16890714
40	0xbcd8a350	-0.026445061
41	0x3f9e70a9	1.2378131
42	0x3f48fa38	0.78506804
43	0x3ef592c9	0.4796355
44	0x3f4b7278	0.7947154
45	0xbe9dc2bb	-0.3081263
46	0xbfcaa479	-1.5831443
47	0xbf167737	-0.5877566
48	0xbde2bd99	-0.11071319
49	0xbf7ab990	-0.97939396
50	0x3ec4526e	0.3834414
51	0xbf7f63e1	-0.9976178
52	0xbebfa957	-0.37433884
53	0xbeb7867b	-0.35844788
54	0xbdf12494	-0.11774555
55	0xbe74a3e0	-0.23890638
56	0xbce1dd6d	-0.027571404
57	0xbf3a6d6f	-0.7282323
58	0xbe9c07ed	-0.30474797
59	0x3f2c1dd3	0.6723301
60	0x3f0fd345	0.56181747
61	0x3f2e7af8	0.68156385
62	0x3f194b2b	0.5988032
63	0xbcd8438a	-0.026399393
64	0x3ec754ef	0.38931987
65	0xbe3c8ff3	-0.18414287
66	0xbe4c237d	-0.19935413
67	0x3f109c2d	0.56488305
68	0x3f5384f4	0.82624745
69	0x3f625370	0.88408566
70	0x3f58921e	0.8459796
71	0x3f716d94	0.9430783
72	0x3efaf755	0.49016824
73	0xbe21a152	-0.15784195
74	0x3e82a332	0.25515133
75	0xbd398a9f	-0.045298215
76	0xbde16047	-0.110046916
77	0x3fa7d2ce	1.3111207
78	0x3e17cc00	0.14823914
79	0x3f12d338	0.57353544
80	0x3f35bf71	0.7099524
81	0xbbca3c02	-0.0061717043
82	0x3ecc6c5f	0.3992643
83	0xbd69abb4	-0.057048514
84	0xbeb6b61f	-0.35685822
85	0x3f07d186	0.5305408
86	0x3f631c1f	0.88714784
87	0x3f6ac7e4	0.9171126
88	0x3f459f0a	0.771958
89	0x3f6e08f9	0.9298244
90	0xbe0fa9cb	-0.14029615
91	0xbdd73065	-0.105072774
92	0x3de36cef	0.11104762
93	0xbf4e72d7	-0.8064398
94	0xbedb81c2	-0.42872435
95	0x3f116b0a	0.56803954
96	0x3f1ef038	0.62085295
97	0x3f336d9c	0.70089126
98	0x3f2fa29c	0.686075
99	0x3ef61df6	0.48069733
100	0xbe2cab09	-0.1686212
101	0x3e14dacd	0.14536591
102	0xbbafb784	-0.005362453
103	0xbddece07	-0.1087914
104	0x3fa84fd9	1.3149368
105	0x3f2f010c	0.6836097
106	0x3ee880c5	0.45410743
107	0x3f1bb16f	0.6081762
108	0xbf844c2d	-1.0335747
109	0xbeaae54c	-0.33378065
110	0xc00680d3	-2.1016128
111	0x3f8196d7	1.0124158
112	0x3effcbc3	0.49960145
113	0x3fc76105	1.5576483
114	0xbfa23b98	-1.2674437
115	0xbe91a6b3	-0.28447494
116	0x3ea983b5	0.33108297
117	0x3f03df85	0.5151294
118	0xbe076e14	-0.13225585
119	0x3f01fa8c	0.5077293
120	0xbe80a4b9	-0.25125673
121	0x3d9c9c3f	0.07646989
122	0x3f8b8dec	1.0902686
123	0x3f3bf86d	0.7342594
124	0x3f05763e	0.5213355
125	0x3f47d0b2	0.7805282
126	0x3f22385f	0.63367265
127	0xbfd53c45	-1.6659018
128	0x3e95c0d7	0.29248688
129	0xbf728ccd	-0.94746095
130	0xbe3c4831	-0.18386914
131	0xbe1b16e6	-0.15145454
132	0xbf92cfa4	-1.1469617
133	0xbf5bc9a1	-0.85854536
134	0xbe38a6fb	-0.18032448
135	0xbd5b135f	-0.05348527
136	0xbdae8349	-0.085211344
137	0xbb1122a1	-0.0022145885
138	0xbf470248	-0.77737856
139	0xbf00c106	-0.5029453
140	0x3f19cd98	0.60079336
141	0x3f18139c	0.5940492
142	0x3f26f157	0.65212005
143	0x3f2506bb	0.64463395
144	0x3de73a71	0.11290444
145	0xbe07185f	-0.1319289
146	0x3e8bbc22	0.2729197
147	0xbf801384	-1.0005956
148	0xbf1b6e56	-0.60715234
149	0x3f384f2f	0.71995825
150	0x3ec17fe9	0.377929
151	0x3edd68f4	0.43244135
152	0x3ee54b18	0.44783854
153	0x3eb13e40	0.34617805
154	0xbfa71458	-1.3053083
155	0x3d703cdc	0.05865179
156	0xbf5f5ecc	-0.87254024
157	0xbed422c7	-0.41432783
158	0xbf2030f4	-0.62574697
159	0xbeea650c	-0.45780218
160	0xbfb739c4	-1.4314504
161	0xbf277452	-0.65411866
162	0x3e9f3e34	0.31102145
163	0xbe377661	-0.17916252
164	0x3e7f8118	0.24951589
165	0x3b6365d1	0.0034698138
166	0xbe1064ef	-0.14101003
167	0x3fabaca4	1.3412061
168	0x3f364420	0.711977
169	0x3ec1e2f8	0.37868476
170	0x3f1bfec5	0.6093562
171	0x3ecdd1bb	0.40199074
172	0xbe20b517	-0.1569408
173	0x3eacd92f	0.33759448
174	0xbe7a3268	-0.24433291
175	0xbd94f2a4	-0.072728425
176	0x3fa50380	1.2891693
177	0x3f2a5ebe	0.66550815
178	0x3eba3ebf	0.36375996
179	0x3f2cce33	0.67502135
180	0xbdbce542	-0.09223415
181	0xbe61f205	-0.2206498
182	0x3d25baec	0.040461466
183	0xbf592422	-0.8482076
184	0xbea7cc16	-0.32772893
185	0x3f2c5678	0.6731944
186	0x3f1b59ee	0.60684097
187	0x3f32fe8b	0.6991965
188	0x3f333443	0.7000162
189	0xbd94cb91	-0.0726539
190	0xbe434eae	-0.19072983
191	0x3db73c77	0.0894708
192	0xbf5113bb	-0.8167073
193	0xbec5b978	-0.38618064
194	0x3f3fe884	0.74964166
195	0x3f05ef32	0.5231811
196	0x3f03ac8f	0.5143518
197	0x3f51b3c2	0.81914914
198	0xbd4d1868	-0.050072104
199	0xbe7502cf	-0.23926853
200	0x3dbf145f	0.09330057
201	0xbf40add1	-0.7526522
202	0xbe928908	-0.28620172
203	0x3f03c2e7	0.5146927
204	0x3f0cf673	0.5506355
205	0x3f1d5930	0.61464214
206	0x3f1b005c	0.60547423
207	0xbec69618	-0.38786387
208	0xbfe89677	-1.8170918
209	0xbf22113f	-0.63307565
210	0x3d81740e	0.06320964
211	0xbf8536b2	-1.0407317
212	0x3eca4575	0.39506117
213	0xbf806c32	-1.0033019
214	0xbeb045e7	-0.3442833
215	0xbf75424e	-0.958043
216	0x3f5abbfe	0.85443103
217	0x3f567283	0.8376848
218	0x408b1504	4.3463154
219	0xbf2ed8b8	-0.68299437
220	0x3f32bf83	0.69823474
221	0x3e31c54d	0.1736042
222	0x3f90dbb4	1.1317048
223	0xbdea59b6	-0.11442892
224	0x3f35da32	0.71036065
225	0x3f02e3b8	0.5112872
226	0xbe7ad176	-0.24493966
227	0x3e8ff0c6	0.28113383
228	0xbe32b8c9	-0.17453302
229	0xbdfc58da	-0.123216346
230	0x3fa8ce43	1.3187946
231	0x3f32ef76	0.6989664
232	0x3ed22df2	0.41050678
233	0x3f144954	0.5792439
234	0x3efe6775	0.49688306
235	0xbe3ea8f4	-0.18619138
236	0x3e6ef3cc	0.23335189
237	0xbde83cd4	-0.11339727
238	0xbe5427d3	-0.20718317
239	0x3fac3935	1.3454958
240	0x3f11168e	0.5667504
241	0x3ee42ddc	0.44566238
242	0x3f1d1672	0.61362374
243	0xbd99f9b3	-0.075183295
244	0xbe0bcebb	-0.1365308
245	0x3d1270ef	0.035752233
246	0xbf59cc54	-0.85077405
247	0xbec152fe	-0.3775863
248	0x3f4194e1	0.75617796
249	0x3f14bcad	0.58100396
250	0x3f0baae0	0.5455761
251	0x3f0d93e0	0.55303764
252	0x3edbe38e	0.42947048
253	0xbe671f37	-0.22570501
254	0x3e4dd702	0.2010155
255	0xbe3eb60d	-0.18624134

bias f4 [500]
0	0xbd98570a	-0.074384764
1	0x3ee1e492	0.44119698
2	0xbdb89d64	-0.09014395
3	0x3f242e2b	0.64132947
4	0x3f38effd	0.72241193
5	0xbf7416f9	-0.95347553
6	0x3f2028c8	0.6256223
7	0x3f5f01e2	0.8711225
8	0x3f18007d	0.59375745
9	0x3f632c36	0.88739336
10	0x3f329f54	0.69774365
11	0x3f218043	0.63086337
12	0xbf162457	-0.586492
13	0x3f48a055	0.7836965
14	0xbf603718	-0.87584066
15	0x3f361ecb	0.71140736
16	0x3ed122f3	0.40846977
17	0xbf94b98c	-1.1619124
18	0x3f2307ea	0.6368395
19	0x3f27dcb4	0.6557114
20	0x3f294240	0.66116714
21	0x3f25763c	0.64633536
22	0x3f274579	0.6534038
23	0xbf8bc2ef	-1.0918864
24	0x3e59218e	0.21204206
25	0x3f2976c0	0.66196823
26	0x3f1c4101	0.6103669
27	0x3f156313	0.583543
28	0x3f115955	0.56776935
29	0xbf2687f9	-0.6505123
30	0x3f27ee04	0.6559756
31	0x3f351579	0.7073589
32	0x3f32c44e	0.6983079
33	0x3f342b21	0.7037831
34	0xbe6c5681	-0.23079874
35	0x3f56077e	0.8360518
36	0x3f131674	0.57456136
37	0x3f35582b	0.7083766
38	0x3f593272	0.848426
39	0x3f2a9cd5	0.66645557
40	0x3fc8e9dc	1.5696368
41	0x3f30cd8e	0.6906365
42	0x3f1c7f61	0.61131865
43	0x3f270256	0.6523794
44	0x3e048704	0.1294213
45	0xbd847e34	-0.06469384
46	0xbd4a9b17	-0.04946431
47	0xbd815e6c	-0.06316838
48	0x3f20fa0a	0.6288153
49	0xbdb48612	-0.088146344
50	0x3f569aa8	0.83829737
51	0x3f52199b	0.8207032
52	0x3f0e1cce	0.555127
53	0x3f2fb29a	0.686319
54	0x3f5f2a86	0.8717426
55	0x3f2c59dd	0.6732462
56	0x3f53dd75	0.8275979
57	0xbf9052c9	-1.1275264
58	0x3f33a217	0.70169204
59	0x3f3849a5	0.7198737
60	0x3f2e8ce9	0.6818376
61	0x3f100b65	0.56267387
62	0x3f26116c	0.64870334
63	0x3f30c92b	0.6905696
64	0x3f54414f	0.82912153
65	0x3f2ecd3e	0.68281925
66	0x3f2ebb4c	0.6825454
67	0x3f63e684	0.89023614
68	0xbd34cb45	-0.044139165
69	0xbd86d447	-0.065834574
70	0xbd917081	-0.071015365
71	0xbf932da4	-1.1498303
72	0x3f4a9e87	0.79148144
73	0x3f071ebf	0.5278129
74	0xbda304ba	-0.07959886
75	0xbd124938	-0.035714358
76	0x3f2d9899	0.6781097
77	0xbda25ec4	-0.07928231
78	0xbd8b2a03	-0.067951225
79	0xbd4d8d6c	-0.0501837
80	0x3f2a63bc	0.6655843
81	0x3f638b32	0.8888427
82	0xbf8c285b	-1.0949816
83	0xbf90253f	-1.1261367
84	0xbd9f6e47	-0.077847056
85	0x3f5bc02f	0.85840124
86	0x3f5b5f3f	0.8569221
87	0x3f2a3486	0.66486394
88	0x3f20b21d	0.6277178
89	0x3f0d6f5d	0.5524805
90	0x3f1b6d1b	0.60713357
91	0x3f20b681	0.6277848
92	0x3f277e9e	0.6542758
93	0x3f1894a7	0.59601825
94	0x3f3880ad	0.72071344
95	0x3f34dad1	0.7064639
96	0x3e1bbd01	0.15208818
97	0x3f4b69e1	0.79458433
98	0x3f21c2b6	0.6318773
99	0x3f64059f	0.8907108
100	0xbd2d0048	-0.042236596
101	0xbd83d12c	-0.06436381
102	0x3f4c9b10	0.79924107
103	0x3f64f2b9	0.89432865
104	0xbd542796	-0.051795565
105	0x3f298717	0.66221756
106	0x3f2992c7	0.6623959
107	0x3f2637cd	0.64928895
108	0x3f1cc7b6	0.61242235
109	0x3f67643c	0.9038732
110	0xbd972b4d	-0.07381306
111	0xbda0036b	-0.07813152
112	0x3f481aa2	0.7816564
113	0x3f24e85a	0.6441704
114	0xbd8ae722	-0.06782366
115	0xbf548c98	-0.8302703
116	0xbdc6549d	-0.096841075
117	0x3f2bb388	0.6707082
118	0x3f3a8aca	0.72868025
119	0x3e3bfa9c	0.18357319
120	0x3f1aec8a	0.6051718
121	0xbf91dc9a	-1.1395447
122	0x3f48b843	0.7840616
123	0x3f2c355b	0.67268914
124	0x3f5a5ac6	0.8529476
125	0x3f21ed47	0.6325268
126	0x3f30f88d	0.6912926
127	0x3f31ccd7	0.69453186
128	0xbf76a6b1	-0.963481
129	0x3f5d0386	0.863335
130	0x3f23539c	0.6379945
131	0x3f395c27	0.7240624
132	0x3f4c8558	0.79890966
133	0xbd88c42c	-0.06678042
134	0xbf8ec264	-1.1153073
135	0x3f28ac72	0.6588813
136	0x3f2951f9	0.66140705
137	0xbf80473e	-1.0021741
138	0x3f24f411	0.64434916
139	0x3f38513f	0.7199897
140	0x3f28445d	0.65729314
141	0x3f365686	0.71225774
142	0xbf83a205	-1.028382
143	0xbd6ea717	-0.058264818
144	0xbd887ac9	-0.066640444
145	0x3f230593	0.6368038
146	0xbd85cc6a	-0.065331295
147	0x3f1e12f7	0.6174769
148	0x3f141f73	0.5786049
149	0x3f29b59c	0.6629274
150	0x3f21a6a0	0.63144875
151	0xbf97afd7	-1.1850537
152	0xbd83fd42	-0.064447895
153	0x3f341a71	0.70352846
154	0xbfc5ff48	-1.5468531
155	0x3f23ba9d	0.63956624
156	0x3f2cfbed	0.6757191
157	0x3f3044e3	0.6885511
158	0x3f5b785d	0.85730535
159	0x402ee6bd	2.7328331
160	0xbd90a072	-0.070618525
161	0xbd8a220c	-0.06744775
162	0x3f1f7d73	0.62300795
163	0x3f5f97d3	0.8734104
164	0x3f37f927	0.7186455
165	0x3f23fe36	0.6405977
166	0xbd578106	-0.05261328
167	0x3f22349c	0.63361526
168	0x3f15ffeb	0.58593625
169	0x3f709abc	0.93986106
170	0x3f20f6da	0.62876666
171	0x3f2a0f09	0.6642919
172	0x3f298204	0.66214013
173	0x3f2a2b6c	0.66472507
174	0xbda0d3a2	-0.07852866
175	0x3f56b50d	0.8387001
176	0x3f1e64a7	0.61872333
177	0x3f35c972	0.71010506
178	0x3f2d406f	0.6767644
179	0x3f572672	0.8404304
180	0x3f26aaaa	0.6510416
181	0x3f663db4	0.899379
182	0x3f2d88d4	0.6778691
183	0x3f5a0f67	0.8517975
184	0xbf2e10a9	-0.6799417
185	0xbd9026c1	-0.07038642
186	0xbda0b3c7	-0.0784679
187	0x3f351cd0	0.7074709
188	0xbd75e8dc	-0.060036525
189	0xbdb4aacf	-0.08821642
190	0x3f37bc6e	0.71771896
191	0xbd2ce728	-0.042212635
192	0xbd804d89	-0.06264789
193	0xbd971702	-0.07377435
194	0x3f2e7087	0.68140453
195	0x3f46b79d	0.7762392
196	0x3f2a6bb4	0.6657059
197	0xbda15463	-0.078774236
198	0x3f20bb35	0.62785655
199	0x3f4d0806	0.8009037
200	0x3f21282f	0.6295194
201	0x3f2d1129	0.6760431
202	0x3f2731d1	0.6531039
203	0xbda3d341	-0.07999278
204	0x3f1e309d	0.6179293
205	0xbd101446	-0.035175584
206	0x3f332e7b	0.699928
207	0x3f33f957	0.7030234
208	0xbda7eb4b	-0.081991754
209	0x3f4f8cd3	0.81074256
210	0x3f6a0c79	0.9142528
211	0x3f214b5b	0.6300561
212	0x3f08b389	0.5339895
213	0x3f2f2886	0.6842121
214	0x3f33e4ed	0.7027119
215	0x3eef06bf	0.46684834
216	0x3f531a2c	0.8246181
217	0x3f1cfdbf	0.61324686
218	0x3f1eb8a1	0.6200047
219	0x3f1c0bc4	0.6095545
220	0x3f387451	0.72052485
221	0x3f292723	0.6607534
222	0x3f0c7c7e	0.5487746
223	0x3f21c5fc	0.63192725
224	0x3f30b46e	0.69025314
225	0x3f56c04b	0.83887166
226	0x3f830c22	1.0238078
227	0xbd525824	-0.05135359
228	0xbf9b7a7f	-1.2146758
229	0x3f3294a2	0.69758046
230	0x3f23d648	0.6399884
231	0x3f28290f	0.6568765
232	0xbd886e38	-0.066616476
233	0x3f5c3562	0.86018956
234	0x3f32c630	0.6983366
235	0x3f3077b0	0.6893263
236	0x3f275e9a	0.65378726
237	0x3f4e943b	0.8069493
238	0x3f2b64f1	0.669509
239	0x3f269568	0.65071726
240	0x3f1c76cf	0.6111879
241	0x3f193286	0.5984272
242	0x3f17a63f	0.59238046
243	0x3f5dfa28	0.86709833
244	0xbdae9b5c	-0.08525726
245	0x3f193643	0.5984842
246	0xbd984178	-0.07434362
247	0x3f2ef63b	0.6834447
248	0xbd9cee9d	-0.07662699
249	0xbd999d3f	-0.075006954
250	0xbd66bb7a	-0.056331135
251	0x3f2913f2	0.6604606
252	0x3f195e4e	0.5990952
253	0x3f244cb5	0.64179546
254	0xbd3bfb49	-0.04589394
255	0x3f26a8c9	0.65101296

weight f4 [1, 500]
0	0xbbba461e	-0.005684628
1	0x3f8bb10f	1.0913409
2	0x3cbb74a3	0.022882765
3	0x3f72de89	0.9487081
4	0x3f26d55d	0.65169317
5	0xbfc80e53	-1.5629371
6	0x3f66ad54	0.9010823
7	0x3f4ae829	0.792605
8	0x3f3b6424	0.7319968
9	0x3f4e59c7	0.8060574
10	0x3f4d760d	0.80258256
11	0x3f367f6e	0.7128819
12	0xc0b11562	-5.53386
13	0x3f531f55	0.82469684
14	0xbfce4a47	-1.6116418
15	0x3f4a5931	0.79042345
16	0x3fbb4a0f	1.4631976
17	0xbf98cc24	-1.1937299
18	0x3f41ee81	0.75754553
19	0x3f3381a1	0.70119673
20	0x3f5ee57c	0.87068915
21	0x3f7efcb3	0.9960434
22	0x3f605f4a	0.876454
23	0xbfdcb054	-1.7241311
24	0x40109984	2.2593699
25	0x3f3c28a4	0.7349951
26	0x3f49b0aa	0.7878519
27	0x3f7b87b0	0.9825392
28	0x3f3d6007	0.7397465
29	0xc0bcf98e	-5.905463
30	0x3f2f4b79	0.6847454
31	0x3f40c689	0.7530294
32	0x3f4acd66	0.79219663
33	0x3f2dc9e1	0.6788617
34	0xc0eda8e3	-7.426866
35	0x3f43d394	0.7649472
36	0x3f7b1e59	0.9809318
37	0x3f44bf01	0.7685395
38	0x3f46771d	0.775255
39	0x3f559378	0.83428144
40	0x403a4ad0	2.9108162
41	0x3f310989	0.69155174
42	0x3f2cbebb	0.6747853
43	0x3f5fbd3c	0.87398124
44	0x400898c0	2.1343231
45	0xbc868df2	-0.016425107
46	0x3b179116	0.002312725
47	0xbc58683e	-0.013208447
48	0x3f57ef4a	0.843495
49	0xbcd08adc	-0.025456838
50	0x3f2f675c	0.6851709
51	0x3f4adf00	0.7924652
52	0x3f82b32c	1.0210929
53	0x3f2e20c0	0.6801872
54	0x3f50de46	0.8158916
55	0x3f4a8a40	0.791172
56	0x3f6544c4	0.89558053
57	0xbfe63bb5	-1.7986971
58	0x3f3812e8	0.7190385
59	0x3f4f473c	0.8096807
60	0x3f5524bd	0.83259183
61	0x3f800228	1.0000658
62	0x3f6df9df	0.929594
63	0x3f403859	0.7508598
64	0x3f450937	0.76967186
65	0x3f4f9da5	0.8109992
66	0x3f3ad3d2	0.7297946
67	0x3f36c02b	0.71386975
68	0xbd274dfe	-0.040845864
69	0xb90ac707	-0.00013234849
70	0xb9f5c5d7	-0.00046877444
71	0xbfd4afcc	-1.6616149
72	0x3f4cb961	0.79970366
73	0x3fbbb26c	1.4663825
74	0x3c25cc8d	0.0101195695
75	0x3bebcdd3	0.007196167
76	0x3f5704e3	0.8399183
77	0x3c408a3e	0.0117517095
78	0xbd0a30a1	-0.033737782
79	0xbd0ebcae	-0.034847908
80	0x3f27a59d	0.6548708
81	0x3f4e4200	0.8056946
82	0xbfdc67c4	-1.7219167
83	0xbfddb738	-1.7321539
84	0xbcc202cd	-0.023682976
85	0x3f3e6ab7	0.74381584
86	0x3f40021e	0.7500323
87	0x3f2438bc	0.6414907
88	0x3f6214c9	0.88312966
89	0x3f8416b1	1.0319425
90	0x3f2f3109	0.68434197
91	0x3f33b775	0.7020181
92	0x3f5de665	0.8667968
93	0x3f78d0a5	0.97193366
94	0x3f318f2a	0.69359076
95	0x3f4f29fe	0.8092345
96	0x400db791	2.214329
97	0x3f6c7d8e	0.9237908
98	0x3f60b96f	0.8778295
99	0x3f46af6e	0.77611434
100	0xbd1e2dcc	-0.038617894
101	0xbcd3d0be	-0.025856372
102	0x3f53133a	0.8245121
103	0x3f392107	0.7231602
104	0xbbb1c314	-0.0054248665
105	0x3f651ca7	0.89496845
106	0x3f33ffd7	0.70312256
107	0x3f368ce5	0.7130874
108	0x3f2d8a44	0.677891
109	0x3f3bf25f	0.73416704
110	0xba0c83ce	-0.00053602166
111	0xbc816635	-0.015795806
112	0x3f64957a	0.89290583
113	0x3f307b72	0.6893836
114	0xbc869110	-0.016426593
115	0x4080530d	4.010138
116	0xbcb18913	-0.021671807
117	0x3f538a2a	0.82632697
118	0x3f344120	0.7041187
119	0x400f6611	2.2406046
120	0x3f30c582	0.69051373
121	0xc041d438	-3.0285778
122	0x3f384c1b	0.7199113
123	0x3f2bbf67	0.6708893
124	0x3f3b83d6	0.7324804
125	0x3f66b496	0.901193
126	0x3f1d3419	0.6140762
127	0x3f46367d	0.7742689
128	0xbfddaf6e	-1.7319162
129	0x3f548e3c	0.8302953
130	0x3f4153f4	0.7551873
131	0x3f404806	0.751099
132	0x3f5c7c80	0.8612747
133	0xbc52eb0f	-0.012873425
134	0xbfc8e30e	-1.5694292
135	0x3f3216b5	0.695659
136	0x3f387eed	0.72068673
137	0xbfd423ba	-1.6573403
138	0x3f2ef60b	0.6834418
139	0x3f432b32	0.76237786
140	0x3f20e252	0.6284534
141	0x3f414211	0.75491434
142	0xbfce46dd	-1.6115376
143	0xbc134825	-0.008989369
144	0xbcb4fa49	-0.022092002
145	0x3f3d5fc9	0.7397428
146	0x3b9b9f3d	0.0047492073
147	0x3f4f6c41	0.8102456
148	0x3f80b481	1.0055085
149	0x3f333c2c	0.7001369
150	0x3f576918	0.84144735
151	0xbfce27e1	-1.610592
152	0xbd543fec	-0.051818773
153	0x3f48bf86	0.7841724
154	0xbfff0375	-1.992293
155	0x3f377f2c	0.71678424
156	0x3f5fe241	0.8745461
157	0x3f430b67	0.76189274
158	0x3f3f6717	0.7476668
159	0x40930e41	4.59549
160	0xbd25f5f4	-0.040517762
161	0x3cba8a35	0.02277098
162	0x3f46edf3	0.7770683
163	0x3f4b8add	0.79508764
164	0x3f3abe91	0.7294703
165	0x3f57fa16	0.84365976
166	0xbaab4471	-0.0013066662
167	0x3f4833ad	0.7820385
168	0x3f80cd55	1.0062662
169	0x3f8ac0eb	1.0840124
170	0x3f5f0a7d	0.8712538
171	0x3f5c8f0f	0.8615579
172	0x3f620666	0.88291013
173	0x3f4e590a	0.8060461
174	0x3c6dfaa9	0.014525094
175	0x3f3b2752	0.73106873
176	0x3f79f1f7	0.97634834
177	0x3f3338eb	0.70008725
178	0x3f34880f	0.7052011
179	0x3f3b43f3	0.7315056
180	0x3f56b14c	0.83864284
181	0x3f4bab11	0.795579
182	0x3f47e837	0.78088707
183	0x3f47188f	0.7777185
184	0xc0868c26	-4.204608
185	0xba8fbc0c	-0.0010966077
186	0xbc036e35	-0.008021881
187	0x3f5439a6	0.82900465
188	0xbb2b5793	-0.0026144728
189	0xbb0077dc	-0.0019602692
190	0x3f3e83de	0.74419963
191	0xbd3418ef	-0.04396909
192	0x3bb8e179	0.005642113
193	0x3c25bd43	0.010115924
194	0x3f3302fd	0.69926435
195	0x3f4a25f9	0.7896419
196	0x3f674edc	0.90354705
197	0x3ca079b2	0.019589279
198	0x3f3e4db6	0.7433733
199	0x3f5e3dd5	0.868131
200	0x3f5a55bd	0.85287076
201	0x3f4ea2bd	0.8071707
202	0x3f3aad24	0.7292044
203	0xb96477bd	-0.0002178838
204	0x3f674133	0.9033386
205	0xbc4750c9	-0.012165257
206	0x3f3fa3ef	0.7485952
207	0x3f350866	0.7071594
208	0xbd13ecc7	-0.03611448
209	0x3f3209ce	0.6954621
210	0x3f480617	0.7813429
211	0x3f7f87ed	0.9981678
212	0x3f84f7a5	1.0388075
213	0x3f48ea17	0.7848219
214	0x3f41c061	0.7568417
215	0x3f933c21	1.1502725
216	0x3f60e3a0	0.8784733
217	0x3f69dc1b	0.9135148
218	0x3f6d3f64	0.9267485
219	0x3f6693ba	0.9006916
220	0x3f3a715f	0.7282924
221	0x3f5ec06e	0.87012374
222	0x3f7e4672	0.9932624
223	0x3f352382	0.70757306
224	0x3f361ef3	0.71140975
225	0x3f3dbc2e	0.74115264
226	0x3f809d5b	1.0048021
227	0xbd6a36b6	-0.057181083
228	0xbfdfcea4	-1.7484937
229	0x3f4c6a03	0.7984926
230	0x3f5237d4	0.82116437
231	0x3f329087	0.6975178
232	0x3c3c0603	0.011476043
233	0x3f385bf9	0.7201534
234	0x3f46b86b	0.7762515
235	0x3f418238	0.75589323
236	0x3f6b1b46	0.9183849
237	0x3f8013a2	1.0005991
238	0x3f61a4aa	0.8814188
239	0x3f5cb4eb	0.8621356
240	0x3f2a3b90	0.66497135
241	0x3f41c74c	0.7569473
242	0x3f789f56	0.9711813
243	0x3f4b192a	0.7933527
244	0xbcc036c8	-0.023463622
245	0x3f6f6d82	0.9352647
246	0xbd2a4b72	-0.041575857
247	0x3f5b5367	0.85674137
248	0xbcc4dbdc	-0.024030618
249	0x3cb4c948	0.022068635
250	0xbcec9d44	-0.028883584
251	0x3f645523	0.8919241
252	0x3f8a3596	1.0797603
253	0x3f5468d4	0.82972455
254	0xbbfd9e4a	-0.007739817
255	0x3f6b1068	0.9182191
