experiments/neural_networks/mlartifacts/954866327486404750/models/m-c59429ee6d9f47d792cdd8acd8ed032c/artifacts/data/model.pth (torch, 5705 bytes, 3 tensors)

weight f4 [9, 9]
-2.2233324 -0.9445817 0.72395676 -1.4246925 1.0820236 2.2196343 4.293714 5.31438
4.611064 -0.86470914 0.46924835 1.5402814 0.032333534 1.0326582 2.3998475 4.8358183
5.885341 4.7879424 -0.0767174 -0.16654186 0.17795105 -0.035192527 0.14177684 -0.20794514
-0.5550954 -0.47610894 -0.3180267 -0.55929637 0.6025564 1.4076743 0.62406886 1.8446649
2.4018087 5.00766 5.0679965 5.11512 -2.0767963 -1.4767805 1.0673977 -0.93827313
1.370498 2.1737905 5.1298246 5.195312 4.9557514 4.4042807 3.0484009 4.9505486
2.1649494 2.0822017 1.9736552 4.781512 -0.99597293 3.8197632 0.7285103 -0.088769756
2.0078063 0.4820556 1.9755483 2.5725086 5.5478144 5.6274543 5.4894466 -0.42631203
0.2746189 -0.037427787 -0.22733456 0.4934289 0.13197443 -0.3194343 -0.29221943 -0.13947466
-1.299482 -1.0728105 0.48943996 -1.0344247 0.6687979 2.7829041 5.506769 5.411608
5.4384675
00000000: 144b 0ec0 1bd0 71bf 3b55 393f 535c b6bf
00000010: c07f 8a3f 7d0e 0e40 1b66 8940 670f aa40
00000020: d68d 9340 945d 5dbf 5241 f03e f127 c53f
00000030: 2b70 043d 252e 843f 1a97 1940 06bf 9a40
00000040: b754 bc40 d336 9940 031e 9dbd f389 2abe
00000050: cd38 363e 0a26 10bd f32d 113e 92ef 54be
00000060: bb1a 0ebf 8dc4 f3be 65d4 a2be 0c2e 0fbf
00000070: 2341 1a3f ac2e b43f fac2 1f3f fb1d ec3f
00000080: 3cb7 1940 c03e a040 072d a240 10af a340
00000090: 3bea 04c0 2507 bdbf 7da0 883f ab32 70bf
000000a0: 7a6c af3f 621f 0b40 8627 a440 ff3f a640
000000b0: 8495 9e40 deef 8c40 0019 4340 e56a 9e40
000000c0: 888e 0a40 cb42 0540 bca0 fc3f 2502 9940
000000d0: 15f8 7ebf 0077 7440 a77f 3a3f ebcc b5bd
000000e0: e67f 0040 fecf f63e c4de fc3f fba3 2440
000000f0: b287 b140 1b14 b440 8ca9 af40 9245 dabe
00000100: d99a 8c3e e14d 19bd 64ca 68be b6a2 fc3e
00000110: 4e24 073e e48c a3be c99d 95be 72d2 0ebe
00000120: 6d55 a6bf db51 89bf e097 fa3e 0768 84bf
00000130: 5736 2b3f 1a1b 3240 7437 b040 e52b ad40
00000140: ed07 ae40

bias f4 [9]
5.888826 6.0560436 -0.15072575 5.7357516 5.7981467 2.508738 6.050618 -0.10190292
6.14358
00000000: 4371 bc40 1ccb c140 da57 1abe 478b b740
00000010: 6b8a b940 2a8f 2040 aa9e c140 7ab2 d0bd
00000020: 3598 c440

weight f4 [1, 9]
5.8448315 5.6703196 -0.14575563 5.979801 5.674433 3.5544937 5.824247 -0.11133798
5.4919276
00000000: dc08 bb40 4273 b540 f740 15be 885a bf40
00000010: f594 b540 d37c 6340 3b60 ba40 2b05 e4bd
00000020: dfbd af40
