experiments/neural_networks/mlartifacts/730589028942085756/models/m-0d2afff609934f889d11c740799665b1/artifacts/data/model.pth (torch, 6845 bytes, 5 tensors)

weight f4 [8, 8]
0	0xbedc7245	-0.4305593
1	0x3f1621c3	0.58645266
2	0xbed79523	-0.4210597
3	0x3eb5d359	0.35512808
4	0x3e7b197d	0.24521442
5	0x3e6a9c23	0.22911124
6	0xbea982e7	-0.33107683
7	0x3f1611d5	0.5862096
8	0x3e240e40	0.16021061
9	0x3dd7ea33	0.10542717
10	0xbf035898	-0.5130706
11	0x3e914351	0.2837167
12	0xbd9fdeca	-0.078061655
13	0xbe8fa34b	-0.2805427
14	0x3f0a2011	0.5395518
15	0x3e29511b	0.16534846
16	0xbea019d3	-0.31269702
17	0xbe908e07	-0.28233358
18	0xbb0bbd99	-0.0021322726
19	0x3ebd0b34	0.3692261
20	0xbe3bae6e	-0.18328258
21	0xbebf7c8a	-0.37399703
22	0xbe6d9b97	-0.23203884
23	0xbef8aa9a	-0.4856766
24	0x3e414f41	0.18877889
25	0x3ee37331	0.44423822
26	0xbf1b324a	-0.6062361
27	0x3de6756e	0.11252867
28	0x3e92bb61	0.28658584
29	0x3da5ff52	0.08105339
30	0xbe7de197	-0.24793087
31	0x3e9478df	0.28998467
32	0x3eb3e285	0.35133758
33	0x3e8467e4	0.25860512
34	0xbd9fd80e	-0.07804881
35	0xbe07e67d	-0.13271518
36	0x3db216b7	0.08695739
37	0xbd9ffeee	-0.07812296
38	0xbe1c7527	-0.15279065
39	0x3ed6c784	0.41949093
40	0x3f0e24cd	0.55524904
41	0xbd0002f2	-0.03125281
42	0xbddc03a4	-0.10742882
43	0x3d1cb3f2	0.038257547
44	0xbc088032	-0.008331345
45	0x3e35a04c	0.1773693
46	0x3e4e7f5c	0.20165771
47	0xbf0a8de8	-0.5412278
48	0xbe828dac	-0.25498712
49	0x3ef92c10	0.4866643
50	0x3e567ef9	0.20946874
51	0xbd742f39	-0.059615348
52	0xbebd0829	-0.36920288
53	0xbeced9b8	-0.4040048
54	0xbf136b1a	-0.575853
55	0xbe67464c	-0.2258541
56	0x3e37dbda	0.1795496
57	0x3eb9139d	0.36147776
58	0x3e81aa15	0.25325075
59	0xbf11f347	-0.57011837
60	0xbebc8c4a	-0.36825782
61	0xbd96b851	-0.07359374
62	0x3f104c94	0.5636685
63	0x3d809fbe	0.062804684

bias f4 [8]
0	0x3d247f56	0.0401605
1	0x3d1e5f5c	0.03866516
2	0xbc5c94c0	-0.013463199
3	0xbca517bc	-0.020152919
4	0x3d237433	0.039905738
5	0x3d248d13	0.0401736
6	0xbc9de470	-0.019273967
7	0xbc9bc901	-0.019016745

weight f4 [8, 8]
0	0xbe2510de	-0.16119716
1	0x3e64e85e	0.22354266
2	0xbe865559	-0.2623699
3	0xbecc4613	-0.39897212
4	0x3ee38225	0.4443523
5	0xbe8e9096	-0.27844685
6	0xbdfb69c4	-0.122760326
7	0xbf1e561e	-0.61850154
8	0x3ec2dd62	0.38059527
9	0x3ede66a1	0.43437675
10	0x3e488cfd	0.19585033
11	0xbee94d69	-0.45566872
12	0xbf222dc1	-0.63351065
13	0xbf06f0c8	-0.52711153
14	0x3ee167f8	0.44024634
15	0x3e8781bd	0.2646617
16	0x3ef87e3a	0.48533803
17	0x3e94e756	0.29082745
18	0x3e020465	0.12696989
19	0xbd12b0ce	-0.035813145
20	0xbefdd869	-0.4957917
21	0xbf0e0109	-0.5547033
22	0xbf196926	-0.5992607
23	0x3e623fb0	0.22094607
24	0xbe99ef7d	-0.30065528
25	0xbdfc6610	-0.123241544
26	0xbeb470dd	-0.35242358
27	0xbde488a0	-0.11158872
28	0xbedcad3a	-0.4310091
29	0xbeccde55	-0.40013376
30	0x3e500174	0.20313054
31	0xbe3a5cde	-0.18199489
32	0x3eb23cfe	0.34812158
33	0xbe675c72	-0.22593859
34	0xbef17a77	-0.47163746
35	0xbe0cefc2	-0.13763335
36	0xbea74f06	-0.32677478
37	0xbe5e3c1b	-0.21702616
38	0xbf1970b1	-0.5993758
39	0x3ea0764a	0.31340247
40	0xbee9b451	-0.45645383
41	0x3e8e35fd	0.27775565
42	0x3e7f94e8	0.24959147
43	0x3ed115c8	0.4083693
44	0xbefff350	-0.4999032
45	0x3ed2112b	0.41028723
46	0xbea1afdb	-0.3157948
47	0x3e4a1c94	0.19737464
48	0x3f1aeec1	0.6052056
49	0xbd665a76	-0.056238614
50	0x3cb9d0cf	0.022682576
51	0xbde395f4	-0.11112586
52	0xbef65951	-0.48115018
53	0x3ea5e874	0.3240391
54	0xbf149bca	-0.58050215
55	0x3ed1f71f	0.4100885
56	0x3ef9e790	0.4880948
57	0x3f1bfade	0.6092967
58	0xbdee09c2	-0.11622955
59	0xbef280be	-0.47363847
60	0x3e2a69e2	0.16641954
61	0x3ebca653	0.36845645
62	0xbf152462	-0.5825864
63	0xbddef106	-0.10885815

bias f4 [8]
0	0xbc9f2ecc	-0.019431494
1	0xbc9f81cb	-0.01947107
2	0xbca33592	-0.019923005
3	0x3c23d70a	0.01
4	0xbca139c7	-0.01968087
5	0xbca35077	-0.01993583
6	0x3d240f3e	0.0400536
7	0x3d2486e7	0.040167715

weight f4 [1, 8]
0	0xbeebc3a0	-0.46047688
1	0xbd2b58fe	-0.041832916
2	0xbebea39a	-0.37234193
3	0xbeaae23e	-0.33375734
4	0xbe6be095	-0.2303489
5	0xbf3f03d6	-0.7461523
6	0x3f3337ff	0.7000732
7	0x3f36f1e1	0.7146283
