experiments/neural_networks/mlartifacts/408745732833894938/models/m-6aecae4277244d54bc2e1c5fcac4386b/artifacts/data/model.pth (torch, 13029 bytes, 9 tensors)

weight f4 [32, 9]
00000000: e329 16be 24ba a63d d0f8 6bbe abeb 1a3e
00000010: 066c 96be 354f 8e3e 9984 a6bc 5aa8 48be
00000020: d043 d1bf eec2 94be 6de1 47b9 aeae 1940
00000030: 570c 32bf 669f f93d eb28 fb3e 3699 f2bd
00000040: b855 23be ec51 2ebe cca0 d0be 0d7e 96bf
00000050: 6077 b0bf 12a4 fdbf fc4a 82bf 334a 3bc0
00000060: a7e2 2fc0 ea5a e4bf 58eb 28c0 3b6c a0bd
00000070: 3bd1 33bc 767d 0c3f e72a aa3e abda e43d
00000080: 4aa3 063e 0c65 01bf 281f 23bf 33e2 8fbf
00000090: daf6 2bbf df93 18be d19b b33f 690c c7be
000000a0: 736c 583f 42e6 b03f f20f debd 70bc 35be
000000b0: f5db 2ebe 904e 353e fe2e 163e 4c7a 05be
000000c0: 9abb 873c a80b 8bbe 0561 9ebb 22b1 d8be
000000d0: 8b43 64be 6e0b cabe e5cb d8bd 4cf3 1fbe
000000e0: 71d9 0c40 e41d 0fbf 02a0 1e3e 60a9 283f
000000f0: 5783 25be 9626 47be 80ac 8bbe 277a 40bd
00000100: f48c d4be cb94 f93d cda5 693e 1cae 4bbe
00000110: 0da8 a73e 5798 a9bd c484 11be 4964 4fbf
00000120: 39cd 2b3e 737b b0bd 34f4 283f 3faf 1cbf
00000130: 5c34 523d d824 8abe 04db edbe f856 bbbe
00000140: 25f8 c23c dcd1 28be 23ae 113e 600e d83f
00000150: c323 0bbf a7cd 163f ce28 363e 0ece ee3d
00000160: b234 5ebd 5521 aa3e 00ae 3dbe be4f 49be
00000170: 61a7 b33d d0ab bf3d 2c01 613e c16e 0cbe
00000180: a429 91bf e2f9 21be 8b87 763e 2a20 4ebe
00000190: ba4d 16bf a122 883f 2b89 cd3e 2cb2 283f
000001a0: d220 9b3f b694 9f3e cc48 e1bc dee4 923e
000001b0: 5f72 58bf b27c a73e 95f4 283e b079 00be
000001c0: 008f 193f 68b1 6e3e 43f5 dcbc 3508 1cbf
000001d0: f49b a9bc c06e 183e bf27 eabe 7d42 1240
000001e0: 5082 f2be 5f9f 7e3e 2f6d 5b3e b183 dbbe
000001f0: 659a e0be 0b9d e9be 3678 863e 3168 19be
00000200: 8e02 31bc 8aca afbe e93a 9ebe 651c 673e
00000210: de0b 99bf 4877 cebf 72db f2bd 6cbe a7be
00000220: c8c1 26bd b5d2 963e a0d8 d33e 8c0d b3be
00000230: 83e2 2e3f ffea cb3e 50e6 ad3d ccb1 eabf
00000240: 67e6 9cbe b69b 87bf 5b1e 0740 1860 0dc0
00000250: 46d5 09c0 9e5e 4ec0 9c98 b1bf c577 77be
00000260: 5802 24be 74cd a8be 1fbd 4bbe a5c3 513e
00000270: b689 d1bc 0701 2f3d d45f ca3e 3ce3 d3be
00000280: 5b6a 8ebe 6fef f3bd 2bc9 94be e51e 54be
00000290: b1b5 273f 39d9 f9be 1f73 133e 20a1 923e
000002a0: 36d5 edbd a9a7 40bf 8e37 2e3d 32ff 013f
000002b0: 4103 b0be 98e9 1140 3615 0fc0 0eaa febf
000002c0: 4090 7cc0 1b8e 2bbf 4b1c b4bc b291 02c0
000002d0: d9ac 95bf 2184 ff3c 0b19 483d fc1e f83d
000002e0: 88c0 363f 3888 833f 0924 a8bf 53cd 3f3e
000002f0: ab87 bfbe 7189 19bf 5af7 453e 70e5 1440
00000300: 3437 2dbf 2279 3c3f ea96 d03e 40c3 8cbe
00000310: e224 70be 5d6a aebe c82c 8fbe aa5d 483e
00000320: 9091 a4be 01fe 943e d594 d43e 652b 5f3c
00000330: fdbf 603e 6539 bfbe 86f8 90bf 52c2 fc3d
00000340: bfc7 343d 7c92 1140 04db 32bf 9c96 e33c
00000350: 9f7d 4e3e 2bfd d7bd 6313 00be 2d67 60be
00000360: 52a8 82bd 9a74 1dbe 542b 0740 3687 49be
00000370: 4939 a43d 579b 513d 70e6 5dbe 09de 8cbe
00000380: ff80 81be c236 43bc f649 d7be 430a b63f
00000390: 1050 19bf 8288 243f ddca 843f 5261 2d3d
000003a0: a640 44be d5a4 833e 100d 03bf 4724 913d
000003b0: 5cc7 0240 923a 31bf ab0e 8b3e ced5 763f
000003c0: 7806 3cbe f68c 63be 94da 45be 50dc 9f3e
000003d0: b0b0 363f 3ec5 afbf badf b83f 6162 bdbf
000003e0: b9d8 f8bf 0ad6 2e3f 1064 0e3f bf62 323f
000003f0: 7a2c 27be b92f dfbc cdb4 573e fab6 b2be
-0.14664416 0.08140972 -0.23044133 0.15128963 -0.2937929 0.27794805 -0.0203269 -0.19595471
-1.634882 -0.2905497 -0.00019062097 2.4012866 -0.6955008 0.12188606 0.49054655 -0.11845629
-0.15950668 -0.17023438 -0.40747678 -1.1757218 -1.378643 -1.9815695 -1.0179133 -2.9264038
-2.7482088 -1.7840245 -2.6393642 -0.07833143 -0.010975177 0.5487894 0.33235857 0.1117452
0.13148227 -0.5054481 -0.63719416 -1.1240906 -0.6717354 -0.14900158 1.4031926 -0.38876656
0.8454048 1.3820269 -0.10842885 -0.17747664 -0.17076094 0.1770575 0.14666364 -0.13034934
0.016568948 -0.2715733 -0.004833343 -0.42322642 -0.2229139 -0.39461845 -0.10585765 -0.15620154
2.2007716 -0.55904984 0.15490726 0.65883446 -0.16163383 -0.19448313 -0.27280045 -0.046991494
-0.4151379 0.12186583 0.22817154 -0.19890636 0.327454 -0.0828101 -0.14210802 -0.810124
0.16777505 -0.08617296 0.65997624 -0.61204904 0.051319465 -0.26981235 -0.46456158 -0.3658979
0.023799965 -0.16486305 0.14226584 1.6879387 -0.54351443 0.5890755 0.17789003 0.116603956
-0.054249473 0.33228555 -0.18523407 -0.19659325 0.08772159 0.093589425 0.21973103 -0.13714124
-1.1340833 -0.15817979 0.24075143 -0.20129457 -0.5871235 1.0635568 0.40143713 0.6589687
1.2119391 0.31168145 -0.027500533 0.28690237 -0.84549516 0.32712322 0.1649955 -0.1254642
0.59983826 0.23309863 -0.026972419 -0.6095002 -0.020704247 0.14885998 -0.4573345 2.2853081
-0.47365046 0.24865483 0.21428369 -0.4287391 -0.43867794 -0.45627627 0.2626359 -0.14981152
-0.010803832 -0.34334213 -0.3090432 0.22569425 -1.1956747 -1.6130152 -0.11858262 -0.32762468
-0.040712148 0.29457632 0.4137621 -0.34971273 0.6831438 0.39827725 0.08491194 -1.8335509
-0.30644533 -1.0594394 2.1112278 -2.20899 -2.1536422 -3.224525 -1.3874698 -0.24166782
-0.16016519 -0.32969248 -0.19896363 0.20484789 -0.025578361 0.04272559 0.39526236 -0.41384304
-0.27815518 -0.11910903 -0.2905973 -0.2071491 0.65511614 -0.4879854 0.14399384 0.28638554
-0.116129324 -0.7525583 0.04253345 0.5078002 -0.34377483 2.2798824 -2.2356696 -1.9895647
-3.9463043 -0.6701371 -0.021986147 -2.0401425 -1.1693374 0.031190934 0.048852008 0.12115285
0.7138753 1.0275946 -1.3135997 0.18730669 -0.37408194 -0.59975344 0.19332638 2.3265038
-0.6766236 0.73622334 0.40740138 -0.27492714 -0.2345157 -0.34065524 -0.27963853 0.1956698
-0.32142305 0.2910004 0.415198 0.013621186 0.21948238 -0.37348476 -1.1325843 0.12341751
0.044135805 2.2745657 -0.6986544 0.027781777 0.20165108 -0.10546335 -0.12507395 -0.21914358
-0.06379761 -0.15376511 2.1120195 -0.19680485 0.08018739 0.051173534 -0.21669936 -0.2751315
-0.2529373 -0.011914911 -0.42048615 1.4221882 -0.5988779 0.64270794 1.0374409 0.04232914
-0.19165286 0.25711694 -0.51191807 0.070869975 2.043418 -0.69229996 0.27159628 0.9641999
-0.18361843 -0.22221741 -0.19321662 0.31222773 0.71363354 -1.3732069 1.4443276 -1.4795648
-1.9441139 0.6829535 0.55621433 0.69681925 -0.1632556 -0.027244436 0.21065064 -0.34905225

bias f4 [32]
00000000: 07be 8dbf 7758 72bf d19b 7ec0 b1d2 72bf
00000010: 4056 6fbf af8b 40be 4276 70bf 198a 08be
00000020: 0138 73bf 2304 3cbf 02bb 03bf 2646 dabe
00000030: 81b2 94be bbb8 1cbf cdfc c3bf 55e7 a5bf
00000040: 7ffe cebf 0d8b 12bf 90f9 adbe 317b cabf
00000050: 2fba aebf e216 88bf ea7c 52bf 0bcb 72bf
00000060: 2f41 28bf 51fc 14bf 7314 60bf 1b11 023f
00000070: 5e31 07bf aa44 86bf 666f 32be f244 33bf
-1.1073617 -0.94666237 -3.9782603 -0.9485274 -0.9349098 -0.18803285 -0.9393045 -0.1333393
-0.9500733 -0.7344381 -0.51457226 -0.42631644 -0.29042438 -0.61219376 -1.5311524 -1.2961222
-1.6171416 -0.57243425 -0.33979464 -1.5818845 -1.3650569 -1.0631983 -0.82221854 -0.9484107
-0.6572446 -0.58197504 -0.87531203 0.5080735 -0.52809703 -1.0489705 -0.17425308 -0.7002708

weight f4 [16, 32]
00000000: b7b6 263e 827b d63e ff01 05c1 b344 b8bd
00000010: d4f7 f23e cca1 6abd 51d8 a03e 5654 09be
00000020: c773 0e3e 2a3b ab3e 9b3e 8cbd 71e1 3e3e
00000030: a99d 5abe 45ff 8a3e dbee 04bf 3c70 be3d
00000040: 2317 6bbf 5fd1 c0be 4ff9 473e 843d 96bf
00000050: 1708 123e da1f cc3e 5aaf 303f 80ec 023f
00000060: efb8 e03c 6ffa 933e 771b 0f3e d99c 86bf
00000070: 4893 703e 90c9 9f3e 2a71 61be 024c 083e
00000080: 61c1 3fbf 33d6 803e e9fa 60bf 08e9 25bf
00000090: 87f1 873e 3e4c 8a3e eaa5 2b3e 5386 293e
000000a0: 4ef5 41be 1644 5e3e 3fb4 debd e010 253e
000000b0: 68eb 573f 023b e83e ca87 d33f a638 13bf
000000c0: 8ab3 9ebe b3a6 273d 9cad 403d ab21 cdbe
000000d0: a4f2 d63e 7551 d53d 94de c3bd 0250 b33e
000000e0: 2cd2 c43e 5156 0c3f 1692 d63e 2229 23bf
000000f0: 048c 87be 7ed3 1e3e af54 1a3f fb86 9a3e
00000100: 3f86 dfbd 0cbc 183e 5431 c0c0 a5ce ddbd
00000110: 5fae d63d 5149 113f 9ae0 8a3e 0e77 28be
00000120: b0e0 3fbe 3c34 043e 7643 98be 6dcb af3c
00000130: 63c5 08bf 3bec f73d 12fd 493e 2963 953e
00000140: 590f 1cc1 cabd 8a3e 8953 14bf e13c fec0
00000150: 8f7a 97be 200c fb3e 3e01 70bd 885b 923e
00000160: eaa6 aa3e 6e65 c53d e78e af3e a27a 07c0
00000170: f655 fabd cc63 be3e 4b3c 933e bbea b6bc
00000180: a5b8 5bbd 424c 14bf 9653 47be a896 5fbd
00000190: d4c9 70bf 2410 d8be f691 ccbe b134 0bbe
000001a0: 3061 30bd 032b 55bf c704 27be fc36 39bf
000001b0: 84c7 c6ba 45c5 f0be 9cbf 0fbf 127c a6be
000001c0: 2698 77be 927d 13bf 055b d4be a465 b3be
000001d0: 19b7 dcbe 7c89 f4be 3a35 aabe 8c3e f0be
000001e0: c9f7 cabc 8a8a 48bf 23e2 b6be 7d4a 70be
000001f0: 3a63 373d 42e5 82bf 7be0 ed3d 8e44 a1bf
00000200: 1d47 abbf c1b7 e03e 98cc 7dbf eab1 47bf
00000210: d36d 393e 3bcc 103f ead5 043f 70a4 7ebe
00000220: fa1e 833d 44fe c73d 3965 a5be 54c5 b23e
00000230: 35a6 91be 4ddd 4a3e e7ce 053e 916d f3bd
00000240: a6db afbe 4ff8 163f ac47 283f 0953 e4be
00000250: 1a36 5a3e fe4c e83e 83df 02bd 6b08 0a3f
00000260: aee2 d23e 74b7 953c d8df 2a3f 223e 38bf
00000270: 8ca6 26be 5542 07be ff11 9cbd c0a9 633e
00000280: 5aa7 783e 596b a0c0 a1e0 0a3f 38f2 6bbd
00000290: 2e6e dbc0 1a8c 9abe 62cc 6dc0 3148 adbe
000002a0: 4174 16c0 0625 25c1 dd14 06bf 88b4 92c0
000002b0: 304d 6bbe 9ec7 c4bf 0e5d 7fbd 6e25 43bf
000002c0: 69ca e3c0 762c 34bf e494 09c0 9b0f 85c0
000002d0: c48a 11c0 b99d cbbf 1584 1dbf d5c7 25c0
000002e0: 3b65 9ac0 bbee dfc0 6476 92c0 a8e7 3e3e
000002f0: 1717 443d 72e9 86c0 2d06 03bf 749d f8c0
00000300: 03fa 34bf 3617 b6bf bed7 2a3f a5af 99be
00000310: 76c8 c1c0 563f cabe 881d dfbf 6f87 02be
00000320: e18d 2d3e f427 a8c0 c440 a0bd 1f65 eabf
00000330: afba a1bd 8f15 e3bf eb92 babe 5a26 803f
00000340: a9fb 183f 1a9c 21bf 36ef 47be b500 373f
00000350: 126b a1be 617d 07c0 8714 ecbd 3df2 c7bf
00000360: 8bc8 93bf db7f 62c0 5e32 babf b543 013f
00000370: 9f7d a8be 3dcd 0fc0 9747 06bf 5fd2 17c1
00000380: 0650 d1be be31 f7be 7df2 d3be 7f48 dabe
00000390: 586f 1b3d 2e9d 28be 5f38 433d 6636 50be
000003a0: 4681 61be 6ca6 1ebe 2258 75be 5be6 13bf
000003b0: c464 02bf 1c99 c5be 0805 97be c318 2bbe
000003c0: 5a14 28be ae2c a2bc d9c7 69be 8c85 d7be
000003d0: a2ef 10bf 2129 0fbf 6bef 02bf 2b4a 46be
000003e0: d9c3 dfbd ee52 143c e0ff d2be 3505 a8be
000003f0: 427f cfbe 0667 9abe 5444 3fbe e0b7 9dbe
0.16280638 0.41891104 -8.312987 -0.08997478 0.47454703 -0.057283208 0.31415036 -0.13411078
0.13911353 0.33443576 -0.068478785 0.18640687 -0.21349205 0.2714788 -0.51926965 0.09298751
-0.9183218 -0.37659737 0.19528697 -1.1737523 0.14260899 0.3986805 0.69017565 0.5114212
0.027431933 0.28902003 0.13975321 -1.0516616 0.23493683 0.31208467 -0.22015825 0.13310245
-0.7490445 0.2516342 -0.8788286 -0.648087 0.26551458 0.27011293 0.1676251 0.16555147
-0.18941233 0.2170566 -0.10874223 0.16119719 0.84343576 0.4535752 1.6525815 -0.57508314
-0.30996352 0.04093046 0.047040567 -0.4006475 0.41981995 0.10415927 -0.09563938 0.3502198
0.38441598 0.5481921 0.4190833 -0.6373464 -0.2647401 0.15510365 0.60285467 0.30181107
-0.10914277 0.14915484 -6.0060215 -0.1083043 0.104824774 0.56752497 0.27124482 -0.16451666
-0.18738055 0.12910551 -0.2973897 0.021459306 -0.5342619 0.12105604 0.19725445 0.29177216
-9.753747 0.27097923 -0.57939965 -7.9449315 -0.29585692 0.49032688 -0.058594935 0.28585458
0.3333047 0.09638487 0.34288713 -2.11686 -0.12223427 0.37185514 0.28756937 -0.022328725
-0.053642888 -0.5792886 -0.19465479 -0.054587036 -0.94057965 -0.42199814 -0.3995511 -0.13594319
-0.043061435 -0.83268756 -0.16310416 -0.72349524 -0.0015165661 -0.47025505 -0.5615175 -0.32516533
-0.24179134 -0.5761348 -0.41475692 -0.35038483 -0.43108442 -0.47761142 -0.33243734 -0.4692272
-0.024776356 -0.78336394 -0.35719404 -0.23465915 0.044772364 -1.0226214 0.11615082 -1.2599046
-1.3381077 0.43890193 -0.9914031 -0.7800585 0.18108301 0.5656163 0.51888907 -0.24867415
0.06402393 0.09765294 -0.3230379 0.34916174 -0.28447118 0.19810982 0.13067208 -0.118861325
-0.34347266 0.5897264 0.6573436 -0.445946 0.213097 0.4537124 -0.03195144 0.53919095
0.41188568 0.018275954 0.6674781 -0.7196981 -0.1627447 -0.13208897 -0.0762062 0.22232723
0.2428259 -5.013104 0.54249007 -0.057604045 -6.8571997 -0.30185014 -3.7155995 -0.3384414
-2.3508456 -10.321539 -0.52375585 -4.5845375 -0.22978663 -1.5373418 -0.062344603 -0.7622899
-7.1184583 -0.7038034 -2.1497126 -4.158155 -2.2740946 -1.5907508 -0.61529666 -2.5903218
-4.824857 -6.997892 -4.576952 0.18643057 0.047873583 -4.2159967 -0.511813 -7.7692204
-0.7069399 -1.4225833 0.66735446 -0.3001682 -6.0557203 -0.39501446 -1.7430887 -0.12746976
0.16948654 -5.254877 -0.07824853 -1.831211 -0.07896935 -1.7740954 -0.36440215 1.0011704
0.59759 -0.6312882 -0.19524845 0.71485454 -0.31527 -2.1170275 -0.11527353 -1.56208
-1.1545576 -3.5390537 -1.4546621 0.5049394 -0.3290834 -2.2469018 -0.5245299 -9.48886
-0.40881366 -0.48280138 -0.4139594 -0.42633435 0.037947983 -0.1646621 0.04766118 -0.20333251
-0.2202197 -0.15493172 -0.23959401 -0.5777337 -0.50935006 -0.38593376 -0.29496026 -0.16708665
-0.16414014 -0.019796696 -0.22830142 -0.42094076 -0.5661565 -0.5592213 -0.5114657 -0.1936423
-0.10926027 0.009052975 -0.41210842 -0.32816473 -0.40526778 -0.30156726 -0.18678409 -0.30804348

bias f4 [16]
00000000: a583 c840 25eb b340 dc25 b040 cb22 a7bf
00000010: d481 ca40 05e0 be3f 6128 183f f99e 94be
00000020: 912e 64be e5ec 2a41 8e2e c240 9c2d a8be
00000030: 5926 7340 9046 bc40 b7f6 a0be 175f b1bf
6.26607 5.622454 5.5046215 -1.3057493 6.328348 1.4912115 0.59436613 -0.29027537
-0.22283389 10.682836 6.068183 -0.32847297 3.7992156 5.8836136 -0.31438228 -1.3857144

weight f4 [8, 16]
00000000: 96d5 623f 7786 693f c340 933f f6cf f3be
00000010: eb61 523f d7a0 91bf aba2 23bf 5b86 d5be
00000020: 02ee 9c3e 40e6 e4bd 6971 793f 4a0e 87be
00000030: d284 05c0 4c17 673f 2bc3 0bbf 93c8 723e
00000040: c04d b6bf 8065 89bd fb68 03bf e77e 4bbf
00000050: 0380 54be 9ae5 18bd 743e 3cbe 90bf 5e3d
00000060: 636f 32bf 4874 d6bd 793e 28bf 5c34 d5bc
00000070: 8599 923d bf52 11be 9336 d23d e93d 21bf
00000080: f46a 42bf a287 52bf c8ec d8be 2c2c 07be
00000090: be99 2abf e71e 6ebd 89a8 abbf d116 4bbf
000000a0: 63a2 da3c 46b0 96be 368a cbbe 5336 193e
000000b0: 9394 79be ca71 bebd 6422 c23d 42bb c9bd
000000c0: f6c5 24bf cce6 b2bf a9f6 87bf cb8b 1bbe
000000d0: 1a7d 38bf 17b4 81bf 47bb b1bf 2a58 2abd
000000e0: 34df cfbc ed7e 37be d049 10bf 6c5b 103f
000000f0: 6c90 18be 5e40 9cbf 236b 1a3e 2612 2c3f
00000100: 385c 2f3f 6be9 363f 5b11 633f 1ea9 15ba
00000110: 6c32 2f3f 8f9a 80bf 067f aebe 140a 5d3e
00000120: 8947 613e 1b9e 99be 95f1 473f 64e5 3abd
00000130: b689 e6bf 710c 333f d76c b9be a81b ee3e
00000140: d8c1 2b3f beb5 223f 5290 613f 3953 18bf
00000150: 3965 1e3f 8a47 6dbf b03f 16bf 0dba 2e3d
00000160: 2ee0 eb3e 53ce 76be 3d7f 383f 704b 6dbe
00000170: a452 c3bf e042 383f 14f0 19bf 9b6d 5abf
00000180: b9bc a3bf 9b26 a9bf 2046 d1bf 19c6 ec3b
00000190: d25c 99bf ffb1 94bf 8469 14bd 4eaa cf3e
000001a0: ac02 133e d599 8940 6029 b4bf 2037 d9be
000001b0: 7101 41bf b0d8 a8bf 6414 72be bdbe 5f3e
000001c0: 4ad2 58bd 94db d6bb 6db1 d2be b2dc cb3d
000001d0: d54e 67bf 0ee0 86bf 700d a9bf 3a6e ad3e
000001e0: a043 2c3f 0776 60be 6067 8ebf e9d1 443f
000001f0: d2e7 b0bf 252e a1bf fe88 8c3e 1c72 f13d
0.88607156 0.912208 1.1504139 -0.476196 0.8218066 -1.137721 -0.63920087 -0.41704068
0.30650336 -0.11176729 0.97438675 -0.2637809 -2.0862317 0.90269923 -0.5459468 0.23709325
-1.4242477 -0.06708813 -0.5133206 -0.7949051 -0.20751958 -0.03732834 -0.18383199 0.054381907
-0.6970121 -0.10471398 -0.65720326 -0.026025943 0.07158188 -0.14191721 0.102643155 -0.6298509
-0.7594445 -0.8223821 -0.4236815 -0.13200444 -0.6664084 -0.05813494 -1.3410808 -0.7933169
0.02668876 -0.2943136 -0.39753884 0.1496213 -0.24373083 -0.09299047 0.09479216 -0.0985017
-0.64364564 -1.3976684 -1.062215 -0.15190046 -0.7206589 -1.0133084 -1.3885278 -0.041587986
-0.025374986 -0.17919512 -0.5636263 0.563895 -0.14898843 -1.2207143 0.15079932 0.6721519
0.6850009 0.7144992 0.8869836 -0.00057090994 0.6843631 -1.0047168 -0.34081286 0.21585876
0.21999945 -0.30003437 0.78103 -0.04562892 -1.8010776 0.6994086 -0.3621585 0.46505475
0.6709266 0.63558567 0.8811084 -0.5950199 0.61873204 -0.92687285 -0.5869093 0.0426579
0.46069473 -0.24102144 0.7206915 -0.23173308 -1.5259595 0.71977043 -0.60131955 -0.85323495
-1.2791969 -1.3214906 -1.6349525 0.0072257635 -1.1981452 -1.161682 -0.03623344 0.4055962
0.14356488 4.3000283 -1.4075127 -0.4242487 -0.75392824 -1.3191128 -0.23640591 0.21850105
-0.052934922 -0.0065569375 -0.4115099 0.09954204 -0.90354663 -1.0537126 -1.3207226 0.3387316
0.6729069 -0.21920024 -1.1125298 0.768828 -1.3820746 -1.2592207 0.27448267 0.11789343

bias f4 [8]
00000000: d0ba 1f42 9d07 afbf 0da3 c5bf 87ad 02c0
00000010: 68b2 afba 6a19 0abb a95b 05be d10a bfbf
39.932434 -1.3674198 -1.5440384 -2.0418413 -0.001340461 -0.0021072277 -0.13023247 -1.4925176

weight f4 [4, 8]
00000000: 4254 fe3f 0740 7d3f 392b 9bbd e049 99be
00000010: cd95 273a 144d cc3a c65a 9a3f 223f 4abe
00000020: 1f65 dcbe 6c1e 54be 8046 d3be 097d 13bf
00000030: ff6f 41bf 00af bfbe 503a 82bf aee5 cabe
00000040: b05c 57bd b741 413e 6d5f c8be 96ce 4bbf
00000050: 9a4b f5be fd8e 0fbf 7353 d1bc 4251 65bf
00000060: fec0 bfc0 e4d1 3abd 591b 703e 9c20 41bf
00000070: 1fe7 2a3f a104 343f 4fb7 733e 5f9d 6bbf
1.9869463 0.9892582 -0.075766034 -0.29939175 0.00063928665 0.0015586936 1.2058952 -0.19750646
-0.430459 -0.2071473 -0.41264725 -0.57612664 -0.7556152 -0.37438202 -1.0174046 -0.39628357
-0.052578628 0.18872724 -0.39135304 -0.796121 -0.47909242 -0.5607756 -0.025552487 -0.89577115
-5.9923086 -0.045610324 0.23447932 -0.7544038 0.6675891 0.70319563 0.23800395 -0.92037004

bias f4 [4]
00000000: 9b66 3142 498b 1abf 34f5 a8be eadd 3c42
44.3502 -0.6036878 -0.32999575 47.216713

weight f4 [1, 4]
00000000: b684 ef3f 4712 673f ded3 8b3d 8697 8040
1.8712375 0.90262264 0.0682752 4.0184965
