experiments/neural_networks/mlartifacts/954866327486404750/models/m-6011dbd7850a4239987a79e2fb4a1375/artifacts/data/model.pth (torch, 38217 bytes, 3 tensors)

weight f4 [750, 9]
00000000: 5039 7e3c 4f00 c83e 9265 c53d b226 a6be
00000010: fc17 833e ac67 163f faf9 343f 10ee 0f3f
00000020: 3776 223f 2f69 13bd e4da 863c f921 533e
00000030: e71c 07bf 664e 0fbf 92d9 db3e 1aa1 c63e
00000040: 0e6c 1e3f 99cb a63e 0a81 ddbd d868 03be
00000050: e751 2c3e 51d3 f8be 9349 07bf 628b d33e
00000060: 6758 e13e ac9b 2e3f 16f9 ef3e 4ac6 ce39
00000070: 2624 953c 0ef3 2c3d 202f d5bc 2f89 2ebc
00000080: 631b 33bd 4d4e 07be b0f0 3fbd ccd1 93bc
00000090: dece 173e 2031 e2bd 81db 473e cf76 eabe
000000a0: b13f 08bf 8d30 8c3e 4ac2 253f b010 553f
000000b0: c6ae 363e 5d5d 6b3c 33c5 653d 367f be3c
000000c0: 9d27 d63b 2d4a 07bd 892f 52bd cab8 f0bd
000000d0: 2bc5 81bd 715b 7ebd 9dfd 9e3e aaa4 f13c
000000e0: 1721 233f 8d28 39be a0aa 3ebd b608 2f3f
000000f0: 571a 043f ed23 073f c23e 283f b160 b63e
00000100: 1fbf 033e bc51 743e 61a3 213e b3fb 05be
00000110: 5240 5a3f b9d6 3d3f 69e2 1e3f 1ad6 923e
00000120: bd6c bd3d 12bf 983e ea84 c83d 9856 a7be
00000130: 755d 563e 45fa fe3e 9f3a fe3e 3880 1e3f
00000140: e0af 293f 148e 67bd 8f58 7d3b 0a80 f53d
00000150: 5f72 ebbe 9292 00bf e242 d13e 6424 e73e
00000160: 80f6 1b3f e26b 9b3e 8665 10bc 80cc b23e
00000170: f0f5 733d 314e 85be 44c8 643e 0d4f 023f
00000180: 0b3a 013f 3efb 253f f0eb 2e3f 85fa 08bc
00000190: 8936 f3bd 2344 bf3d 2caa fdbe c63a e4be
000001a0: 4305 063f 1a82 ea3e a383 253f 6b07 8d3e
000001b0: c6cd e2bc c6d9 e4bd 0037 5e3d aeb9 00bf
000001c0: ec75 06bf cf83 c23e 22fa 043f df89 383f
000001d0: 9fe0 103f e6d9 a4bd 5b53 873e ed4a 363e
000001e0: 578d c3be 3621 853e 97a7 113f 9812 e33e
000001f0: e94b 263f b516 1c3f 0b83 2bbd 3d31 aebd
00000200: 0b29 453e dc2f f1be cf43 f7be efd4 d93e
00000210: 03d7 c63e 8876 253f 54f9 993e 89fd 69bc
00000220: bd4d 4fbd 7216 f53d a29f 04bf d40d ffbe
00000230: 165e ca3e b9f1 f63e 9408 1d3f 771e d13e
00000240: 240e 953e a227 803c 39e9 a83e 672b 2f3e
00000250: 37c5 ecbd 95ca 653f 45c0 273f 84a4 1b3f
00000260: 18c2 933e de79 a1bd 31ba 6d3e f2d9 123e
00000270: 9a81 02bf 39a8 3b3e a197 223f 2b45 9e3e
00000280: 4ee5 ef3e e0e4 143f 20e1 03be 4a29 64bd
00000290: 482f bb3d a263 12bf 6069 d3be 6142 b73e
000002a0: 58e9 f13e 830e 253f 29aa 113f 97a8 043d
000002b0: d60b 76bd 4e69 2e3e a303 1bbf de8b f7be
000002c0: a802 eb3e ad53 c03e 36f8 173f 0ac4 bb3e
000002d0: d099 973c c3fc 953e 5235 2c3e af94 b0be
000002e0: dad9 323e 4ca5 003f b33b ea3e 3451 1f3f
000002f0: c391 103f 0085 f53b 4335 eabd b55a e53c
00000300: 52e6 f6be 95ce c8be 9108 903e 712f fa3e
00000310: fa88 303f 2829 ed3e ccfc 8bbc 00c8 283c
00000320: c6ed 233e 2d2e 08bf 0ca9 13bf 6ca1 9c3e
00000330: 4e7f ed3e 4b7a 2d3f d342 e13e 5f22 aebc
00000340: 5727 bcbd aedb fc3d c8f5 05bf 53dc f6be
00000350: 6aeb a73e c775 103f b02d 203f 56bd ee3e
00000360: ef87 ef3b 1c83 16bd 2483 45bc 5ed5 483d
00000370: 5284 583a 1386 0938 2f9f 52bd dd62 a8bd
00000380: 6045 9cbd 6764 873f ee29 1540 e871 9a40
00000390: a470 80bf 165d 0f40 49f9 c6be 383c 3440
000003a0: 4db2 dcbd cef7 33bf c460 0c3f 5c2b ddbf
000003b0: a5bd af3e f152 49bf b29b 6dbf b11f 06bf
000003c0: 150f b5bf 1512 c9bf 0f66 293f 2f19 8d3d
000003d0: a9eb 10bc 0c13 fd3c 4fe0 0dbc 7491 68bd
000003e0: ec83 273a 0c8c 12bd 1b16 bcbc 253e b2bc
000003f0: 9f35 4fbc a382 5d3d 6ef5 723c 3b44 a0bb
0.015516594 0.39062735 0.096385136 -0.32451397 0.25604236 0.5875194 0.70693934 0.5622263
0.6346163 -0.035988983 0.016461797 0.20618428 -0.52778476 -0.55979 0.4293943 0.38794786
0.6188363 0.32577208 -0.10815628 -0.12832963 0.16828118 -0.48598722 -0.5284664 0.41317278
0.44012758 0.68206286 0.46869725 0.0003943912 0.018205713 0.042223983 -0.026023448 -0.010652824
-0.04372729 -0.13213463 -0.046860397 -0.018044375 0.14825007 -0.11044526 0.19517328 -0.4579377
-0.53222185 0.2738079 0.64749587 0.8322859 0.17840108 0.014365521 0.056096267 0.023254018
0.006535484 -0.033029724 -0.051314864 -0.11753996 -0.06336435 -0.062098924 0.31052867 0.029497463
0.63722366 -0.18081875 -0.04654944 0.68372667 0.5160269 0.52789193 0.6572076 0.35620645
0.12865876 0.23859304 0.1578498 -0.13084297 0.85254395 0.74155766 0.62064224 0.28678972
0.09249256 0.29833275 0.09790976 -0.32683253 0.20934089 0.49800315 0.496541 0.61914396
0.6628399 -0.05653198 0.0038657521 0.11987312 -0.45985696 -0.5022365 0.4087134 0.4514495
0.60923004 0.30355746 -0.008813268 0.34921646 0.059560716 -0.26036218 0.2234202 0.5090187
0.5047919 0.6483649 0.6832876 -0.00836051 -0.11875636 0.09339168 -0.49543893 -0.4457609
0.5235178 0.45802385 0.64653987 0.27544722 -0.027686011 -0.111743495 0.05425167 -0.50283325
-0.52523685 0.37991187 0.5194417 0.72085375 0.56592745 -0.08049373 0.26430783 0.1780202
-0.3819377 0.260019 0.56896347 0.44350123 0.6495958 0.6097215 -0.04187302 -0.08505485
0.19253938 -0.47106826 -0.4829392 0.42545268 0.38835916 0.6463399 0.30073035 -0.014281639
-0.050611246 0.11967172 -0.5180608 -0.49815238 0.39524907 0.48231295 0.61341214 0.40843555
0.2911235 0.015643898 0.32990435 0.171064 -0.11561053 0.8976224 0.65527755 0.60797906
0.2885902 -0.078845724 0.23215558 0.14340952 -0.50979006 0.1832589 0.6351262 0.30912146
0.46854633 0.58161736 -0.12878847 -0.05570344 0.091398776 -0.5718328 -0.41291332 0.3579283
0.4724834 0.6447527 0.5690027 0.032387342 -0.06006988 0.17032358 -0.60552424 -0.48348898
0.45900464 0.3756384 0.59363115 0.36673003 0.01850596 0.29294404 0.16817215 -0.34488437
0.17465916 0.50252223 0.45748672 0.6223328 0.56472415 0.0074926615 -0.1143594 0.027997354
-0.48222595 -0.3922011 0.28131536 0.4886432 0.6895901 0.46320462 -0.017088316 0.01030159
0.16008672 -0.5319546 -0.5767982 0.30591905 0.46386188 0.6776473 0.43996295 -0.021256624
-0.09187191 0.12346588 -0.5232816 -0.4821497 0.32796794 0.56429714 0.62569714 0.46628827
0.0073099057 -0.03674613 -0.012055192 0.049031608 0.00082594634 3.278821e-05 -0.05142134 -0.08221982
-0.0763042 1.0577515 2.3306842 4.8264046 -1.0034375 2.2400565 -0.38862064 2.8161755
-0.10776196 -0.70299995 0.5483515 -1.7278857 0.34324375 -0.78642184 -0.928157 -0.5239211
-1.4145228 -1.5708643 0.66171354 0.06889569 -0.008845248 0.030892871 -0.008659436 -0.05677934
0.00063902023 -0.03577809 -0.02295976 -0.021758148 -0.012647062 0.054079663 0.014829023 -0.004890946

bias f4 [750]
00000000: 5b74 243f fb22 f13e fcca 243f a015 91bd
00000010: 2e58 143f b2e1 39bd 49d3 213f e223 043f
00000020: 7a64 253f 1d3b 013f 0226 233f 652c fc3e
00000030: 0c50 1e3f b5b1 233f 4668 f83e d407 083f
00000040: 23d8 023f 0303 003f a081 293f cf11 f33e
00000050: 4cc8 203f 63a5 223f 3ef0 1d3f 4672 223f
00000060: d2bd 6abd be99 fd3e 9cc2 b9bf 2751 9bbd
00000070: ac32 91bd 6afd 4fbd 3146 213f 35d9 8ebd
00000080: 6288 293f 12be 23bd 44a6 033f bbe7 223f
00000090: 2d58 243f 836e 1f3f 10c8 bdbf 8c04 293f
000000a0: f3f3 273f f757 033f 5d89 1a3f 619b 223f
000000b0: 2dd6 2a3f 71bc 273f 3e6f 133f 0210 1c3f
000000c0: 2c54 93bd e7b3 fd3e efe2 033f 569a 1f3f
000000d0: 8d72 ed3e e1ed 8bbd 0c26 243f 896d fd3e
000000e0: 1ca4 1f3f 0f15 1a3f 46aa 273f 003b 253f
000000f0: 2859 103f 2f92 043f b263 ea3e fae8 273f
00000100: d9c6 23bd 3aaa 8fbd d257 fb3e 21a2 79bd
00000110: b5db 8ebd bba5 253f 4be0 1a3f 3268 ef3e
00000120: d59d c4bf 1f3c 173f 926c 273f a6f7 033f
00000130: c9ba 253f 2f2b 1c3f 11b4 1d3f 07cc 3d3e
00000140: 1826 f03e 4b63 003f 8148 233f 6553 033f
00000150: f1c3 a43f 15c3 fb3e 73c1 033f 6b49 223f
00000160: 47c0 de3e ea81 003f 6768 283f cddd 273f
00000170: 5635 8bbd 6f18 023f 9e2a 9ebd 0655 1a3f
00000180: 05fc 003f 3766 72bd 21a4 1d3f 09ab a9bd
00000190: 40f8 263f a3fd fa3e 440f f23e 7d3f 253f
000001a0: d088 9abd d50d 31bf f8cb 1d3f 2212 1c3f
000001b0: bec7 123f 9633 adbd 20c6 163f a381 063f
000001c0: b9b7 1c3f 811d 76bd 1a61 263f 8495 0c3f
000001d0: 4081 f93e 5780 033f 9b10 0a3f 2ad5 83bd
000001e0: e906 0b3f 700c f23e 46f6 213f 81c6 3dbd
000001f0: e84e 253f f642 263f d2c2 f43e d8f1 e23e
00000200: 141d 263f 020c 213f 3364 033f f20d 273f
00000210: 294e b0bd b340 0bbd 779f 0e3f f61d 053f
00000220: ca33 2b3f e4cf 223f 6360 82bd 90ec f33e
00000230: 678d 243f 7b42 1c3f 2ebc 0b3f 1a3a 263f
00000240: ac77 1b3f 4a9e 88bd 9541 073f d7f5 2abd
00000250: b6cb 2c3f 21d7 91bd b6bd 103f 09c4 f63e
00000260: 93a7 2a3f f618 f73e 1a59 193f 8a3f 243f
00000270: bf1b 153f fb50 243f 360c 173f e9ab 203f
00000280: acad 8bbd 5411 1a3f 1495 143f 2b5c 103f
00000290: e101 33bd 31ef fd3e bbd5 fd3e 0aa7 f83e
000002a0: b139 60bd cf7a 1e3f d119 bdbf 658c 1f3f
000002b0: 639a f93e 13b9 adbd ac3a 92bd 3420 293f
000002c0: 1637 fc3e 805f e83e 55d6 253f 962a 62bd
000002d0: 1ea1 2c3f 799b 62bf a838 7c3f 8c33 f73e
000002e0: 0fb6 233f 1660 98bf f242 3abd adb1 afbd
000002f0: ab90 9ebd 0fc7 fc3e 1298 233f f4c3 2b3f
00000300: a37d 223f 3e29 9bbd f8c8 74bd 0738 113f
00000310: 6d63 9ebd 2a70 173f e775 1b3f 1d54 80bd
00000320: eb64 95bd ca03 68bd 28c9 143f aca9 983f
00000330: 3da8 40bd 1719 233f 400b 82bf d03d f13e
00000340: ae8e ee3e 19ff 223f ca74 143f 1168 96bd
00000350: e28b 2c3f a2ab f93e f05d 293f 9b3f 82bd
00000360: 9d85 003f ab5f 70bf 848a 64bd 598a 64bd
00000370: 1bef 1f3f 4710 c53e 3a58 1b3f 880c 193f
00000380: 0680 fd3e 36e4 053f e7aa a5bd 2056 213f
00000390: 864d 22bd e70d 1f3f a58a 233f 838f 96bd
000003a0: a90d f63e 9df2 293f 1cd7 a4bd 9c34 2d3f
000003b0: 9220 43bd c3f1 f7bc 34ba 2b3f 592e 1c3f
000003c0: cb80 80bd c7ea 183f 2d43 273f b79d f63e
000003d0: 63cb 233f be14 1a3f 3c16 263f c43c 203f
000003e0: 93cb 143f c1e3 293f 18c3 223f b886 203f
000003f0: ea66 003f 78b2 fb3e 0a22 203f 9292 243f
0.64240044 0.47097 0.6437223 -0.07084203 0.5794705 -0.045381255 0.6321302 0.5161725
0.6460644 0.50480825 0.6372987 0.4925262 0.6184089 0.63943034 0.48517054 0.53136945
0.5111105 0.50004596 0.6621342 0.47474524 0.6280563 0.6353361 0.61694705 0.6345562
-0.057309933 0.49531358 -1.4512515 -0.07583838 -0.07089743 -0.050778784 0.6299773 -0.06975023
0.6622373 -0.039976187 0.51425576 0.6363484 0.64197046 0.62278 -1.4826679 0.66022563
0.6560661 0.513061 0.6036585 0.6351834 0.66733056 0.65521914 0.5759162 0.60961926
-0.07193789 0.49551317 0.5151815 0.6234487 0.46376458 -0.06832481 0.64120555 0.4949763
0.62359786 0.6018838 0.6549419 0.6454315 0.5638604 0.5178556 0.45779186 0.6558987
-0.039984558 -0.0701489 0.4909044 -0.060945634 -0.069754995 0.6470601 0.60498494 0.46759182
-1.5360667 0.5907611 0.6540004 0.51549757 0.64738137 0.6100339 0.61602885 0.18534862
0.46904063 0.5015151 0.6378251 0.51299125 1.2872297 0.49172273 0.51467055 0.63393277
0.4350607 0.50198233 0.65784305 0.65572816 -0.067972824 0.5081853 -0.07722972 0.60285985
0.5038455 -0.05917951 0.61578566 -0.082845755 0.6522255 0.49021634 0.47277272 0.6455
-0.07545626 -0.6916173 0.61639357 0.6096517 0.5733603 -0.08457105 0.58896065 0.5254156
0.6121784 -0.06008673 0.64991915 0.5491564 0.48731422 0.51367706 0.5393159 -0.06437142
0.5430742 0.47275114 0.6326641 -0.046331886 0.64573526 0.64945924 0.47804886 0.44325137
0.6488812 0.6290895 0.51324767 0.65255654 -0.08608658 -0.03399725 0.55712074 0.5199884
0.668759 0.63598466 -0.063660406 0.4764142 0.6427826 0.6103894 0.54584014 0.64932406
0.6072948 -0.06670816 0.52834445 -0.041738357 0.6749834 -0.07121111 0.56539476 0.48196438
0.6666195 0.4826123 0.59901583 0.6415945 0.5824546 0.64186066 0.5900301 0.62762314
-0.06820235 0.6018269 0.58039975 0.5639064 -0.043702964 0.4959655 0.49577126 0.4856494
-0.05474252 0.6190614 -1.4773504 0.623236 0.487506 -0.08482566 -0.07140097 0.66064763
0.49260777 0.4538536 0.6478017 -0.055216394 0.67433345 -0.8851848 0.9852395 0.48281515
0.63949674 -1.1904323 -0.045474 -0.08578811 -0.07742437 0.4937062 0.63903916 0.67095876
0.63472956 -0.07576226 -0.05976197 0.56726116 -0.07733808 0.59155524 0.6072678 -0.06266043
-0.07294639 -0.05664424 0.5811944 1.192678 -0.047035445 0.6371016 -1.0159683 0.47117472
0.4659323 0.636705 0.57990706 -0.07344068 0.67400944 0.48763758 0.6615896 -0.06359788
0.5020388 -0.9389598 -0.05579616 -0.055796 0.6247422 0.3848898 0.606815 0.59784746
0.49511737 0.5230135 -0.08089238 0.6302204 -0.039624713 0.6213059 0.6388343 -0.073515914
0.48057297 0.66385823 -0.08048841 0.676584 -0.047638483 -0.030266648 0.67081 0.6100822
-0.06274565 0.5973324 0.6533688 0.48167202 0.6398222 0.601879 0.64877677 0.6259272
0.5812313 0.6636315 0.6357894 0.62705564 0.50157034 0.49159598 0.6255194 0.6428615

weight f4 [1, 750]
00000000: 3775 fe3e 639d 403f 12d9 2e3f aae8 b93b
00000010: 3014 2f3f 2dc8 9c3c 221e 173f 2038 df3e
00000020: 5e01 fa3e 87c8 2f3f 0917 f73e a4ad 353f
00000030: 0654 273f 35da 0e3f c1c1 2a3f c598 243f
00000040: ca14 ee3e 4e9c 063f 58f0 1c3f 8d71 3f3f
00000050: f993 f03e 268d 1d3f 86f2 2a3f d305 273f
00000060: 6f5b 4cbc 87f3 6740 143b d6bf 2c96 9e3b
00000070: c490 96bc 1fc8 debc 1e58 243f aa6e 28bc
00000080: 0abc 1d3f 3273 82b9 2247 f43e 3d2c e03e
00000090: a218 fb3e 7e5f f43e 470c 43c0 cc1e 253f
000000a0: b175 1b3f da42 5c40 ba6c 213f fa14 1d3f
000000b0: a424 153f 4631 123f b24d 2d3f 3ff7 2d3f
000000c0: 4053 cfba 0501 013f 4668 fe3e 3a1f 2f3f
000000d0: 8233 013f 4bda 823b 35f8 e83e e69d fb3e
000000e0: 3156 fb3e 218d ed3e fa6b 213f da85 003f
000000f0: 09b8 1f3f 9833 ed3e 425e 123f 2267 193f
00000100: 589d 44bd 3cad 03bc 8775 043f 1d11 4bbc
00000110: b54f 5c3b a5ea 1e3f 4821 023f 9de2 123f
00000120: 0895 44c0 d53f 3d3f 3974 243f 1549 ea3e
00000130: da41 1e3f 5e0d 373f 5240 2d3f 71d1 abc0
00000140: 08dd 133f 82bd fe3e 2094 193f 7f29 383f
00000150: 508c 0540 ceb5 3e3f 78c2 e93e 9bce fc3e
00000160: 3c5d f73e 2b47 193f cd7e 253f 5203 fb3e
00000170: f5f7 34bb 2d60 f63e c3d8 33bc f65f ff3e
00000180: 5c17 fb3e f02c 2e3c 830a 303f d8d6 78bc
00000190: 51df f43e 1552 053f db3f 433f 8c63 f13e
000001a0: b39c fc3b 9af7 4dbf 9b29 063f 7720 283f
000001b0: 7af5 1d3f a56b 6a3c 85d8 033f a293 403f
000001c0: ebf0 2d3f 9081 0fbd d90c 1c3f 8196 3a3f
000001d0: 6f46 073f 7544 fd3e 631b 233f a68b 843c
000001e0: 2446 483f dcac 093f c057 283f 2ce3 22bd
000001f0: f09d fe3e 05ca 213f ebfe 063f 0eab 613f
00000200: 1552 ea3e bfcb 2f3f 998d f43e 65ae 143f
00000210: 3a38 ccba c241 e5bc 9b9e 2f3f 261a 653f
00000220: 284a 1b3f 2aa4 f23e 78a0 a7bc e540 0a3f
00000230: 8d29 ed3e 2329 f23e 2848 303f 3d9e 1c3f
00000240: 3c91 013f b261 fdbb bcec 303f 5c7f dcbc
00000250: 93bf 103f be7f 3c3b 312b 2c3f 6137 093f
00000260: 36ae 153f 6c98 093f d672 0d3f 622f 053f
00000270: 0725 2b3f 2e38 fa3e ef3a 263f 6c1a 163f
00000280: 7e97 75bc 7546 0d3f 60b3 ed3e 42af f83e
00000290: 4bc2 ffbc b829 063f 8a37 fc3e 5117 033f
000002a0: 1252 a43c 3597 223f 67a9 b6bf aa06 2f3f
000002b0: ce58 013f f59b 75bb 3712 0f3b 4e59 1e3f
000002c0: ce0d fb3e a62d 0b3f 96ae 1c3f 7045 d4bb
000002d0: 5959 0b3f 376a 1fc0 0c59 cf3f 6eeb c33e
000002e0: ef2d 053f a8f2 b4bf 6f45 143d bc1e 093b
000002f0: bcd2 83bc 09f0 f93e 833e 003f 4d55 103f
00000300: 3bff 1d3f 3408 16bb 3a32 b33b ae46 213f
00000310: cc85 413c dc86 2f3f 30c5 303f 399d f23a
00000320: 498a 8a3c 95a5 e73c 4bec 013f aa9a ee3f
00000330: 028e 11bd 65df 013f 8e2f b440 3842 103f
00000340: fc44 463f 9cc8 293f 9804 443f f7f4 0c3b
00000350: 7033 0f3f ec1d 063f ce61 ee3e 90c8 6abc
00000360: 3b00 443f eeba 0cc0 49b1 753b ed69 9d3c
00000370: 7ea7 013f a8cf a93e cd83 fd3e 02af 323f
00000380: 74e7 ff3e 36f7 053f e782 043b 0f6a 043f
00000390: 4db8 39bd dc8c 053f 8d6e f83e 7a3f 003c
000003a0: 0edf 013f b295 1a3f 2580 653c 335b 6b40
000003b0: cbc8 15b9 7c4c 9bbc 728c 173f 69a9 2f3f
000003c0: 7eac 433c 2565 2b3f 7610 123f 30a1 473f
000003d0: a3b1 1a3f 039e 323f ddc7 243f 3b0b 243f
000003e0: d017 2d3f a68d f93e 7532 fa3e c9c2 053f
000003f0: 9521 343f bf03 013f f737 223f 2314 293f
0.49698803 0.75240153 0.68299973 0.0056734877 0.6839018 0.01913842 0.59030354 0.43597507
0.48829168 0.68665355 0.48259762 0.7096808 0.65362585 0.5580171 0.66701895 0.6429561
0.46500236 0.5258225 0.61304235 0.7478264 0.46987894 0.615435 0.6677631 0.6524326
-0.012472971 3.6242387 -1.6736779 0.004839679 -0.018379577 -0.027195035 0.64196956 -0.010280291
0.6161505 -0.0002488136 0.4771052 0.4378375 0.4904223 0.47729105 -3.0476243 0.6450012
0.6072646 3.4415803 0.6305653 0.6136013 0.58259034 0.57106435 0.6769668 0.6795539
-0.0015817657 0.5039218 0.4968893 0.6840702 0.5046922 0.0039933077 0.45501867 0.49143904
0.49089196 0.46396735 0.63055384 0.5020424 0.6239019 0.46328425 0.57175076 0.59922993
-0.048001617 -0.008036908 0.5174183 -0.012394217 0.0033616845 0.6207679 0.50832033 0.57377034
-3.0715961 0.73925525 0.6423984 0.45758882 0.6181923 0.7150477 0.6767627 -5.3693166
0.5775914 0.49753958 0.59991646 0.7193832 2.086689 0.7449616 0.4565618 0.49376377
0.4831332 0.5987422 0.6464661 0.4902597 -0.0027613614 0.4812025 -0.010976973 0.498779
0.4904126 0.010630831 0.6876604 -0.0151879415 0.47826627 0.5207837 0.7626931 0.4714626
0.0077091097 -0.80455935 0.52407235 0.6567454 0.6170269 0.014307891 0.5150226 0.7522527
0.67945737 -0.03503567 0.60957104 0.728859 0.5284185 0.4946629 0.63713664 0.01617987
0.78232026 0.5377939 0.65758896 -0.03976743 0.49729872 0.6319888 0.52732724 0.88151634
0.4576575 0.68670267 0.4776428 0.58078605 -0.0015580722 -0.027985457 0.6860139 0.89493024
0.6066003 0.47390872 -0.02046226 0.5400527 0.46320763 0.4729701 0.688601 0.6117895
0.50612235 -0.0077325935 0.6911123 -0.026916198 0.5654232 0.0028762664 0.67253405 0.53600127
0.5846895 0.537482 0.5525335 0.52025425 0.66853374 0.48870987 0.64933676 0.58634067
-0.014989732 0.55185634 0.46425915 0.4857121 -0.031220576 0.5240741 0.49261123 0.51207453
0.020058665 0.63511974 -1.4270447 0.68369544 0.5052613 -0.003747699 0.0021830925 0.6185502
0.4903397 0.5436653 0.61203897 -0.006478004 0.5443321 -2.4908578 1.619905 0.38265556
0.52023214 -1.4136553 0.03619903 0.002092286 -0.016091697 0.48815945 0.50095385 0.5638016
0.61717576 -0.0022893073 0.005468634 0.62998474 0.011811685 0.68565154 0.69050884 0.0018509991
0.016911643 0.028277198 0.5075118 1.864095 -0.03553582 0.507315 5.630805 0.5635104
0.7744901 0.6632173 0.7656951 0.0021508315 0.5593786 0.5238941 0.46558994 -0.014330044
0.7656285 -2.1989093 0.0037489703 0.019215548 0.506462 0.33166242 0.4951462 0.6979829
0.49981272 0.5233034 0.0020219625 0.5172433 -0.04534178 0.5216806 0.48521844 0.007827634
0.5073098 0.60384667 0.014007603 3.6774414 -0.00014284549 -0.018957369 0.5919868 0.68617874
0.011942981 0.6695121 0.5705637 0.7798033 0.604273 0.69772357 0.6436747 0.64079636
0.6761446 0.48740882 0.4886662 0.52250344 0.7036374 0.5039634 0.63366646 0.6604635
