experiments/neural_networks/mlartifacts/730589028942085756/models/m-84639f4fe07c46039f51eeb8f01c508e/artifacts/data/model.pth (torch, 6845 bytes, 5 tensors)

weight f4 [8, 8]
000000 16 fd d9 be f6 61 17 3f c2 18 d5 be 86 49 b8 3e
       -0.42575902 0.5913385 -0.4162045 0.35993594
000010 29 22 80 3e e8 c8 6f 3e e7 82 a9 be 74 59 17 3f
       0.25026062 0.23416483 -0.33107683 0.5912087
000020 e9 c1 28 3e ae 76 e1 3d ae 27 02 bf 48 a7 93 3e
       0.16480221 0.110089645 -0.50841796 0.28838563
000030 fb 74 96 bd 4b a3 8f be a1 51 0b 3f 46 52 2e 3e
       -0.07346531 -0.2805427 0.5442143 0.17023572
000040 44 25 9e be e6 5f 8e be f8 9f fe 3a 20 2b bf 3e
       -0.30887806 -0.2780754 0.0019426337 0.3733759
000050 b1 f5 3f be 86 c0 c0 be b9 a9 70 be 88 8b fa be
       -0.18746068 -0.37646884 -0.23502244 -0.4893458
000060 0b 32 3c 3e bc e1 e0 3e 72 7a 1c bf 4e 35 dc 3d
       0.18378465 0.43922222 -0.61124337 0.107523546
000070 5a 35 90 3e 33 ca 9b 3d b1 61 81 be 06 e9 91 3e
       0.28165704 0.07606926 -0.25269845 0.28498095
000080 f4 6c b6 3e 2e f3 86 3e 10 b5 95 bd 23 db 02 be
       0.3563 0.26357406 -0.073099256 -0.12778907
000090 e4 b2 b8 3d 72 a7 95 bd 95 6a 17 be a6 12 d9 3e
       0.09018496 -0.07307328 -0.14786752 0.4239704
0000a0 79 67 0f 3f 6e 42 d7 bc ca bb d1 bd 2f 11 31 3d
       0.5601726 -0.026276793 -0.10240896 0.04322928
0000b0 3b f2 5d bb 1b d4 3a 3e b8 a2 53 3e ac 64 09 bf
       -0.0033866304 0.18244974 0.20667541 -0.5366924
0000c0 5a 11 85 be f7 a7 f6 3e 94 76 51 3e 5d 2f 84 bd
       -0.259898 0.48175022 0.2045539 -0.06454346
0000d0 29 08 bd be a2 09 d1 be 60 34 14 bf aa 0f 6c be
       -0.36920288 -0.40827662 -0.5789242 -0.2305285
0000e0 c9 ad 33 3e 85 ec b6 3e 69 fc 7e 3e 28 00 13 bf
       0.17546763 0.35727325 0.24900974 -0.57422113
0000f0 4a 8c bc be 07 73 8d bd 06 48 0f 3f 3a 7e 79 3d
       -0.36825782 -0.06906705 0.55969274 0.060911395

bias f4 [8]
000000 f9 60 39 3d 3f 57 32 3d c7 ce 87 bc 51 9f ce bc
       0.045258496 0.043540236 -0.016578091 -0.025222452
000010 f5 b1 37 3d ed 6c 39 3d d7 5d c6 bc 8b 5d b9 bc
       0.044847447 0.045269895 -0.024214668 -0.022627613

weight f4 [8, 8]
000000 24 8d 28 be cc ea 5f 3e 0f 67 88 be a0 02 ce be
       -0.16460091 0.21866912 -0.26641127 -0.40236378
000010 f1 c3 e1 3e 96 90 8e be c4 69 fb bd d2 3e 1f bf
       0.44094804 -0.27844685 -0.122760326 -0.6220523
000020 3d 96 c0 3e 09 f7 db 3e 27 bd 44 3e 11 70 eb be
       0.37614623 0.4296191 0.19212781 -0.45983937
000030 06 4e 23 bf cb 2f 08 bf 13 b7 e0 3e b3 20 85 3e
       -0.6379093 -0.53197926 0.43889675 0.2600151
000040 93 f0 f5 3e 7e 5a 92 3e 6f bf fb 3d 4f bf 26 bd
       0.48035106 0.28584665 0.122923724 -0.04070979
000050 2b 36 00 bf d1 48 0f bf 05 49 1a bf 71 4d 5d 3e
       -0.50082654 -0.55970484 -0.6026767 0.21611573
000060 7d ef 99 be 10 66 fc bd dd 70 b4 be a0 88 e4 bd
       -0.30065528 -0.123241544 -0.35242358 -0.11158872
000070 3a ad dc be 55 de cc be 74 01 50 3e de 5c 3a be
       -0.4310091 -0.40013376 0.20313054 -0.18199489
000080 ec b9 af 3e 05 e0 6b be 02 92 f2 be be ce 11 be
       0.34321535 -0.23034675 -0.4737702 -0.14239022
000090 a0 c9 a9 be 46 ee 62 be 23 c9 19 bf e1 46 9e 3e
       -0.3316164 -0.22161207 -0.60072535 0.3091345
0000a0 48 4f ec be 6e a3 8b 3e 64 45 7b 3e 25 c4 ce 3e
       -0.46154237 0.27273124 0.24538189 0.4038402
0000b0 3c 48 01 bf 2c 79 cf 3e f7 3b a3 be 81 12 45 3e
       -0.50500846 0.40522134 -0.31881687 0.1924534
0000c0 ad 3b 1c 3f 08 8b 51 bd 51 1c df 3c af 6a d9 bd
       0.6102856 -0.05115798 0.027235182 -0.106160514
0000d0 95 bd f3 be 32 83 a8 3e ce 8d 13 bf 56 82 d4 3e
       -0.47605577 0.32912594 -0.5763825 0.41505688
0000e0 0e 7e fc 3e 2b 49 1d 3f ff 8f e5 bd db f4 ef be
       0.49314922 0.6143977 -0.11209106 -0.46866497
0000f0 61 69 2f 3e 50 43 bf 3e 69 f6 13 bf 4e 99 d4 bd
       0.17130043 0.37356043 -0.5779787 -0.10380803

bias f4 [8]
000000 03 35 c5 bc 32 b2 c5 bc 97 c3 cb bc 0a d7 23 3c
       -0.02407313 -0.024132822 -0.024873538 0.01
000010 b7 a3 c7 bc 50 02 cc bc 97 b3 38 3d dc 58 39 3d
       -0.024370058 -0.024903446 0.045093145 0.04525076

weight f4 [1, 8]
000000 5f 5a e9 be fb db 17 bd 3e 37 bc be 3e e2 aa be
       -0.4557676 -0.037075024 -0.36760896 -0.33375734
000010 6f 80 67 be 21 c5 3d bf 5c 84 34 3f 71 3e 38 3f
       -0.22607587 -0.7412892 0.70514464 0.7197028
