experiments/neural_networks/mlartifacts/954866327486404750/models/m-50639caf1fd64abebeb4ff5031ca9cd8/artifacts/data/model.pth (torch, 49289 bytes, 3 tensors)

weight f4 [1000, 9]
00000000: 0c3b ddbc b3ae a03d 2473 943e cc10 1ebe
00000010: 04c2 8c3e ee4f 7a3f 8e92 763f d148 88bd
00000020: afad 4e3f 355b 763c a103 28bb 81c1 833e
00000030: 381b 04bf d32c 8bbe c415 3c3e 16a9 4e3e
00000040: 879b f23e 3638 6b3e da7f 793d 8c89 40bd
00000050: dfb1 91bc fb4e 653c 4596 383c f963 2fbd
00000060: 3c0a bdbc 9943 cebd ab0a 85bc 299c a2bc
00000070: 0457 53bd b188 203d 6b34 63bc 1db8 943d
00000080: 909b f9bb 738a 4fbd 4688 12bd e87d 9fbd
00000090: 3787 49be d60e 133e 04e0 853e 9c06 e8bd
000000a0: 7817 ba3e 1909 7c3f b8a3 723f 8612 08be
000000b0: 6e41 6e3f b62b ab3d 9a78 283e 0720 693d
000000c0: 7265 aabd db00 783e 28ad f63e bfb3 163f
000000d0: 5b50 253f 4dec 2b3f 4005 21bd d502 0fbe
000000e0: 17ce 863e 4e97 cabe 1046 81be e0bb fa3d
000000f0: d839 ae3e 9e6e dd3e d9de a93e 8a4a 67bd
00000100: 7b85 183d 5c51 963b b2d6 69bc 0804 fa3c
00000110: d359 cbbc ad25 1fbd 1258 01bd 3c77 83bd
00000120: 71ca afbd 28e7 9bbd a140 1b3e b7b1 ddbe
00000130: 8e99 61be 65f4 ec3d 78da ab3e f0cb 043f
00000140: b671 d63e b0af c4bc fc8e 6abd bafd 3a3e
00000150: 9aef e3be 193b a5be 62ad 233d ea36 ae3e
00000160: f004 163f ea6f f33e c74c 463d 6039 063d
00000170: 1b5e 89bd 3090 ea3b b044 49bd e92d 3e3d
00000180: 11bb 94bc 3da2 d2bc 6644 a6bd 2487 c63d
00000190: bb9c b53d d334 813d 3728 82bd bd64 303e
000001a0: f8dc cb3e 468d d63e c6bc e43e c2c4 113f
000001b0: 820e 873d 939a 573e aa17 033e a8e2 d7bc
000001c0: ada6 3d3e fdb8 c93e 8086 1e3f a92e 133f
000001d0: 68b1 253f 26c0 fb3e 68c1 ec3b e8f8 5e3e
000001e0: 1bdc 703e bb6d f2bd 9274 2a3f 796f 693e
000001f0: 5e74 233f 1b5a a63e 5251 c33d cdc7 023e
00000200: a241 a73d 51c4 f0bd d660 543e c368 d93e
00000210: e92f f03e 379d 123f 8784 023f 6161 8c3d
00000220: 904e 1f3e 1ea9 aa3d 0149 14be 4101 743e
00000230: 4abb e63e 4de7 073f efd8 093f 7280 0f3f
00000240: 2d4e d83e 60c2 edbc 045a 043f 46c8 a33c
00000250: 964e e4bc b446 083f 3b86 1a3f 79f3 f63e
00000260: 056c 1e3f ddb4 50bd e349 c3bd 1d9c 493e
00000270: 8a68 e2be a526 9bbe 527c ea3d 039d 9f3e
00000280: 73b0 063f 0331 ef3e d690 fcbb ff0a d4bd
00000290: 5b0e 583e 24f7 debe 5822 8cbe b59b ec3d
000002a0: 5e4b 8c3e 6db2 e73e af4c c53e adfe de3e
000002b0: 64e3 af3c f4eb 053f 842a 423d 3573 79bc
000002c0: 30a9 ef3e 9226 233f e9fc 073f 9263 283f
000002d0: cb88 333c 6832 dfbc b189 39bd f1c3 f13c
000002e0: ee03 113b ed88 4f3d 2377 be3c 8d45 13be
000002f0: b3a1 f8bd cde8 d43e d547 7cbd 5f89 b43e
00000300: f58e ca3d b67e bdbd 1ad4 313f a1f6 333f
00000310: 3d71 023f c164 8f3e cce1 643c 251e 863c
00000320: ece4 613c ff4b 2e3d df6e 143d b136 a2bd
00000330: 4cf5 15bd f39f b3bc 2aa3 a4bd 1843 a0bd
00000340: 1b98 24be b498 043e 0d0f b2be b47e 7abe
00000350: ba7a 833d 2ee9 a43e fee4 d43e e345 253f
00000360: be9f 14bd 5dfa d4bd 3c13 4f3e 4ade d3be
00000370: 7f2c 99be 2cbb 043e b6f5 b13e 7106 f73e
00000380: 4f48 c03e f0a5 5f3c c6f7 053c 5e61 5a3d
00000390: 4f80 4abd 1f15 d33c 8280 79bd c702 36bd
000003a0: 4b5a b5bd bebe a0bd 619f 233e a96a a63c
000003b0: b4bd c23e 59fe c3be 1630 d8be 99d8 25bd
000003c0: 9f65 5f3e 215b e83e b36d 003e 7db8 c5bd
000003d0: 3ccd d8bd 3391 573e 9691 cebe 6e98 89be
000003e0: 1510 e13d e4e6 e13e 6df1 fc3e 175a d33e
000003f0: 85cb 023f d112 103c 8e13 a63e db2f 803e
-0.027005695 0.07845821 0.28994095 -0.15436095 0.27491772 0.97778213 0.96317375 -0.066545136
0.8073377 0.015036394 -0.0025636929 0.2573357 -0.5160403 -0.27182636 0.18367678 0.20181689
0.47384283 0.22970662 0.060912944 -0.047006175 -0.01778501 0.013995881 0.011266296 -0.04281995
-0.02307617 -0.10071487 -0.016240438 -0.019849854 -0.051596656 0.03919286 -0.013867478 0.07261679
-0.0076174214 -0.050669145 -0.03577449 -0.077876866 -0.19680487 0.14361128 0.26147473 -0.11329386
0.3634603 0.9845138 0.94781065 -0.13288316 0.9306859 0.083579466 0.16452256 0.05691531
-0.083201304 0.24219076 0.48178983 0.5886802 0.6457574 0.6715744 -0.039311647 -0.13965924
0.2632911 -0.3956856 -0.25248766 0.122428656 0.34028506 0.43248457 0.33177832 -0.05646757
0.037236672 0.0045873355 -0.014272379 0.0305195 -0.024823105 -0.03885429 -0.03157813 -0.064192265
-0.085835345 -0.07612449 0.15161373 -0.43299648 -0.22031233 0.11570052 0.33565116 0.51873684
0.4188363 -0.024009556 -0.057265267 0.18260852 -0.4451874 -0.3227165 0.039960273 0.3402627
0.58601284 0.4754632 0.048413064 0.03276956 -0.06707402 0.007158302 -0.04913777 0.046430502
-0.018155606 -0.025712127 -0.08118515 0.09693745 0.088677846 0.063089035 -0.063553266 0.17225929
0.39817023 0.41904658 0.44675273 0.56940854 0.06594564 0.21055059 0.12801996 -0.026353195
0.18520613 0.39398947 0.6192398 0.5749307 0.64723825 0.49170035 0.0072252043 0.21774638
0.23521464 -0.11837336 0.6658412 0.2279643 0.6384944 0.3249062 0.09536995 0.1277153
0.08166815 -0.117561944 0.20740065 0.4246274 0.46911553 0.5727114 0.5098347 0.06854511
0.15557313 0.08333038 -0.14480974 0.23828603 0.45064765 0.5308731 0.5384664 0.56055367
0.42247143 -0.02902335 0.5169985 0.019992959 -0.027869504 0.53232884 0.6036107 0.4823263
0.61883575 -0.050953735 -0.09535577 0.19688459 -0.44220382 -0.3030292 0.114494935 0.31174478
0.5261299 0.4671708 -0.0077076955 -0.1035366 0.21099226 -0.43547928 -0.27369952 0.11553136
0.2740125 0.45253316 0.38535067 0.43553677 0.021470733 0.5231316 0.047403827 -0.015225221
0.46808767 0.6373073 0.53120285 0.6577693 0.010957907 -0.027245715 -0.04529733 0.029512377
0.0022127586 0.050667692 0.023250168 -0.14382 -0.12140217 0.41583863 -0.061591942 0.35261056
0.09890548 -0.09252684 0.69464266 0.702982 0.5095404 0.28006557 0.01396985 0.016371796
0.013787489 0.042552944 0.036238547 -0.07920588 -0.036610886 -0.021926856 -0.080389336 -0.07825297
-0.16073649 0.12948877 -0.34777108 -0.24462396 0.064198926 0.32209152 0.41580957 0.64559764
-0.036285155 -0.103993155 0.20222181 -0.4138053 -0.2991676 0.12962025 0.34757775 0.48247102
0.37555167 0.013650402 0.00817675 0.053315513 -0.04943877 0.025766907 -0.06091357 -0.044436242
-0.08855113 -0.07848881 0.15978767 0.020314531 0.38035357 -0.3827999 -0.42224187 -0.040489767
0.21816109 0.45382026 0.12541847 -0.09654329 -0.1058602 0.21051483 -0.40345448 -0.26874107
0.109893955 0.44121468 0.49402943 0.4127967 0.51091796 0.008793549 0.32436794 0.2503651

bias f4 [1000]
00000000: 2d02 7b3f 4765 c13e 5bb8 94bd 2c4b 90bd
00000010: a2b5 7e3f cee3 263f 9044 db3e c5d9 83bd
00000020: de5d 053f ce14 0e3f cf47 77bd 9788 133f
00000030: 23a8 273f bc31 f23e 4bc4 1c3f c4c0 173f
00000040: d8b8 2e3f cc27 013f 38a1 e53e ddf0 2e3f
00000050: d058 84bd 79f5 0d3f fba0 79bd 9bab 0b3f
00000060: c1e9 fd3e 4040 54bd a0d3 9f3e 1c25 073f
00000070: 9ec9 f43e 3a7f 083f 9596 0a3f 9ce9 f43e
00000080: 7fcf 1f3f e9aa 093f b520 013f a58f e93e
00000090: 181f 1b3f 3955 0b3f 48a8 f03e d743 eb3e
000000a0: 0a62 033f a09c df3e 436f 093f 9536 053f
000000b0: d16d 083f 0df9 8fbf 5f57 9abd c92e 1d3f
000000c0: e227 f53e ea5c ff3e 563c f33e 4b8c 0e3f
000000d0: 20b6 043f 7ea6 373f 0789 e13e 6e44 f83e
000000e0: bd7d 083f 7551 83bd 7fa3 ae3e b3e6 163f
000000f0: 8425 5abd fe66 96bd 15ff f43e ab7e 013f
00000100: ff56 0a3f ef10 7dbd 761c f93e 608e 093f
00000110: aca3 0a3f ca9b a43e fe54 60bd 89c6 023f
00000120: c732 0b3f ace1 233f f900 25bd f7eb 8fbd
00000130: aece f13e 824d 2c3f 2e28 373f 0e70 61bd
00000140: 611b 133f 5771 79bd 1535 063f 5e9a 2b3f
00000150: 5c21 253f 66d4 083f e573 0c3f 0bf4 0b3f
00000160: 9a8f c7bf ae96 093f c93f 2a3f c731 053f
00000170: c1b6 82bd 6b7e 0e3f 7454 f23e db0c 053f
00000180: 7116 2b3f f32d 6ebf e182 0b3f 91ba e83e
00000190: eec0 f03e a6cd 053f c011 8ebf 6e73 ea3e
000001a0: 6cca 86bd e9cf ef3e 9168 96bd 1da1 f23e
000001b0: 19f8 52bd 318c 6abd 42a1 d93e 8625 0b3f
000001c0: b191 53bd 0dd0 1a3f de2a ca3e d57a e83e
000001d0: d8bb af3e 11b9 89bd ea5b 253f aff7 fc3e
000001e0: b083 123f cc38 083f 68d4 90bd 3ddb c73e
000001f0: cd51 073f b52a 083f b057 063f c032 f33e
00000200: c680 053f 679a f23e fefe d63e 4c20 223f
00000210: e5fb 283f 58eb 2a3f d251 983e 893f 053f
00000220: efb7 22bd 8c64 023f 10f6 0d3f cd7c 223f
00000230: 9271 2c3f 65d0 0a3f db8d 28bd 5f04 0a3f
00000240: fa68 86bd 1db0 023f cc0b f8bc 2e18 f83e
00000250: 3b2c 9ebd 0f7d a43e 7def 073f 5e00 ec3e
00000260: c3bb 9fbd 98b0 bc3e 1f11 99bd 8d7f 083f
00000270: 6391 1c3f 0a1d 0d3f 796d 253f c2ef 0b3f
00000280: 0dc5 1a3f f5c2 083f 3a10 91bf a358 143e
00000290: 5021 8fbd d5d9 953e 1934 ca3e 1d56 68bd
000002a0: 39eb 073f d4c7 073f 7ef5 173f 631d e83e
000002b0: 7cb6 113f 8864 0b3f c7d5 6bbd 62f6 073f
000002c0: 5d15 0d3f e177 ffbc 1b4f 1f3f b333 0d3f
000002d0: f27d f03e cd11 e33e 2f11 8fbd 4788 91bf
000002e0: aaa9 273f feed 073f 1c5d 0d3f 4014 053f
000002f0: a33a 343f cbb1 c03e 1ea0 2b3f 8d6a 093f
00000300: a4d4 ff3e 7c27 103f 00e9 273f 61d8 0a3f
00000310: 9f71 213f db83 9ebd 4cf5 81bd a0c2 013f
00000320: 4259 e03e dea5 77bd 9245 80bd f6fc bc3e
00000330: 72e5 003f e971 073f 20ab 86bd 61e4 df3e
00000340: a9cd 293f 5fed 003f 38f3 d93e 0f87 063f
00000350: 73a6 063e a571 2abf 633a f03e d7cc 023f
00000360: 824b 8ebd 3b3c 1e3f 2ead f73e 5425 153f
00000370: 2833 ec3e e86e a2bd d959 073f eab8 ea3e
00000380: ecb4 b93e eda9 043f d033 89bd 3f48 88bf
00000390: da29 053f c7f2 ff3e 706b 0d3f 27c5 143f
000003a0: 44a4 123f 65b9 063f f29b 243f 96ae 75bd
000003b0: 7ca0 c03e 018b 85bd 6fdc 023f e159 0f3f
000003c0: b2d5 0d3f 43db ff3e c397 023f 804c 96bd
000003d0: be16 ed3e 22f2 f03e bc20 203f 93aa 063f
000003e0: 0a1f 063f ebd3 bf3e 9226 43bd 7390 73bd
000003f0: dc6b 183f 0bc9 093f 5aa2 043f e2e9 ea3e
0.98050195 0.3777258 -0.072617255 -0.07045588 0.994959 0.6519135 0.42825747 -0.064380206
0.52096355 0.55500495 -0.060371216 0.57630295 0.6549093 0.4730357 0.6123702 0.5927851
0.682508 0.5045135 0.44849563 0.6833628 -0.06462252 0.55452687 -0.06094454 0.54558724
0.49592403 -0.051819086 0.31216145 0.52791 0.47810072 0.5331913 0.5413602 0.4783448
0.6242599 0.53776413 0.5044053 0.45617405 0.6059432 0.54426914 0.47003388 0.45950195
0.5132147 0.43674183 0.53685397 0.5203641 0.53292567 -1.1247879 -0.07536196 0.61399513
0.4788199 0.49875575 0.4750697 0.5568282 0.518404 0.7173842 0.44049856 0.48489708
0.5331686 -0.06412021 0.34109113 0.5894577 -0.053258434 -0.07343863 0.47850862 0.50583905
0.54038996 -0.061783727 0.48654526 0.5373287 0.54155993 0.32150108 -0.054768555 0.5108419
0.54374355 0.6401622 -0.04028413 -0.070274286 0.47227997 0.6730577 0.71545684 -0.055038504
0.5746365 -0.060899105 0.52424747 0.6703242 0.6450403 0.53449094 0.5486434 0.54669255
-1.5590699 0.53745544 0.6650358 0.5202908 -0.06382514 0.5566165 0.47330058 0.5197274
0.6683112 -0.9303886 0.5449658 0.4545484 0.47022194 0.5226692 -1.1099167 0.4579119
-0.06581578 0.4683831 -0.07344163 0.47388545 -0.051506136 -0.057262603 0.42505842 0.5435413
-0.051652614 0.6047371 0.3948583 0.45406213 0.34323 -0.06724752 0.64593375 0.49407718
0.5723219 0.53211665 -0.07071763 0.39034453 0.52859193 0.53190166 0.5247755 0.47499657
0.5214962 0.47383425 0.4199142 0.6333053 0.6600936 0.66765356 0.29749924 0.5205007
-0.039726194 0.5093467 0.55453587 0.6347168 0.67360795 0.54224235 -0.04115091 0.5391292
-0.065629914 0.5104998 -0.030279063 0.48455948 -0.0772328 0.32126662 0.53099805 0.4609403
-0.077994846 0.3685348 -0.07473969 0.5331963 0.6115934 0.55122435 0.64620167 0.54662716
0.60456926 0.5342248 -1.1333077 0.14486937 -0.06988776 0.29267755 0.39492872 -0.05672275
0.53093296 0.5303929 0.59358966 0.4533492 0.56919074 0.54450274 -0.05757692 0.53110325
0.5511072 -0.031185092 0.6223008 0.5515701 0.4697109 0.44349518 -0.069856994 -1.1369714
0.6549326 0.5309752 0.552202 0.51984024 0.7040197 0.37635645 0.67041194 0.5367821
0.4996692 0.5631025 0.65589905 0.5423642 0.63064 -0.07739993 -0.06345615 0.506876
0.43818098 -0.060460918 -0.062632695 0.36911744 0.50350106 0.5290819 -0.06575608 0.43728927
0.6632944 0.503622 0.42568374 0.52549833 0.13149433 -0.6657966 0.46919546 0.5109381
-0.06947996 0.61810654 0.48374313 0.58260083 0.4613278 -0.0793131 0.5287147 0.45844203
0.36270845 0.51821786 -0.066993356 -1.0647048 0.52016985 0.49989912 0.5524206 0.5811333
0.572819 0.5262664 0.64300454 -0.05998095 0.3762244 -0.065206535 0.51117605 0.5599652
0.554042 0.4997197 0.5101282 -0.0733881 0.46306413 0.47059733 0.6254995 0.52604026
0.5239111 0.37466368 -0.047644205 -0.05946393 0.5953958 0.5382239 0.5181023 0.45881563

weight f4 [1, 1000]
00000000: c080 ed3f 3482 123f ec3e ec3a 3f41 c53a
00000010: a45d dd3f 4754 eb3e 5aa8 dc3e 0c1f 29bc
00000020: 6765 023f 9b9e e13e c599 a93c fd10 c73e
00000030: de87 d93e 05b0 ee3e 6b76 ce3e fbc7 d23e
00000040: 1dc6 133f 5ab7 f83e f08c ea3e 0a07 103f
00000050: 8274 c8bb 1c66 ec3e 8074 a9bb ff65 ca3e
00000060: 29d5 ec3e 9c8b 553c c5d4 d53e 37ce ff3e
00000070: e6b2 f43e a0c9 fc3e 23ed f03e 06ff e43e
00000080: 59ac d13e b8cc e53e 0ccf 0b3f 81e4 f33e
00000090: 6a83 c53e 58cf ee3e 137b dd3e c9bb eb3e
000000a0: b0c1 fb3e 178c f43e 97f1 f23e 841f f83e
000000b0: 4dba de3e 4cf2 e3bf 2dd6 8cbb 220a c83e
000000c0: 215e e43e 211a 0d3f 2f54 f03e 1db8 e13e
000000d0: 2ced ea3e d336 083f 0d4a 033f 4fe6 f93e
000000e0: 87ea f83e 8264 2abc 4dc0 e03e 0dd2 cf3e
000000f0: b070 1f3c 4d9d 213c 8027 e33e e206 093f
00000100: 8c8c f03e cbc0 253c 50b7 d43e 88ec f73e
00000110: f384 ec3e bd84 fe3e eeb0 a93c 062a 083f
00000120: b4f6 f73e e5b5 d93e 25a0 a03c 319c be3c
00000130: 7b01 ef3e b355 dd3e 7691 8e3f 1d01 adbc
00000140: dad4 c73e 72bb 51bc b4be fe3e 7f7a e13e
00000150: af61 fe3e 677f fa3e 8486 f73e 19ff ea3e
00000160: f8fc ecbf bcf8 e53e e659 7e3f 15dc d73e
00000170: 40e2 cd3c e744 d13e 1ac8 d73e 3a98 023f
00000180: ca76 e03e 0c2f 20c0 9652 f83e 5392 023f
00000190: 9b3a d83e eebc fa3e c4a0 d8bf 6852 073f
000001a0: 785b ed3c c92c ef3e aa11 dfbb dc93 f13e
000001b0: 9a8a e2bb 5a3a 3e3c 2493 e03e e0da f73e
000001c0: ab8b 8fbb 0c6f c93e b1e4 e53e 38cf f33e
000001d0: 119e fa3e 60c6 a73c c817 de3e 0c09 a3c0
000001e0: e149 ce3e 48cf e73e 1d94 653c 281f ef3e
000001f0: ad51 fb3e 71ba fd3e a948 063f 07a9 f33e
00000200: 57a7 063f 7400 033f 115a df3e a040 d93e
00000210: acb3 dd3e 8e17 f23e 87ed cf3e 87ec 043f
00000220: adad 143d a839 0d3f 7efd d53e d09d e33e
00000230: 58a0 e03e 3d83 f23e c8b1 693b 329c e63e
00000240: d8ca 923c 4b53 103f 1678 be3b db82 e63e
00000250: ee88 52bc ed1c 103f 024d fc3e 54dd e53e
00000260: 8363 883b 6d10 e93e 2f05 393c 9538 013f
00000270: c6b8 dd3e aeac e13e cd4d e23e 27fd ee3e
00000280: 2131 c73e c292 e93e a505 dfbf f595 1440
00000290: fb68 12bc 2a78 c63e 0994 133f 38c4 c93c
000002a0: 4580 083f 22da f63e da4b cf3e a37c 013f
000002b0: 07b0 c73e 4172 f23e 0fd2 d83b a2e6 f53e
000002c0: 4b60 e73e b5b7 a8bc f298 d63e 4632 ea3e
000002d0: 0b89 fe3e 0ab0 dc3e edc1 36bb 2dd7 d0bf
000002e0: 41f1 eb3e 9e19 003f 832c ef3e 90b2 043f
000002f0: 5226 853f 39a4 363f a880 ed3e ac91 f83e
00000300: c1ef 013f 902a df3e d316 e53e dd13 ef3e
00000310: 0b71 ee3e a512 fbb9 4b6d 083d 8bf5 043f
00000320: 1402 123f e734 013c 8033 0fbb fb38 fd3e
00000330: 8e8a 093f fec4 013f a2a2 413c 16c7 243f
00000340: 58ea d53e 6dd5 0b3f c0e9 eb3e c87f 013f
00000350: fa19 1240 b50c 54c0 f87b f53e d632 f53e
00000360: 58f8 df3b 1c29 003f 18fe fd3e c5f0 db3e
00000370: 7d4a fb3e 1f41 823c f033 fc3e c2ae 023f
00000380: ab60 e63e bb5b 043f 9127 b2bb b8bf d1bf
00000390: 52b7 023f 9dcb 0c3f 4877 e03e cd25 cf3e
000003a0: d24f d43e 94eb 013f ffec d93e e78f 47bb
000003b0: 8460 ed3e 31e8 583c a1f8 093f ec4c d83e
000003c0: e6e4 ec3e 952a 0a3f dea9 003f 445b 1c3c
000003d0: 539f e23e de46 f63e 44a3 0c3f d6bb 043f
000003e0: 8ce6 f23e 44ea e93e 2518 52b8 55c3 a23b
000003f0: 9664 d13e a4b6 f93e 3341 003f df35 ed3e
1.8554916 0.57229924 0.0018024123 0.0015049352 1.7294202 0.45962736 0.43097192 -0.010322344
0.5093598 0.4406632 0.020703206 0.3888015 0.4248647 0.46618667 0.4032472 0.41168198
0.5772417 0.48577386 0.45810652 0.5626074 -0.0061174044 0.46171653 -0.0051713586 0.39530942
0.46256378 0.013033774 0.41763893 0.49962017 0.4779274 0.49372578 0.4705592 0.44725817
0.40951803 0.4488275 0.54612803 0.47635272 0.38576823 0.46642566 0.4325796 0.46041706
0.4917121 0.4776313 0.47449943 0.48461545 0.4350151 -1.7808318 -0.0042979927 0.3907023
0.44603065 0.55117995 0.46939227 0.4408578 0.45884073 0.53208655 0.5128487 0.48808524
0.4861643 -0.0103999395 0.43896714 0.40589944 0.009731457 0.009864164 0.44366074 0.5352613
0.4698223 0.010116766 0.41546106 0.48422647 0.46195182 0.49710646 0.02071425 0.5318912
0.48430407 0.42521587 0.019607613 0.023267837 0.46680817 0.43229446 1.1138141 -0.021118695
0.3902958 -0.012801038 0.4975487 0.4403877 0.49683902 0.48925325 0.48344815 0.4589775
-1.85147 0.44916332 0.99355924 0.42160097 0.025132298 0.4087288 0.42144853 0.5101353
0.4384063 -2.5028715 0.48500508 0.51004523 0.42232212 0.48972267 -1.6924062 0.52860117
0.02897428 0.46713856 -0.0068075256 0.4718312 -0.0069134953 0.011610592 0.4386226 0.48409176
-0.0043806634 0.39342535 0.4490104 0.47619033 0.4894872 0.020480335 0.4337752 -5.0948544
0.4029074 0.4527533 0.014012364 0.46703458 0.4908575 0.49556306 0.5245462 0.47589895
0.5259909 0.51172566 0.43623403 0.42432117 0.4330114 0.47283596 0.40610906 0.5192341
0.036298443 0.551661 0.41794962 0.4445634 0.43872333 0.47365752 0.0035658944 0.45041043
0.017918989 0.56377095 0.005812655 0.4502171 -0.012850029 0.5629414 0.49277502 0.44895422
0.0041622533 0.45520344 0.01129274 0.5047696 0.43305033 0.44077057 0.44199982 0.46677515
0.3890467 0.4561978 -1.7423598 2.3216527 -0.008936162 0.38763553 0.5764776 0.024629697
0.53320724 0.48213297 0.40487558 0.50580806 0.39001486 0.47352794 0.006616838 0.4802752
0.45190653 -0.02059541 0.41913563 0.4574148 0.4971393 0.43103057 -0.0027886585 -1.6315666
0.460825 0.5003909 0.46713647 0.51834965 1.040232 0.71344334 0.4638722 0.4854864
0.5075646 0.4358716 0.44743976 0.46694842 0.4657062 -0.00047888342 0.033307355 0.5193717
0.5703442 0.007886148 -0.0021850765 0.49457535 0.5372704 0.5069121 0.01181856 0.6436628
0.41780353 0.54622537 0.46076775 0.50585604 2.2828355 -3.3132756 0.47946143 0.47890347
0.006835025 0.5006273 0.4960792 0.4295713 0.49080268 0.015900193 0.49258375 0.5104791
0.44995627 0.5170247 -0.0054368456 -1.6386633 0.51060975 0.5499819 0.43841004 0.40458527
0.41467148 0.5075009 0.42563626 -0.0030450763 0.46362698 0.0132389525 0.53895 0.42246187
0.46268386 0.53971225 0.50259197 0.009543244 0.4426218 0.48100942 0.54936624 0.51849115
0.47441518 0.45686543 -5.0090388e-05 0.004967133 0.40897053 0.48772156 0.50099486 0.46330163
