experiments/neural_networks/mlartifacts/408745732833894938/models/m-7e60dd02d774410eb52fce6f129db10b/artifacts/data/model.pth (torch, 13029 bytes, 9 tensors)

weight f4 [32, 15]
0	0xbe9910fa	-0.29895765
1	0x3e32803a	0.17431727
2	0xbe9f3adb	-0.3109959
3	0xbe88489f	-0.26617905
4	0x3e66d044	0.22540385
5	0x3e5cff4c	0.21581763
6	0xbd2aa9fa	-0.04166601
7	0x3eca5b92	0.39522988
8	0x3e8905e3	0.26762304
9	0x3f1c1548	0.6096997
10	0x3f6527dc	0.89513946
11	0x3f026e00	0.50949097
12	0x3f22b3fe	0.63555896
13	0x3f160a9b	0.5860993
14	0x3f6bae13	0.9206249
15	0x3e4c06a5	0.1992441
16	0x3e95b196	0.2923705
17	0x3edc3992	0.43012673
18	0x3dbab36b	0.091162525
19	0x3e018b15	0.12650712
20	0x3ec3fa4d	0.38276902
21	0x3e7e4d9c	0.24834293
22	0x3f0fe86c	0.5621402
23	0x3e470374	0.19434911
24	0x3edc7a91	0.4306226
25	0x3efab47e	0.4896583
26	0x3eb4e78a	0.353329
27	0x3f2c30e8	0.67262125
28	0x3ef97ff2	0.48730427
29	0x3dca64f4	0.098825365
30	0xbe9142ea	-0.28371364
31	0xbdb568db	-0.0885789
32	0xbdb9e7b5	-0.09077398
33	0x3d919472	0.07108392
34	0xbe2b4bcc	-0.16728133
35	0x3db439a9	0.0880006
36	0x3e60b5ba	0.21944323
37	0x3e2e5c2c	0.17027348
38	0x3f591073	0.84790725
39	0x3decad02	0.11556436
40	0x3f433238	0.762485
41	0x3ee2b936	0.4428193
42	0x3f141f81	0.5786057
43	0x3ee064f9	0.43827036
44	0x3f969167	1.1763123
45	0xbf04569a	-0.51694643
46	0xbe44fb44	-0.19236475
47	0x3e527716	0.2055324
48	0x3eb6850a	0.35648376
49	0x3b30bc14	0.0026967572
50	0x3eb94cc4	0.3619138
51	0x3e4e7e08	0.20165265
52	0xbdb82917	-0.08992212
53	0x3f1a7a8f	0.6034326
54	0x3ed81ace	0.4220795
55	0x3ee5fa75	0.44917646
56	0x3f09cb8a	0.538262
57	0x3f07484b	0.52844685
58	0x3f295d0c	0.66157603
59	0x3f91bd59	1.1385909
60	0xbdccc08c	-0.09997663
61	0x3daa593f	0.083178036
62	0xbd2248c7	-0.039620187
63	0xbe591e4a	-0.2120296
64	0x3da5fcdf	0.08104872
65	0x3da7e48a	0.08197887
66	0x3c95f4e5	0.018305251
67	0xbd159d62	-0.036527045
68	0x3f4e4fe7	0.8059067
69	0x3f090261	0.53519255
70	0x3e2cd97f	0.16879843
71	0x3f06b3c7	0.5261807
72	0x3f7b5c8a	0.9818808
73	0x3f407cc6	0.7519039
74	0x3f85891b	1.0432466
75	0x3eca6eef	0.3953776
76	0x3be6dc75	0.0070453235
77	0x3eb0b4f1	0.34513047
78	0x3ef34a8f	0.4751782
79	0xbe2f3fad	-0.17114134
80	0xbd873c61	-0.06603313
81	0x3e6925ac	0.22768277
82	0x3ed07997	0.40717766
83	0x3e4bceff	0.19903181
84	0x3ed6f453	0.4198328
85	0x3ef9e20d	0.48805276
86	0x3f0689b5	0.52553874
87	0x3e6f05e7	0.23342095
88	0x3f22fa5c	0.6366327
89	0x3f29bbf5	0.66302425
90	0xbdd7d59f	-0.10538792
91	0x3e188078	0.14892757
92	0x3e1d943c	0.15388578
93	0x3ea1ce56	0.31602734
94	0x3ee0dbdc	0.4391774
95	0x3e967699	0.29387358
96	0x3d95bce5	0.073114194
97	0x3f0635c9	0.5242582
98	0x3e972600	0.2952118
99	0xbe0a972d	-0.13534231
100	0x3e1e7934	0.15475923
101	0xbec59263	-0.38588247
102	0x3ebd679e	0.36993116
103	0xbeb661d2	-0.35621506
104	0x3ebc4ec8	0.36778855
105	0x3d692366	0.056918524
106	0x3e3a620f	0.18201469
107	0xbe960f49	-0.29308537
108	0xbe1f7cb8	-0.1557492
109	0x3ea72343	0.3264409
110	0x3ef846a3	0.48491392
111	0xbdb23d4a	-0.08703096
112	0x3ecca604	0.3997041
113	0x3ec49309	0.3839343
114	0x3ecd3e42	0.4008656
115	0x3f3837c8	0.71960115
116	0x3f4378b0	0.7635603
117	0x3e196a24	0.14981896
118	0x3f36a963	0.71352214
119	0x3f1900c2	0.5976678
120	0xbcfdfd48	-0.031004563
121	0x3ea11141	0.31458476
122	0xbe30d69a	-0.17269364
123	0xbde597a8	-0.11210567
124	0xbe535647	-0.20638381
125	0x3ce636a5	0.028102228
126	0x3d81cfbd	0.06338451
127	0x3abf1754	0.0014579096
128	0xbe4dda1a	-0.2010273
129	0xbe24b3cd	-0.16084214
130	0x3d9f4f0b	0.07778748
131	0xbeae2411	-0.3401189
132	0xbdbeaee4	-0.093107015
133	0xbd0e5436	-0.03474828
134	0xbe3a99a3	-0.1822267
135	0x3e827499	0.25479582
136	0x3e3ed9ed	0.1863782
137	0x3ece2484	0.40262234
138	0x3e3fa431	0.18714978
139	0xbd29126f	-0.041277345
140	0x3eff2223	0.49830732
141	0x3e6f42ed	0.23365374
142	0x3e068716	0.13137469
143	0xbdef2591	-0.11677087
144	0x3efae6d1	0.49004224
145	0xbd9fa7cc	-0.077956766
146	0x3eb7aefd	0.35875693
147	0x3f06b382	0.5261766
148	0xbd47bcaa	-0.04876391
149	0x3decc497	0.11560934
150	0xbe673c18	-0.22581518
151	0x3ebc2fff	0.36755368
152	0x3e98bebb	0.29833016
153	0x3e2bddf2	0.16783884
154	0x3ed93d4c	0.42429578
155	0x3d089642	0.033346422
156	0xbe6f493e	-0.23367783
157	0x3ea02ec6	0.31285685
158	0x3f388df5	0.7209161
159	0x3f5e684a	0.8687788
160	0x3ee64c74	0.44980204
161	0x3f599ec8	0.85007906
162	0x3f284fd1	0.6574679
163	0x3f55b8a3	0.8348486
164	0x3dabd4ae	0.08390175
165	0x3eacc068	0.33740544
166	0xbe2a2a0c	-0.16617602
167	0x3eadc24e	0.33937305
168	0x3e359332	0.17731932
169	0xbe24d2da	-0.16096058
170	0x3e8f85a1	0.28031638
171	0x3e1a22a7	0.15052281
172	0xbd68d28f	-0.05684143
173	0x3f0044ee	0.5010518
174	0x3ee75408	0.45181298
175	0x3f347d81	0.70504004
176	0x3ecf9f57	0.40551254
177	0x3f276140	0.65382767
178	0x3f0f62ff	0.5601043
179	0x3ee844e5	0.45365062
180	0xbe85238f	-0.26003692
181	0xbeaffb25	-0.34371296
182	0xbf13f3f2	-0.57794106
183	0xbe738cbc	-0.23784155
184	0xbec764ee	-0.3894419
185	0xbe8e63b8	-0.27810454
186	0x3c514314	0.01277234
187	0xbe850625	-0.2598125
188	0x3e27a2e8	0.16370738
189	0x3d7a5f56	0.061126076
190	0x3ea6ad5f	0.32554147
191	0x3dc35e60	0.09539485
192	0x3c8ca4b0	0.017168373
193	0x3e784ba1	0.242476
194	0x3dd1463c	0.10218474
195	0xbeada387	-0.33913824
196	0xbe93fac3	-0.28902254
197	0xbeb700d5	-0.35742822
198	0xbd947a39	-0.072498746
199	0xbe947506	-0.28995532
200	0xbabac0ad	-0.0014248096
201	0xbd10ffbd	-0.03540014
202	0x3e1a74b4	0.15083581
203	0x3eb56a6f	0.35432765
204	0x3ed7ea1a	0.42170793
205	0x3e869e65	0.2629272
206	0xbbc1945a	-0.0059075775
207	0x3e38f7ce	0.1806328
208	0x3c88334c	0.016626023
209	0xbce6f35b	-0.028192213
210	0xbe3edaec	-0.186382
211	0xbe49f542	-0.19722465
212	0xbe49fefc	-0.19726175
213	0x3e873e28	0.2641461
214	0x3e1438ab	0.14474742
215	0x3d0b61f3	0.03402896
216	0x3e8f8e16	0.2803809
217	0xbec3b9c3	-0.38227662
218	0xbbc7713c	-0.0060864966
219	0x3e07e263	0.13269953
220	0x3e207b01	0.15671922
221	0xbeba4143	-0.36377916
222	0x3d09fc3b	0.03368781
223	0xbe90e189	-0.2829707
224	0xbddc048b	-0.10743054
225	0xbee26af9	-0.4422224
226	0xbecb75bf	-0.3973827
227	0xbf1dd8da	-0.61659014
228	0xbe9c8c1e	-0.3057565
229	0x3e01e8c8	0.12686455
230	0x3dffe735	0.12495271
231	0xbe8f1796	-0.27947682
232	0xbdb3cac6	-0.0877891
233	0x3ec5ee9a	0.386586
234	0xbd84cce4	-0.06484392
235	0x3f052816	0.5201429
236	0x3f33a2dd	0.70170385
237	0x3d816ab4	0.0631918
238	0x3de6a173	0.11261263
239	0x3daaa1b8	0.08331627
240	0x3e2687e6	0.16262779
241	0x3ec68fd8	0.3878162
242	0xbe456c3c	-0.1927957
243	0xbe1802e5	-0.14844854
244	0x3e97efb5	0.2967507
245	0x3e5a5016	0.21319613
246	0x3d8ed9fc	0.06975171
247	0x3dbd58b5	0.09245435
248	0x3ee2204e	0.44165272
249	0x3f39a149	0.72511727
250	0x3eb913e6	0.36147994
251	0x3f4be07f	0.7963943
252	0x3f43a495	0.7642301
253	0x3f157f2a	0.5839716
254	0x3f057a95	0.5214017
255	0x3dcf8953	0.101336144

bias f4 [32]
0	0x3f02716e	0.5095433
1	0x3ef68ba2	0.48153406
2	0x3eeb54dc	0.4596318
3	0x3f0353c6	0.51299703
4	0x3f00d4bc	0.50324607
5	0x3ef5d81e	0.48016447
6	0x3e378da6	0.17925128
7	0x3f008a76	0.50211275
8	0xbd0a3a79	-0.03374717
9	0x3ea68366	0.32522124
10	0x3f101e8d	0.56296617
11	0x3f075e39	0.5287815
12	0x3e9af1d4	0.30262625
13	0x3e8aaa7c	0.27083194
14	0xbdce3be8	-0.1007002
15	0x3ec6b38f	0.38808867
16	0x3f0a94a5	0.54133064
17	0x3ee0578d	0.43816796
18	0x3e6e0173	0.2324274
19	0x3ed7b3a9	0.42129257
20	0x3f01ac51	0.5065356
21	0x3ed7cabb	0.4214686
22	0x3f043769	0.5164705
23	0x3eefcb0d	0.46834603
24	0x3ed18274	0.4091984
25	0x3ed13e80	0.40867996
26	0x3f036e15	0.51339847
27	0x3ed539db	0.41645703
28	0x3ece435c	0.40285766
29	0x3f00860c	0.5020454
30	0x3f0d8835	0.5528596
31	0x3f0538cb	0.52039784

weight f4 [16, 32]
0	0x3d81b02d	0.06332431
1	0xbde72ea0	-0.1128819
2	0xbe36c325	-0.17847879
3	0xbe9c0080	-0.3046913
4	0x3da4f926	0.08055334
5	0x3e9646ee	0.2935099
6	0xbe5ccc4b	-0.21562307
7	0x3dc1de9f	0.0946629
8	0x3e0eee34	0.13958055
9	0x3e7454ce	0.23860475
10	0xbddc19bc	-0.10747096
11	0xbd604d16	-0.054761015
12	0x3e485abc	0.19565862
13	0x3e347b90	0.1762526
14	0x3e9c08e9	0.30475548
15	0xbe329dba	-0.1744298
16	0x3d8e9114	0.06961265
17	0x3e616d12	0.22014263
18	0xbe9d762a	-0.30754215
19	0x3b455531	0.0030110592
20	0xbe0bcfca	-0.13653484
21	0x3e22c5d7	0.15895782
22	0xbe2299f6	-0.15879044
23	0xbc8dc57f	-0.017306088
24	0x3e19c795	0.15017541
25	0xbeca26b4	-0.39482653
26	0xbeb7e1b9	-0.359144
27	0xbe6b70f7	-0.22992311
28	0x3e2e6438	0.17030418
29	0x3e222a45	0.15836437
30	0xbe9b7e20	-0.30369663
31	0x3b5a5168	0.0033312682
32	0x3e721fd0	0.23644948
33	0x3e1e20f1	0.15442254
34	0x3f33bbd2	0.70208466
35	0x3f17ec68	0.593451
36	0x3e8ca0dd	0.2746648
37	0x3ec379fe	0.3817901
38	0x3ec9ac3e	0.39389223
39	0x3f03ec09	0.51532036
40	0xbdab5403	-0.08365633
41	0x3d90cab5	0.07069913
42	0x3f1de955	0.6168416
43	0x3ee4774d	0.4462227
44	0x3eacf3e3	0.3377982
45	0x3d646a73	0.05576558
46	0x3e8b46c3	0.27202424
47	0x3ef7a529	0.48368195
48	0x3f21d382	0.6321336
49	0x3eccee79	0.4002569
50	0x3f121a3c	0.5707128
51	0x3ee39363	0.44448385
52	0x3ecdb55a	0.40177423
53	0x3f42ad8b	0.76046056
54	0x3f2ee553	0.6831867
55	0x3e2e33d2	0.17011955
56	0x3f2936a3	0.66098994
57	0x3ecd8485	0.40140167
58	0x3e938f8a	0.2882045
59	0x3f1777eb	0.59167355
60	0x3e0e0c5a	0.13871899
61	0x3f212358	0.62944555
62	0x3f338162	0.701193
63	0x3e0067c8	0.1253959
64	0x3c6c8f6f	0.014438494
65	0x3fb606a8	1.4220781
66	0x3f0e755f	0.55647844
67	0x3e933659	0.287524
68	0x3e811d0c	0.25217474
69	0xbf8da6b8	-1.1066504
70	0x3e7feac6	0.24991903
71	0xbe3d5a21	-0.18491413
72	0x3e48f5f2	0.1962507
73	0x3e16325e	0.14667651
74	0xbeea24fd	-0.45731345
75	0xbedf8377	-0.43654987
76	0x3eee99a8	0.46601605
77	0x3f43745c	0.76349425
78	0x3ca31430	0.019907087
79	0x3f16cfd9	0.589109
80	0xbf626d47	-0.88447994
81	0xbf466bde	-0.7750834
82	0x3f0bf171	0.54665285
83	0x3d176488	0.03696111
84	0x3fff2bc3	1.993523
85	0xbe27138f	-0.16316055
86	0xbf253d7c	-0.6454694
87	0xbebf95e2	-0.3741904
88	0xbf191f25	-0.5981315
89	0x3f00921c	0.50222945
90	0xbfa19d03	-1.2626041
91	0xbeaa3b80	-0.3324852
92	0xbf803f2c	-1.0019279
93	0x3f1e5b8a	0.6185843
94	0xbf418b15	-0.7560285
95	0xbf5575f8	-0.8338313
96	0x3f39aa89	0.7252584
97	0x3e933b47	0.28756163
98	0x3e70c333	0.23511963
99	0x3e99d5a1	0.30045798
100	0x3dcd7a0f	0.100330465
101	0x3f19a98f	0.6002435
102	0x3e7df947	0.24802123
103	0x3e658d2a	0.22417131
104	0xbe6e84a3	-0.23292784
105	0x3ef3e24d	0.4763359
106	0x3eaa34b8	0.33243346
107	0x3eb7dd05	0.35910812
108	0x3db00961	0.08595539
109	0x3cf3be49	0.029753821
110	0x3e1dfc7c	0.15428346
111	0x3f02ba69	0.5106569
112	0x3e56c162	0.20972207
113	0x3ea246b3	0.31694564
114	0xbd7c13a6	-0.061542176
115	0x3e83c67d	0.25737372
116	0x3f21f266	0.63260496
117	0x3ede45fc	0.4341277
118	0x3f2b58da	0.6693245
119	0x3e80d5cf	0.25163123
120	0x3e157440	0.14595127
121	0x3d69db1d	0.05709373
122	0x3f236ae4	0.6383498
123	0x3ba31b7a	0.0049776407
124	0x3ef1bf0a	0.47216064
125	0x3ef9c2d2	0.4878145
126	0x3ee83fa8	0.45361066
127	0x3f0df05f	0.554449
128	0x3ea6a32a	0.3254636
129	0x3f08564d	0.53256685
130	0x3e0be008	0.1365968
131	0x3e99ae6d	0.3001589
132	0x3f234285	0.63773376
133	0x3edca8f0	0.4309764
134	0x3e85d279	0.2613714
135	0x3eb1c950	0.34723902
136	0xbe4196a2	-0.18905118
137	0x3ef9a3c0	0.48757744
138	0x3ebd6e13	0.36998042
139	0x3ec561c0	0.3855114
140	0x3e9c6fc5	0.30554023
141	0x3ef3ab98	0.47591853
142	0xbdb0d96e	-0.086352214
143	0x3e06c0b3	0.13159446
144	0x3f276ca0	0.65400124
145	0x3f003dab	0.500941
146	0x3d3a0e21	0.04542363
147	0x3da7475e	0.08167909
148	0x3ec7ea55	0.3904597
149	0x3f1cf38c	0.61309123
150	0x3ed8797c	0.42280185
151	0x3f105783	0.5638353
152	0x3d644e3b	0.05573867
153	0x3eebf429	0.46084717
154	0x3dd48bec	0.103782505
155	0x3ef2764c	0.47355878
156	0x3f0cfb02	0.5507051
157	0x3f06f5db	0.52718896
158	0x3f238123	0.6386892
159	0x3e03341d	0.12812848
160	0xbccc621b	-0.024949124
161	0xbd30714a	-0.04307679
162	0x3ef6126b	0.48060927
163	0x3ecf34de	0.40470022
164	0xbcfe5d1f	-0.031050263
165	0x3ef1bba9	0.47213486
166	0x3f230eba	0.63694346
167	0xbd3ae61b	-0.045629602
168	0x3e96b800	0.29437256
169	0x3e83dc9d	0.25754252
170	0x3ebefaa4	0.373006
171	0x3f1bc725	0.60850745
172	0x3ec59d88	0.3859675
173	0x3e799295	0.24372323
174	0x3eba9a6b	0.36445937
175	0x3e76d241	0.24103643
176	0x3eb64488	0.3559916
177	0xbd8ce52a	-0.06879647
178	0x3dfaa227	0.12237959
179	0x3dbfd5f7	0.093669824
180	0x3ed53dc0	0.41648674
181	0x3eac762c	0.33683908
182	0x3ea83a6c	0.32857072
183	0x3c4287f8	0.011873238
184	0x3c2298e6	0.009924149
185	0x3ec9ef38	0.39440322
186	0x3ef3d74c	0.47625196
187	0x3ee46471	0.4460788
188	0x3daa49ee	0.08314882
189	0x3e56a084	0.2095967
190	0x3e3ba4d3	0.18324594
191	0x3f17119b	0.5901124
192	0xbe1c49a6	-0.1526247
193	0x3e640912	0.22269085
194	0x3e799f96	0.24377283
195	0xbea58d65	-0.32334438
196	0x3b0d7e80	0.0021590292
197	0xbd89e730	-0.06733549
198	0xbe4824a0	-0.19545221
199	0x3e1c4c66	0.15263519
200	0xbd2ff190	-0.04295498
201	0x3e9e7be1	0.30953887
202	0xbe6299f8	-0.22129047
203	0x3e2836ee	0.16427204
204	0xbe9a8d90	-0.3018613
205	0xbe35762d	-0.17720862
206	0x3cc590e0	0.024116933
207	0x3e8f05ab	0.27934012
208	0x3e3eb156	0.18622336
209	0xbe94a1e1	-0.29029754
210	0x3d2067d0	0.039161503
211	0xbe556b09	-0.20841612
212	0x3c7afe20	0.015319377
213	0xbe96cd68	-0.29453588
214	0xbdd46cd2	-0.10372318
215	0x3e784f6a	0.24249044
216	0xbea6177f	-0.324398
217	0xbeac9683	-0.3370858
218	0x3d83e2f4	0.06439772
219	0x3d4684f8	0.048466653
220	0xbd846c5c	-0.064659804
221	0x3e9e117b	0.30872712
222	0xbe59fabf	-0.21287058
223	0xbe5bc959	-0.21463527
224	0xbea993dc	-0.3312062
225	0xbdc44370	-0.09583175
226	0xbe247264	-0.16059262
227	0x3e179b08	0.14805233
228	0xbdb9f8c4	-0.090806514
229	0x3da57315	0.08078591
230	0xbe167295	-0.14692147
231	0x3e618e03	0.2202683
232	0x3e989a4b	0.29805216
233	0xbea21d84	-0.31663144
234	0xbe1ca1c4	-0.15296084
235	0xbeba3eb2	-0.36375958
236	0x3dac4c86	0.08413033
237	0xbeb736fa	-0.3578413
238	0xbe2b2d19	-0.16716422
239	0x3e906779	0.28203943
240	0xbecf4a20	-0.4048624
241	0x3e858e8f	0.26085326
242	0xbd1c5c39	-0.038173888
243	0x3e5ff543	0.21870904
244	0xbe5eb03e	-0.21746919
245	0x3e28ec9f	0.16496514
246	0xbc2a9bca	-0.01041312
247	0x3cdec320	0.027192652
248	0x3e31f180	0.17377281
249	0xbeced71b	-0.40398487
250	0xbea12d21	-0.31479743
251	0x3ea16fb2	0.3153053
252	0xbe8210ac	-0.25403345
253	0xbea6efd2	-0.32604843
254	0xbda16273	-0.07880106
255	0xbe27a6dc	-0.16372246

bias f4 [16]
0	0xbd6de7e8	-0.05808249
1	0x3ed6c451	0.41946653
2	0x3e9cc71d	0.3062066
3	0x3edba39f	0.4289827
4	0x3eda57f9	0.42645243
5	0x3eb1ceb3	0.3472801
6	0x3c23d70a	0.01
7	0xbd6f8874	-0.05847974
8	0xbc817e39	-0.015807258
9	0x3c23d70a	0.01
10	0xbceed6af	-0.029155103
11	0xbd55e7f2	-0.052223153
12	0x3ed4cd37	0.41562817
13	0x3ed7e293	0.4216505
14	0x3ed0c3fd	0.40774527
15	0x3ed9d8a5	0.425481

weight f4 [8, 16]
0	0xbcfbd35e	-0.030740436
1	0x3ec5f184	0.38660824
2	0xbf269700	-0.6507416
3	0x3e9356a8	0.2877705
4	0x3f41dc23	0.75726527
5	0xbd976dd1	-0.07393993
6	0x3e798d44	0.24370295
7	0xbe874646	-0.26420802
8	0xbed31045	-0.4122335
9	0xbdd23948	-0.10264832
10	0x3e987d0a	0.29782897
11	0x3ec7cb1b	0.39022145
12	0x3eff77a4	0.49895966
13	0x3ea352b1	0.31899026
14	0x3eb01c10	0.3439641
15	0x3e2f32d8	0.17109239
16	0xbd37c840	-0.044868708
17	0xbd0d8120	-0.03454697
18	0x3ed9d8b0	0.42548132
19	0x3e95d290	0.2926221
20	0xbeccdb7a	-0.40011197
21	0x3b078d00	0.0020683408
22	0xbe9d7538	-0.30753493
23	0xbda28cf8	-0.07937044
24	0xbecb75ec	-0.39738405
25	0x3e0519a0	0.12998056
26	0xbeb89892	-0.36053902
27	0x3efcba84	0.4936105
28	0x3ec154f4	0.37760127
29	0xbeb0384a	-0.34417945
30	0xbef103c8	-0.47073197
31	0x3c9fd100	0.019508839
32	0xbdaacae2	-0.08339478
33	0x3ef36232	0.47535855
34	0xbf8dfc0d	-1.1092545
35	0x3ee570df	0.44812676
36	0xbe2b0ace	-0.1670334
37	0xbd480c34	-0.048839763
38	0xbe869464	-0.26285088
39	0x3e94db67	0.2907364
40	0xbc567a00	-0.0130906105
41	0xbef605f8	-0.4805143
42	0xbe9234ec	-0.28556
43	0xbe80baa8	-0.25142407
44	0xbe04aef6	-0.12957367
45	0x3ec982ac	0.39357507
46	0x3f0273be	0.5095786
47	0x3e7d96e6	0.24764594
48	0xbe0aa4db	-0.1353945
49	0x3ebb015a	0.3652447
50	0xbf957395	-1.1675898
51	0x3d58a287	0.052889373
52	0x3eadeae7	0.3396828
53	0x3f481703	0.78160113
54	0xbe1d71bc	-0.15375417
55	0x3ea45e4b	0.3210319
56	0xbe2f123d	-0.17096801
57	0xbe084b14	-0.1330989
58	0xbed84927	-0.4224331
59	0x3eeed21d	0.4664468
60	0x3f5a987a	0.8538891
61	0x3eb41e56	0.35179394
62	0x3f2f0251	0.6836291
63	0x3f474f62	0.77855504
64	0x3e48f724	0.19625527
65	0x3e3f3cb9	0.18675508
66	0xbef3b5a8	-0.4759953
67	0xbf0ca634	-0.54941106
68	0xbeed61cc	-0.46363676
69	0x3db7e17c	0.089785546
70	0xbedd6f1c	-0.43248832
71	0xbee0f612	-0.43937737
72	0xbe894c16	-0.2681586
73	0xbeebf392	-0.46084267
74	0xbd1e2758	-0.03861174
75	0x3cfc2cb5	0.030783037
76	0xbeb94f44	-0.36193287
77	0x3e80fe1c	0.2519387
78	0xbe840da3	-0.25791654
79	0xbe566b1c	-0.20939296
80	0x3ea98d8e	0.3311581
81	0x3eb799cc	0.35859525
82	0xbd6af290	-0.057360232
83	0xbec7269d	-0.38896647
84	0xbea531a1	-0.32264426
85	0x3bbd555b	0.0057779974
86	0x3e9610b6	0.29309624
87	0x3e4245be	0.18971917
88	0xbe621718	-0.22079122
89	0xbef2038c	-0.4726833
90	0xbeed6c55	-0.46371713
91	0xbe468ddc	-0.19390053
92	0xbd887145	-0.066622294
93	0xbe9862d1	-0.2976289
94	0xbeeeb0ce	-0.46619266
95	0xbc138f49	-0.00900633
96	0xbecb3298	-0.39687037
97	0xbec496ae	-0.3839621
98	0xbed01d3a	-0.40647298
99	0xbe0abd08	-0.13548672
100	0x3ee21d34	0.44162905
101	0x3e482694	0.19545966
102	0xbd72d450	-0.05928451
103	0x3dd2c030	0.10290563
104	0x3e4be210	0.19910455
105	0x3b3eea00	0.0029131174
106	0xbece7ba8	-0.40328717
107	0xbe9db98e	-0.3080563
108	0xbeadea10	-0.33967638
109	0xbc500380	-0.012696147
110	0xbeea57c4	-0.45770085
111	0xbdba2f50	-0.090910554
112	0xbe00493b	-0.12527935
113	0x3f5ce78b	0.86290807
114	0xbeba4e49	-0.36387852
115	0x3f265635	0.6497529
116	0x3ec57020	0.38562107
117	0x3e360d5a	0.1777853
118	0x3e029898	0.12753522
119	0xbe922d6b	-0.28550276
120	0xbe3ff189	-0.18744482
121	0xbdcdb4e8	-0.10044271
122	0xbd839bc2	-0.06426193
123	0xbed8346a	-0.4222749
124	0x3f137f25	0.5761588
125	0x3f46d3d7	0.7766699
126	0x3dcd6c01	0.10030366
127	0x3f04038b	0.51567906

bias f4 [8]
0	0x3ecf6ec7	0.40514204
1	0x3c23d70a	0.01
2	0x3ed18bb3	0.40926895
3	0x3ec7d9be	0.39033312
4	0xbd764c7b	-0.06013153
5	0xbd707491	-0.058704916
6	0x3c23d70a	0.01
7	0x3ebc9441	0.3683186

weight f4 [4, 8]
0	0x3e8f6251	0.28004697
1	0xbcd34560	-0.025789917
2	0x3ec0d841	0.3766499
3	0x3f7c646b	0.98590726
4	0x3e297510	0.16548562
5	0xbec7dbd3	-0.390349
6	0xbe823aef	-0.25435588
7	0x3f37189f	0.71521944
8	0x3f1493a3	0.58037776
9	0x3c612ac0	0.013743103
10	0x3e77ac7a	0.24186888
11	0x3dbf3961	0.09337116
12	0xbe322b78	-0.17399395
13	0xbead284d	-0.3381981
14	0x3ded4c10	0.115867734
15	0x3f10d827	0.5657982
16	0x3f46d368	0.7766633
17	0xbe23942c	-0.15974492
18	0x3e6d44ec	0.23170823
19	0x3f304c3f	0.6886634
20	0x3e7b963d	0.2456903
21	0x3d1b4cc7	0.037915017
22	0x3e5e7e54	0.21727878
23	0x3e88d565	0.26725307
24	0xbf2a0cf4	-0.66426015
25	0x3cdf4fe0	0.027259767
26	0xbe5be59d	-0.2147431
27	0x3f136e37	0.5759005
28	0x3f14d799	0.58141476
29	0x3dac8f8b	0.08425816
30	0x3f21cbaf	0.6320142
31	0xbedadf48	-0.42748475

bias f4 [4]
0	0x3ea8b609	0.32951382
1	0x3eabf6ce	0.33586735
2	0x3e8d6048	0.2761252
3	0xbd4ed2f1	-0.05049414

weight f4 [1, 4]
0	0x3fa919d5	1.3211008
1	0x3fa69a6e	1.3015878
2	0x3ea5ce0f	0.32383773
3	0xbf53d6cb	-0.82749623
