experiments/neural_networks/mlartifacts/408745732833894938/models/m-59ca4cae514e49acaa55ecbd238c9e0b/artifacts/data/model.pth (torch, 12517 bytes, 9 tensors)

weight f4 [32, 11]
00000000: d612 fabe 971f 633e 0204 143e e453 6fbe
00000010: 175b bc3e 5796 003f 06cf 7a3e dcba de3c
00000020: e3e4 813f 710f 583f e1aa 8d3f 991c aebe
00000030: 39a8 633e 8b66 e9be ccc5 d03e 6c13 c1bd
00000040: 1858 8b3e 1cf4 393e 9610 823e 2d61 073f
00000050: b43e 283f b555 003f 3fa7 93be 5954 c4bd
00000060: c1a1 a33e 2046 25bd d23b 603e 8be0 67bd
00000070: 91ac be3e 5913 ab3e 7750 633f 55ca 123f
00000080: bbb3 633e 1daa 753b d176 66be dd08 8e3e
00000090: 0276 b6be 69a7 613e fb58 cc3e d714 5b3e
000000a0: 5c91 263e 7b5b b33e 7ad1 6f3f 8828 e93e
000000b0: e53d c5be 47e3 e33e cecd 51be ddc2 983d
000000c0: 74bb f43e e30b 04be a116 ccbd 9402 853e
000000d0: d618 183f 4828 373f ba0a 083f a557 2fbd
000000e0: 56c5 c2bd 69af 68be a2be 7ebe 325a b73e
000000f0: 5774 6a3e 0b3d 1ebe 0f01 003f cf17 3f3f
00000100: 9216 393f bd92 1b3f 4ac5 9c3e 7d63 113f
00000110: f289 e43e 0b06 81bd 2b76 1c3f a7bd 973e
00000120: fa29 cc3e a915 083f 75b8 673f e4a3 233e
00000130: fc92 463f db25 89be 1a39 023e 62ef 95be
00000140: 4cdf 2d3d f0cd 103e fa4e da3d 5094 023e
00000150: 2410 803e 1eea 833f 7838 4c3f f782 793f
00000160: 9b55 883e 1e47 c53e 62c2 7a3d 6c6a 053e
00000170: 2f82 503e 6ebb 61be b681 2dbe 9071 403e
00000180: e4bd 0d3f 60bc 403f a492 da3e c24a 13bd
00000190: c96e 903e d86e 53be b31c b13e 4ffb d13e
000001a0: 28f1 4dbe 3b42 22be 37ed 1dbe 0eb7 ce3e
000001b0: 5b52 db3e ea98 3b3f 8150 25bc eeba ebbd
000001c0: 884a c0bd c798 1abd 491d 0a3f b274 843c
000001d0: 6fe8 01be 7efe aa3e 7bb8 0e3f 0cdf 683f
000001e0: ba7e 2d3f 9ff9 113f 9a54 93bd a7e6 e43e
000001f0: 2f5a 053f 9cd9 933d 68da 143f b677 003f
00000200: 8c23 6f3e 9172 483f 8fe2 023f 843e 673d
00000210: 1901 093e e54c 1f3e ec68 62be bdbf 6f3e
00000220: 63ea 5dbe c762 ce3e 4491 e03e a0ba 413e
00000230: 2aed 0d3f 7811 763f 9a41 1b3f ca8e f43d
00000240: dc8b 113e 9470 933e 6e57 0ebe 2ee4 4cbc
00000250: d222 173e 499b b83d 59a7 b53e 7c07 013f
00000260: eae2 233f e378 0c3f fb6e 28be 3665 9b3e
00000270: e768 cfbc 77c3 90be c4d1 8c3d 095e a3bd
00000280: 0d03 293e 822f d93d 1a51 703e d982 0c3f
00000290: 4bf8 443f 20b4 b53d 825b 073f 492e cb3d
000002a0: fdb7 dc3e f69f a43e fee5 d2bd ba47 963e
000002b0: 11dd 053f 4a54 bd3e 8d09 cb3e ef69 5b3f
000002c0: cc3f 2e3e 9f8e 3bbe 4d9c f33d 076b b1bc
000002d0: 2b87 82be 0226 ca3d 2e82 7f3e 588d f63c
000002e0: 9968 403f 6d7e 793e d6ae 6e3f ec43 5f3e
000002f0: 5669 5d3e af75 16bd dfec 153e 1bb7 40be
00000300: 8e91 f8bc d415 7b3d c744 b6bd 4e48 8b3e
00000310: a792 2b3f 02f5 3d3f a1cd 06bf 9b32 f6bb
00000320: d598 2abe 52de 6b3e 9071 433e c1fd 663e
00000330: 4caf a7bd 89a6 9f3e 4351 473f 0a01 7a3e
00000340: c2f7 853d 890a 493d 9495 283e 3c39 50be
00000350: fe25 ba3b cf05 92bc 6a3e a23d b73c 80be
00000360: dc20 2b3e f166 713d d513 94be af76 d6bd
00000370: 32c7 1f3e 9f1e 883e c01a fd3e e453 873e
00000380: 8a73 043e 1a40 083f 99e9 023d a275 9d3d
00000390: f92c 383f ad55 c83e fc41 ff3e 0e42 32be
000003a0: af35 893d 0e85 3c3d a872 e13d d9e9 6abe
000003b0: 474b 87be 63c5 6a3e 4225 d93e 7f53 743e
000003c0: 7f5b 613f aad2 d63d 732e 693e 21a5 083f
000003d0: 9aac f13e d550 aebd d079 f73e 147a d73e
000003e0: be3c 553e ee18 133f cdd9 ee3e 5368 1e3f
000003f0: 6902 553e ffe7 5fbc 96f8 203e 5f86 fabc
-0.48842496 0.2218002 0.14454654 -0.23371845 0.36788246 0.502294 0.24493036 0.02718871
1.0147976 0.8439856 1.1067773 -0.34006193 0.2223214 -0.45586047 0.40775907 -0.094275326
0.27215648 0.18159527 0.2540328 0.52882653 0.6572068 0.5013078 -0.28838536 -0.095864005
0.31959346 -0.04035008 0.2189782 -0.056610625 0.37241033 0.334132 0.88794655 0.57339984
0.2223653 0.0037485429 -0.22506262 0.27741137 -0.35636908 0.22036518 0.39911637 0.21394669
0.16266388 0.35030732 0.9367901 0.45538735 -0.38523784 0.44509336 -0.20488665 0.07459042
0.47799265 -0.1289516 -0.099652536 0.2597853 0.59412897 0.7154584 0.5314137 -0.042808194
-0.09510295 -0.22723164 -0.24877408 0.35811 0.22895943 -0.15452974 0.50001615 0.74645704
0.72300065 0.6077078 0.3061927 0.5679243 0.44636494 -0.06299981 0.6111781 0.2963688
0.39875776 0.5315805 0.90515834 0.15980488 0.7756803 -0.26786694 0.12717095 -0.29284197
0.04244928 0.14141059 0.10659595 0.12751889 0.25012314 1.0305822 0.79773664 0.9746546
0.26627812 0.3853082 0.061220534 0.13028878 0.20362161 -0.22044155 -0.16944012 0.1879332
0.55367875 0.7528744 0.42690003 -0.035959966 0.28209522 -0.20647752 0.34592208 0.41012046
-0.20111525 -0.15845577 -0.15422522 0.40374035 0.4283627 0.73280203 -0.010089994 -0.115102634
-0.09389216 -0.037743356 0.53950936 0.016168926 -0.12686323 0.33397287 0.55750245 0.9096534
0.67771494 0.57021517 -0.07193871 0.44707224 0.52090734 0.0721924 0.5814576 0.50182664
0.23353404 0.78299814 0.5112695 0.056456104 0.13379325 0.15556677 -0.22110337 0.23412986
-0.21671443 0.40309736 0.4386083 0.18918848 0.5544001 0.96120405 0.60646975 0.11941297
0.14213508 0.28796828 -0.1390054 -0.012505574 0.14759377 0.09013993 0.3547924 0.50402045
0.6401812 0.5487196 -0.16448586 0.30350655 -0.025318576 -0.28274128 0.06875947 -0.0797692
0.1650507 0.106047645 0.23468438 0.5488716 0.76941365 0.08872247 0.52874005 0.099209376
0.43109122 0.3215329 -0.10297774 0.29351598 0.52290446 0.3697837 0.39655724 0.85708517
0.17016524 -0.18316124 0.118950464 -0.02165748 -0.2549375 0.09870531 0.24952003 0.030096695
0.75159603 0.24364634 0.9323553 0.21803254 0.21622214 -0.036733326 0.1464114 -0.18819849
-0.030342843 0.061300114 -0.08899837 0.27203602 0.6702065 0.7420198 -0.52657515 -0.007513357
-0.16659863 0.23034027 0.1908629 0.22557737 -0.08187732 0.31181744 0.7785837 0.24414459
0.06541397 0.049082313 0.1646331 -0.20334333 0.0056807986 -0.017825035 0.07922061 -0.25046322
0.16711754 0.058936063 -0.2892138 -0.10471856 0.1560333 0.26585862 0.4943447 0.2643119
0.129347 0.5322281 0.031961057 0.07688452 0.7194362 0.39127865 0.4985503 -0.1740801
0.066996925 0.04602533 0.11008197 -0.22940768 -0.2642462 0.2292686 0.42411238 0.23859976
0.88030237 0.104894 0.22771625 0.53376967 0.47201997 -0.08511511 0.48335123 0.42085326
0.20823953 0.57459915 0.46650544 0.61877936 0.208017 -0.013666152 0.15719828 -0.030581651

bias f4 [32]
00000000: 035f 603f 55a9 3f3f c2a3 4d3f 97d3 2f3f
00000010: cf71 5e3f 1ed2 593f 1b46 103f e6fe 533f
00000020: a18a 403f 8740 4f3f 9d04 2a3f 3102 1e3f
00000030: 8aa5 513f 4627 333f 7075 563f 792b 263f
00000040: 9e92 4d3f b2ff 143f 57d9 3b3f 167d 36be
00000050: 6dd2 2f3f 98f1 2a3f 5799 263f 2c2a 543f
00000060: 5ecd 4c3f d369 3e3f 4d93 283f dc43 4a3f
00000070: 0460 403f e84b 553f aaf2 293f 210a 183f
0.87644976 0.74867755 0.80328 0.68682235 0.8689241 0.8508624 0.5635697 0.8281082
0.7521153 0.80957836 0.6641329 0.61722094 0.8189322 0.699818 0.83772945 0.64910084
0.80301845 0.5820266 0.7337851 -0.17821154 0.6868046 0.6677489 0.6507773 0.8287685
0.80000865 0.74380225 0.65849763 0.79009795 0.7514651 0.8331895 0.663859 0.59390455

weight f4 [16, 32]
00000000: c1b3 bbbd 5318 07be b0a0 b3be f6b4 ddbe
00000010: 6c91 99be 9309 903d deb8 8c3d 74f3 c6be
00000020: f413 63be a5bb 15be 895c c2be 6116 da3d
00000030: 3331 673e 4831 d9bc 2ade bbbe f048 3fbc
00000040: d031 0a3d c1a3 4c3e 97ea 8bbe 64df c2be
00000050: c374 793d 5604 d3bc 6720 56be 7e93 81be
00000060: 53ad 82be cce9 423e 8a73 1ebe 11f9 4f3e
00000070: 7c7f 463e 56ff 48bd 51ec eebc 51da efbd
00000080: 2008 593f 5f72 383e d3aa 0a3f 8d08 963e
00000090: 54ea 113f cd36 ce3e 2bd5 333e 21f9 c13e
000000a0: 6c36 0e3f f8e6 b33d 2c4a 923e f77d 673e
000000b0: 2112 513e fc12 e63e 0747 103f 9c5d 853e
000000c0: 84d7 313f 2635 093e 1cd1 db3e c7ee ab3a
000000d0: 8c18 6c3d 61a9 1e3e f542 8cbc 2b25 ba3c
000000e0: eb04 fcbe cc44 153f 698d 273f ba47 583f
000000f0: 5186 8e3e 36ea da3e d1d8 0c3e 8ec6 da3e
00000100: d82e e03d 90f9 fd3e 6d65 493e 2a18 1f3e
00000110: 4ebe d03e dece d23d 024f 9c3e 2070 df3e
00000120: 89f5 a63e 4ddf 7c3e 8281 f23e df18 753e
00000130: 3980 5c3e 3527 9d3e 9597 8c3d 8c52 713e
00000140: be80 943e c5b7 8c3e 7ed0 183f e2e3 00bc
00000150: 2330 f6bd afbd fa3d 1702 c43d af61 6f3e
00000160: 5557 7dbf 0782 bc3e b37c 6a3e d700 543e
00000170: 5271 b23d c169 373e bdcb e4bd 8227 323d
00000180: 3a6a f93e 2475 9c3e c9ba 763e efc3 5e3e
00000190: 789a 3e3f d8da 083f 66f0 213f 5554 023f
000001a0: f557 da3e 0a81 f53e 5da8 0f3f 140b b7bb
000001b0: d7dd e93d 9cf1 5a3e a799 a93e ae13 d93e
000001c0: 6648 fd3e b527 0e3f 56ca 2d3f ffce 803b
000001d0: ea39 b43c a0f0 f33d 0ff9 863d 948b e13e
000001e0: cd08 d4be 0148 2a3f c675 3b3e 1d0e 033f
000001f0: 764a 463e 5e53 b63e 3e74 e73e c6f0 863e
00000200: 7955 3a3a 7076 373d 7b55 e73d a0af dbbd
00000210: 2588 71be 92a7 803d eb1a 6abd ef0b 35be
00000220: a55b cf3d 8022 523b c0a7 52bd b85c 43be
00000230: 7f0c dcbd 2314 aabe 78b8 a43d 5686 28bd
00000240: 9262 413e 1004 bb3c 539e ca3c 5126 d73d
00000250: 063a 7a3e 8b15 2bbe e6ed 3f3e 7b35 073d
00000260: a685 71be 9447 8e3d 0097 84be a1f3 03be
00000270: 2e83 4bbe b29e 8abe cf90 8e3e 07de b9be
00000280: d1ea 433f a59e 193e f7d0 ac3e e8bf ac3e
00000290: 608e 283f a2fa 8b3e fcaf cf3e 0a76 f03e
000002a0: afd2 0d3f e102 b63e 9016 203f 0d0f 933d
000002b0: 73f5 bb3d 1a9b 1f3f 2f6b 8b3d a4d0 743e
000002c0: 6b9d a23e cb59 233f 7bae 0d3f 1f1f e9bd
000002d0: 130e 553e 503d 113f fe1c d53e 8ea6 203f
000002e0: da61 2bbf b04b 083f ecc4 07bd 3538 2e3f
000002f0: 4195 ec3e 12da 153f 8e29 0a3e 5a16 273e
00000300: 300e 203f c9a4 333e 0fef 4e3d 71d4 17be
00000310: fe8f a63e 42ec 083f 2392 933e c7b0 a63e
00000320: 577d a13e 12f1 afbc 3957 d03e b583 043e
00000330: 156e 463d 7ec7 f33e a0b8 bebd 5ae8 4a3e
00000340: 13f8 b7bd 46a2 093e 3102 e53e 145f 673e
00000350: d4db 0ebc efda d93e 07bb fdbd 3774 cc3e
00000360: c732 6cbf 9aa1 e83e 44bb a73d a05a db3e
00000370: 74db a73d a17f e43e eb13 843e b99a 28be
00000380: 176e e4bd f756 1bbf a6f4 53be bf96 3bbc
00000390: 0fb4 d3be 434b b0be a1ac 2b3d ecc2 a2be
000003a0: 9760 32bf e880 e93e 87f2 c33c 2762 593c
000003b0: 3664 c2be 85c5 3e3e 12b4 2fbd 3375 32be
000003c0: 3884 f0bd 9ef3 153e 03ca 153e 94f9 0ebd
000003d0: e29f be3d 04e2 aabf 79c0 9bbd 4266 10be
000003e0: aea8 423d e3b4 a7be 582d 4bbe ab0f b5bc
000003f0: 9e97 263f 20eb 84bd 07a5 adbf a2f7 e5bc
-0.09165145 -0.13192873 -0.35083532 -0.43302125 -0.2999376 0.07033076 0.06871198 -0.38857615
-0.2217558 -0.14622362 -0.37961224 0.106488 0.22577362 -0.026512757 -0.36692935 -0.0116751045
0.03373891 0.19984342 -0.27327415 -0.3806106 0.06090237 -0.025758903 -0.20910798 -0.2530784
-0.2552286 0.19034499 -0.15473762 0.20309855 0.19384569 -0.049071632 -0.029165419 -0.117115624
0.8477802 0.18012379 0.5416691 0.293034 0.5699818 0.40276185 0.17561786 0.37885383
0.5555179 0.08784288 0.28572214 0.22606646 0.20417072 0.4493636 0.5635838 0.2604798
0.69469476 0.13399181 0.42932975 0.0013117426 0.057640597 0.154943 -0.017121771 0.022722801
-0.49222502 0.583081 0.6545015 0.84484446 0.2783685 0.42756814 0.13754584 0.4272961
0.10946435 0.49604464 0.19667597 0.15536562 0.4077019 0.10293363 0.30529028 0.43640232
0.32609203 0.24694557 0.47364432 0.23935269 0.21533288 0.30693975 0.068648495 0.23566645
0.29004472 0.27483955 0.59693134 -0.0078668315 -0.120209 0.122432105 0.09570711 0.23377107
-0.98961383 0.36817953 0.22899131 0.20703445 0.087130204 0.17911436 -0.111716725 0.04349471
0.48713857 0.3055812 0.2409469 0.2175443 0.7445445 0.5345893 0.63257444 0.5090993
0.4264523 0.47950011 0.56116277 -0.0055860374 0.11419266 0.21381229 0.3312504 0.42397827
0.49469298 0.5552934 0.67886865 0.003930926 0.022000272 0.1191113 0.06590473 0.44051802
-0.41412964 0.6651612 0.18306646 0.5119341 0.19364342 0.3561048 0.45205873 0.2635557
0.00071080733 0.044790685 0.11295601 -0.10726857 -0.23587091 0.062819615 -0.057154577 -0.17680334
0.10124902 0.003206402 -0.05142951 -0.19078338 -0.10744571 -0.33218488 0.08042997 -0.041143738
0.18885258 0.022829086 0.024733698 0.10505355 0.24436197 -0.16707437 0.18743095 0.033009987
-0.23586139 0.06947246 -0.25896454 -0.12885906 -0.1987426 -0.270742 0.27844855 -0.36302206
0.76530176 0.15001924 0.33753178 0.33740163 0.65842247 0.27339655 0.40563953 0.46965057
0.553996 0.3554907 0.6253443 0.07180605 0.09177675 0.6234604 0.06807553 0.23907715
0.31760725 0.6380889 0.5534436 -0.11382889 0.2080615 0.5673418 0.41623682 0.6275414
-0.66946185 0.5324049 -0.033146784 0.68054515 0.46207622 0.58535874 0.13492414 0.1631712
0.6252165 0.1754333 0.050520953 -0.14827134 0.32531732 0.534855 0.2882243 0.32556745
0.3154094 -0.021477256 0.40691546 0.12940867 0.048444826 0.47613138 -0.09312558 0.19815198
-0.08982863 0.13440809 0.44728234 0.22594863 -0.008719403 0.42549846 -0.12389188 0.39932415
-0.9226498 0.45435792 0.08190015 0.4284258 0.08196154 0.44628623 0.25796446 -0.16465272
-0.111538105 -0.6067957 -0.20698795 -0.011449515 -0.4134831 -0.3443242 0.04191268 -0.3178934
-0.69678634 0.4560616 0.023919357 0.01326803 -0.3796708 0.18630035 -0.042896338 -0.1742752
-0.11743969 0.14643714 0.14627843 -0.034905985 0.09307839 -1.3350224 -0.076050706 -0.14101508
0.047524147 -0.32755193 -0.19841516 -0.022102198 0.650751 -0.06490159 -1.3565987 -0.028072182

bias f4 [16]
00000000: e435 aabd d9c0 1e3f fabe c33e 658c 1c3f
00000010: 0e63 02bb 741b 1e3f eea8 183f 06ff a4bd
00000020: a2c7 1a3f 0456 e7bd c6e6 223f 3f4a 173f
00000030: d7e3 1d3f 99e1 153f 0cbd 173f 2a5c 3dbd
-0.0831106 0.6201301 0.3823164 0.61151725 -0.0019895467 0.6176064 0.59632766 -0.08056454
0.60460865 -0.11295703 0.6363338 0.59097666 0.6167578 0.5854736 0.5927284 -0.046230473

weight f4 [8, 16]
00000000: 6818 8cbd 3dbf b9be 1847 1c3e 9783 eabe
00000010: a0df 253d c727 873e 07d3 8b3d 7e45 1e3d
00000020: edb3 393d c573 32be f811 c3bd 575e 74be
00000030: 812a bbbe 708a 87be 3dd7 ee3e 805f abbd
00000040: c807 833e 073a 433f 2aa1 b13e 53e8 183e
00000050: 1ee8 85be c924 773e ae57 1b3f 1b34 58bf
00000060: a55d b63e 341b 9a3e b969 433f 6e9f 0b3f
00000070: b432 063f 174d 393f 1e6b 273f 72ac 623e
00000080: 6cbe 1ebe 3e49 cdbe a82f ddbd 70b7 b9bd
00000090: 4066 163d 503d 61bd e8fe 4e3e f41f aa3e
000000a0: 4093 4fbe 88e8 f2be e057 83be dcfa 74be
000000b0: 701c 913e 9421 a5be 00a1 40bd 9006 d9bd
000000c0: ea5f 9bbe ddec a03e 3656 2abe 3903 6f3d
000000d0: 5cfd b3be a61c 0a3d e959 0d3e 6ccb 123d
000000e0: 547b e2bd eac9 603e 70a8 04be 4da5 80be
000000f0: 2af8 a9be 124a 35bd d72e d4be 2aa6 f03e
00000100: 0cd8 1fbe 856f 563e bd7a d83e b274 0c3f
00000110: 9c68 f13c 1ba2 443f 34e8 093e 300a f4bb
00000120: 45d9 d43e c0dd 97be 6b24 293e 8e26 053f
00000130: 035b 053f 3550 3e3f ec6d 423f 2e8f 5fbe
00000140: 9ca3 5abe 5f59 2fbe 1bbc d8be 2654 31be
00000150: 5bf0 e3be 21a4 1b3e 9c22 b53e 6e7c 393b
00000160: 576e d5be da9a dcbe dc69 69be f4e0 a53d
00000170: 336d cfbc d764 cc3c e369 de3e 58cb 6d3e
00000180: 2745 d23c 6dfe 49be 3d8e 053e 1ca8 0a3e
00000190: 1a6d e6be cd29 adbe 2ce9 cebc f385 f73d
000001a0: bf5a 4c3e 58bc c9be 64d0 14bf 9f6c 0dbe
000001b0: 8de3 bbbd 13b7 083d 6cff 26be 314d ae3e
000001c0: 74d2 e33d 9e6f 483f ad01 dd3c fd8e 1e3f
000001d0: ada5 0b3e d8f5 333e 6519 2c3f 7cb9 a3bf
000001e0: a65f 523f e37d 1c3e 1815 d03e 197e 1c3f
000001f0: c659 ef3e 8ea1 133f 2748 3e3f 18e7 adbe
-0.068405926 -0.36278716 0.15261495 -0.4580352 0.04049647 0.26397535 0.0682736 0.03864049
0.045337606 -0.17426975 -0.09524912 -0.23864113 -0.36555865 -0.26472807 0.4664859 -0.083678246
0.25591874 0.7626042 0.3469327 0.14932375 -0.26153654 0.24135126 0.60680664 -0.84454507
0.3561832 0.3009888 0.76333195 0.54540145 0.52421117 0.72383255 0.6539782 0.22136095
-0.15502328 -0.40094942 -0.10800105 -0.09068191 0.036718607 -0.054990113 0.20214427 0.33227503
-0.20271015 -0.47443032 -0.2565298 -0.2392382 0.2834201 -0.3225218 -0.04702854 -0.10596955
-0.30346614 0.31430712 -0.1663445 0.058352683 -0.35154235 0.033718728 0.13803829 0.03583853
-0.11058679 0.21952024 -0.12954879 -0.25126114 -0.33197147 -0.044260092 -0.41441986 0.47001773
-0.15609759 0.20940979 0.42281142 0.5486556 0.029468827 0.76809853 0.13467485 -0.0074475035
0.41572013 -0.2966137 0.16517799 0.52011955 0.52092 0.74341136 0.7594898 -0.21831962
-0.21351475 -0.17123936 -0.42331013 -0.17317256 -0.44519314 0.15199329 0.35377967 0.0028302926
-0.41685745 -0.43086892 -0.22794288 0.08099547 -0.025320625 0.024950428 0.4344016 0.232221
0.02566774 -0.19725962 0.13042541 0.13540691 -0.45005113 -0.33820954 -0.02525767 0.12086096
0.19956492 -0.39401507 -0.5813048 -0.13810967 -0.09174261 0.03337772 -0.16308373 0.34043267
0.11124125 0.78295314 0.026978338 0.6193693 0.13637419 0.1757425 0.6722625 -1.279098
0.821772 0.15282397 0.40641093 0.6112991 0.4674818 0.5766839 0.74328846 -0.33965373

bias f4 [8]
00000000: b3c5 91bc fbea 0b3f 0ad7 233c 2267 b93d
00000010: 0f39 f73e be5c 6bbd 77c3 c4bd 1601 003f
-0.017794466 0.54655427 0.01 0.09052874 0.4828572 -0.057461493 -0.096075945 0.50001657

weight f4 [4, 8]
00000000: bfbd fd3e fe2f 9b3e 2c62 28be 6df8 583e
00000010: 7a24 773f fd3b a5be 3d88 c2be 8357 5a3f
00000020: a6ce 9bbe b7f0 233f d859 d5bd 2201 873e
00000030: 6764 743f 7fdc 97be aba9 7cbe 25d0 423f
00000040: 8094 1e3d a931 9b3e 5701 1fbf d830 2b3f
00000050: 7538 af3e 184b bebd 4d00 80be 4022 7c3e
00000060: 96f6 af3e 53c9 443d 2fcf 1a3f 15fc ec3b
00000070: 4e5c 5abd 725a cc3e 0300 093d 78ff 92bd
0.49558827 0.30310053 -0.164437 0.21188517 0.96540034 -0.3227233 -0.37994567 0.8528978
-0.30431098 0.64039177 -0.10417527 0.26368052 0.954657 -0.29660413 -0.24674098 0.76098853
0.03871584 0.30311325 -0.6211142 0.66871405 0.3422276 -0.09291667 -0.2500023 0.2462244
0.34367818 0.04804356 0.6047239 0.007232199 -0.053310685 0.39912754 0.033447277 -0.07177633

bias f4 [4]
00000000: 36ba e23e aaa3 d13e 9061 f43e 493e 8c3d
0.44282693 0.40945178 0.47730684 0.068478175

weight f4 [1, 4]
00000000: 036f 473f 54bb a33f 03f6 203f 1d8b 4f3f
0.77903765 1.2791543 0.62875384 0.81071645
