experiments/neural_networks/mlartifacts/730589028942085756/models/m-3e4b6f14c1d34480afc164c46f3eb189/artifacts/data/model.pth (torch, 6845 bytes, 5 tensors)

weight f4 [8, 8]
000000 f1 a6 e5 be 46 56 11 3f 17 0d e1 be bf 9a ac 3e
       -0.4485393 0.5677227 -0.439553 0.33711812
000010 d7 98 66 3e 49 04 56 3e e7 82 a9 be 1b 0e 11 3f
       0.22519241 0.20900072 -0.33107683 0.5666215
000020 36 0b 14 3e 44 d3 b5 3d 20 97 07 bf 81 bd 88 3e
       0.14457402 0.08878186 -0.52964973 0.2670708
000030 a2 41 c1 bd 4b a3 8f be 58 eb 05 3f 12 0d 16 3e
       -0.094363466 -0.2805427 0.5231223 0.14653423
000040 40 8d a8 be 78 ae 99 be ed bb 9f bc 29 10 b4 3e
       -0.32920265 -0.30015922 -0.01949879 0.3516858
000050 6c 03 2a be 26 f0 b7 be a7 05 60 be c7 59 ef be
       -0.16602868 -0.35925406 -0.21877156 -0.46748182
000060 3e 63 55 3e b9 90 ed 3e 0c 26 16 bf 1e 64 07 3e
       0.20838639 0.46399477 -0.58651805 0.13221785
000070 aa dd 9c 3e 02 ec ce 3d 6d 8e 69 be 3d 86 9e 3e
       0.30637866 0.10103609 -0.22808237 0.3096179
000080 3e e0 a9 3e 9c b2 74 3e f6 f7 c7 bd 3e cf 1b be
       0.33178896 0.23896259 -0.09764092 -0.15215775
000090 ba 17 98 3d 1c 24 c9 bd 27 c3 30 be a3 7a cd 3e
       0.074264005 -0.098213404 -0.17261945 0.40132627
0000a0 f8 45 09 3f c2 71 4f bd c1 2a 02 be 58 de 9a 3c
       0.5362239 -0.050645597 -0.12711622 0.01890485
0000b0 c6 0b e0 bc 22 ff 20 3e 22 f8 39 3e 90 62 0e bf
       -0.027349364 0.15722325 0.18161061 -0.55619144
0000c0 c5 9f 71 be af 76 01 3f e5 0b 6a 3e de b6 25 bd
       -0.23596103 0.5057172 0.228561 -0.0404576
0000d0 29 08 bd be e6 d5 c4 be 0a fd 0e bf 49 ff 55 be
       -0.36920288 -0.38444442 -0.55854857 -0.20898165
0000e0 62 b9 49 3e ca d5 c2 3e 3f a9 8b 3e 76 1e 0d bf
       0.19699624 0.38053733 0.27277562 -0.55124605
0000f0 4a 8c bc be 53 da b6 bd 60 18 15 3f 03 54 a2 3d
       -0.36825782 -0.08928361 0.5824032 0.0792618

bias f4 [8]
000000 47 e5 a3 3c 69 af a3 3c 56 a2 40 3a 6d a6 e0 b6
       0.020006789 0.019981103 0.00073484087 -6.6950947e-06
000010 ab a2 a3 3c ed e4 a3 3c f4 58 dd b6 40 01 09 38
       0.019975027 0.020006621 -6.5966688e-06 3.266451e-05

weight f4 [8, 8]
000000 84 64 22 be 6b 33 79 3e ec 0c 79 be e6 ef ca be
       -0.15858656 0.2433602 -0.24321336 -0.39636153
000010 52 d8 e4 3e 96 90 8e be c4 69 fb bd ec f3 1b bf
       0.4469629 -0.27844685 -0.122760326 -0.6091907
000020 bf ba cc 3e 64 6f e8 3e 1a 67 5a 3e 0d b5 df be
       0.39986226 0.45397484 0.21328393 -0.43692818
000030 fd 45 1d bf 63 e0 01 bf 0d 87 e5 3e 39 6d 91 3e
       -0.6143492 -0.5073301 0.44829598 0.28403643
000040 54 5c 01 3f b1 21 9f 3e b8 8b 14 3e 07 fe 82 bc
       0.50531507 0.31080392 0.14506423 -0.01599027
000050 1f 91 f3 be 12 e0 08 bf b8 1d 15 bf e2 76 76 3e
       -0.47571656 -0.53466904 -0.5824847 0.24068788
000060 7d ef 99 be 10 66 fc bd dd 70 b4 be a0 88 e4 bd
       -0.30065528 -0.123241544 -0.35242358 -0.11158872
000070 3a ad dc be 55 de cc be 74 01 50 3e de 5c 3a be
       -0.4310091 -0.40013376 0.20313054 -0.18199489
000080 12 71 bc 3e 03 67 53 be 23 f7 ea be 9e af f1 bd
       0.36805016 -0.20644765 -0.45891675 -0.118010744
000090 39 18 9d be 3d 13 4a be 27 61 17 bf bc 4f aa 3e
       -0.30682543 -0.19733901 -0.5913262 0.33263958
0000a0 9b 65 df be de 77 98 3e ed 35 89 3e 09 e7 da 3e
       -0.43632206 0.2977895 0.26798955 0.4275439
0000b0 e2 9e f5 be de 5e dc 3e e7 4a 99 be 84 73 5e 3e
       -0.4797278 0.43041128 -0.29939958 0.21723753
0000c0 a9 c8 15 3f 12 63 9c bd 4b 48 a7 3b ab 21 06 be
       0.5850931 -0.07636084 0.0051050535 -0.13098781
0000d0 3b 56 00 bf d8 96 9b 3e 1b 15 19 bf f9 c2 c7 3e
       -0.5013158 0.30388522 -0.5979783 0.3901594
0000e0 ca b7 ef 3e 0c d1 16 3f 56 be 09 be bb 7d fc be
       0.46819907 0.5891273 -0.13451514 -0.49314675
0000f0 f8 37 17 3e 1b 53 b2 3e 07 7e 19 bf 66 17 04 be
       0.14767444 0.3482903 -0.5995793 -0.12899551

bias f4 [8]
000000 4d 66 c2 35 f9 8d aa 37 68 30 ea 35 0a d7 23 3c
       1.44839e-06 2.033169e-05 1.7448447e-06 0.01
000010 5e e4 06 37 d7 16 a7 36 ab db a3 3c b5 e3 a3 3c
       8.040193e-06 4.9796467e-06 0.020002207 0.02000604

weight f4 [1, 8]
000000 fc 7d f5 be d3 9c 7b bd cb a7 c8 be 3e e2 aa be
       -0.4794768 -0.061428856 -0.39190516 -0.33375734
000010 db 36 7f be df 13 44 bf fe 10 2e 3f d6 ca 31 3f
       -0.2492327 -0.7659282 0.6799468 0.6945013
