experiments/neural_networks/mlartifacts/954866327486404750/models/m-7adcf1e72fed4b5daefa2e3504ea6773/artifacts/data/model.pth (torch, 6921 bytes, 3 tensors)

weight f4 [36, 9]
000000 11 dc f5 3e 6b 09 99 40 e0 34 90 3e f7 dd 00 c0
       0.4801946 4.7823997 0.2816534 -2.0135477
000010 d6 e9 92 c0 ec 60 7a 40 b7 18 cd 3f eb c4 95 3f
       -4.5910444 3.9121656 1.6023167 1.170072
000020 d4 7f 5b 3e 9e f2 9d bf 37 c2 16 40 4d 1e 95 bd
       0.21435481 -1.2339666 2.355604 -0.0728117
000030 d3 39 9b be 2a 03 88 c0 c4 5a 63 be e1 1a 1f 40
       -0.30317554 -4.250386 -0.22202593 2.4860156
000040 96 2e 26 40 db 37 26 40 97 6c 6d bf 90 05 21 40
       2.5965934 2.5971591 -0.9274382 2.5159645
000050 0c 08 67 3e ad bd 29 bf e0 10 8f c0 39 ee 08 bd
       0.22561663 -0.6630505 -4.47081 -0.03343031
000060 c9 04 ea 3f 3d 78 0f 40 da bd 10 40 91 3d 9b 3e
       1.828271 2.2417138 2.2615876 0.3032041
000070 f7 a1 8f 3d 29 eb 1e bd c4 33 9e be 0a 1d ff bd
       0.07013314 -0.038798485 -0.3089887 -0.12456711
000080 ba a9 f5 3d 49 d9 16 3d 8e d0 01 be e9 49 30 be
       0.119952634 0.036828313 -0.12677214 -0.17215694
000090 2f 95 c3 3f 51 83 9c 40 34 3e a8 40 0c f9 52 c0
       1.5279902 4.89103 5.257593 -3.2964506
0000a0 0e e9 9e c0 b6 fa 22 40 f4 29 b9 3f b9 7d d1 3f
       -4.965949 2.5465522 1.4465928 1.6366493
0000b0 3a cc 6d 40 d7 cf d0 3e 31 01 a1 40 6c 32 47 3f
       3.71559 0.4078357 5.0313954 0.7781131
0000c0 ea e1 05 c0 ce 9a a4 c0 03 fd 86 40 42 89 f1 3f
       -2.0919137 -5.143897 4.218385 1.8870013
0000d0 dd c1 b7 3f ff 5a 00 3f 85 07 87 be a1 50 5b be
       1.4356037 0.5013885 -0.26372924 -0.21417476
0000e0 84 7d 1c 3e 37 27 38 3e 81 1c 19 3e fb 36 f2 bc
       0.15282255 0.1798371 0.1495228 -0.029567232
0000f0 f4 2b bd 3d 61 ca 98 bd 18 80 89 be 6f ec aa bf
       0.09236899 -0.07460476 -0.2685554 -1.3353404
000100 31 8d 70 c0 ba 9e 0c 40 59 f9 5d c0 d3 5b 3e bf
       -3.7586176 2.197188 -3.468344 -0.7435886
000110 5a ee 25 c0 73 57 27 bf ed bd de c0 1d 57 23 3f
       -2.5926728 -0.6536781 -6.9606843 0.638048
000120 a1 f5 fb bd fd 4a 9a c0 45 f7 a8 3f e7 5e 09 c0
       -0.12302709 -4.821654 1.3200461 -2.1464174
000130 77 0a 4b c0 0a 35 94 bf 37 99 39 c0 5f 3c 41 bf
       -3.1725137 -1.1578686 -2.8999765 -0.75482744
000140 07 5f 23 c0 82 68 8d 3f 45 77 a6 40 52 a4 a4 40
       -2.552675 1.1047518 5.2020593 5.1450586
000150 10 72 55 c0 60 1e a5 c0 78 92 2a 40 47 8c 82 3f
       -3.3350868 -5.159958 2.6651897 1.0199059
000160 db f6 c6 3f bb c1 5b 40 c0 2d 67 be db c2 2c 3e
       1.5544084 3.4336994 -0.22576046 0.16871206
000170 a4 dd 42 3e d4 e1 5b bd f8 c4 21 bd f9 b4 a2 bd
       0.19029862 -0.053682163 -0.039494485 -0.07944674
000180 99 03 09 be 43 6e 38 be 89 0f 1e be dc e7 4d 3e
       -0.13380279 -0.18010812 -0.15435614 0.20107979
000190 3b 3e 8f c0 8d d2 a0 3f 4d 48 12 c0 7b ca 41 c0
       -4.4763465 1.2564255 -2.285663 -3.0279834
0001a0 db 2b 7d bf 57 eb 25 c0 68 f5 26 bf ba 11 08 c0
       -0.98895043 -2.592489 -0.6521821 -2.126082
0001b0 de 14 3d bf c1 f3 0c 40 e4 d7 97 bd 37 8d 07 bf
       -0.73859966 2.2023776 -0.07414225 -0.5294985
0001c0 29 93 84 c0 90 59 cc bd 9f ae e2 3f 8f 4d 03 40
       -4.142964 -0.0997802 1.770954 2.0516088
0001d0 2f 18 06 40 b5 54 98 bf 54 55 0b 40 3f 3c ec 3e
       2.095226 -1.190085 2.177083 0.46139714
0001e0 65 39 58 bf dc 00 70 c0 f9 4c 4a bd 77 51 04 40
       -0.8446258 -3.7500525 -0.049389813 2.0674722
0001f0 73 fe 0f 40 7d 49 10 40 ff e6 1f 3f 1a a2 9b 40
       2.2499053 2.2544854 0.6246185 4.863538
000200 d4 b0 8c 3d 64 ad e7 bf 2a a9 99 c0 bd 10 7b 40
       0.06869665 -1.809979 -4.8019 3.9228966
000210 ab 29 c4 3f 28 96 9f 3f f2 9a b3 3e f4 da 9b bd
       1.5325216 1.2467699 0.3507915 -0.07610121
000220 ce 15 aa 3e 74 4d 4a 3e dd 4e 49 bd df 7f b4 be
       0.3321976 0.19756109 -0.049147476 -0.35253808
000230 ac b4 96 bc ec 71 95 be bd 1f c2 3d 69 93 8a be
       -0.018396698 -0.29188478 0.0947871 -0.2706559
000240 01 e9 d6 bd ef ca 29 be de 04 db bc 5f f8 7f 3e
       -0.10493661 -0.1658132 -0.02673572 0.2499709
000250 72 2f 6d bd 4e c2 e0 3d 11 e6 86 3d 53 81 85 3d
       -0.057906576 0.10974561 0.065868504 0.06518807
000260 27 3c 6d be d9 51 3d be 00 b3 89 40 c5 1d 9d 3e
       -0.23167478 -0.18488254 4.3031006 0.30686775
000270 4a ce 83 bf fc c6 ba bf 66 e3 e3 3f c4 90 1f 40
       -1.029733 -1.4591975 1.7803771 2.4932108
000280 aa e8 c2 3f a6 00 50 40 67 59 50 3f e4 94 98 40
       1.5227253 3.2500396 0.8138642 4.768175
000290 08 a9 45 3f af b7 dc bf 59 07 a0 c0 d8 08 69 40
       0.77211046 -1.7243556 -5.000897 3.6411648
0002a0 97 bf 63 3f 51 81 c8 3f 7c 2a 32 3f 90 08 7a bf
       0.8896422 1.5664464 0.69596076 -0.97669315
0002b0 fd 08 11 40 ad b8 e4 bc 12 81 15 bf 4d e8 88 c0
       2.2661736 -0.027920092 -0.5840007 -4.278357
0002c0 99 15 f7 3d d4 0c 13 40 40 7b 11 40 0a 78 14 40
       0.12064666 2.297658 2.2731476 2.3198266
0002d0 b6 1b 67 bf 74 4d 0e 40 a0 eb 08 be 67 45 a2 be
       -0.9027666 2.2234774 -0.13371134 -0.31693575
0002e0 e9 b7 8f c0 a7 80 0a be 03 53 23 40 f5 af 1c 40
       -4.4912 -0.1352564 2.5519416 2.4482396
0002f0 72 fd 1d 40 22 9d 5f 3e 80 f6 99 40 cf ef ed 3e
       2.468594 0.21837285 4.8113403 0.46472022
000300 31 75 ea bf 2d cd 96 c0 ac 8b 88 40 8f 85 ac 3f
       -1.8317014 -4.712546 4.26705 1.3478259
000310 41 3c b2 3f de ea 5d 3e e5 79 85 bf dd e6 1f 40
       1.3924638 0.21671626 -1.0427824 2.4984658
000320 95 bf 80 be 46 82 07 be cd 49 83 c0 34 63 94 be
       -0.25146165 -0.13233289 -4.102759 -0.28981936
000330 22 27 06 40 86 4c 03 40 99 bf 05 40 a2 bd 34 bd
       2.0961385 2.0515456 2.0898192 -0.04412616
000340 2d ab 9c be 5c 56 59 be 39 cb 2e bd d0 6c 83 3e
       -0.30599347 -0.2122435 -0.042674277 0.25668955
000350 cd 11 b1 3e 3a 8d 40 3d 93 45 5f be 00 9f 74 be
       0.34583893 0.047009684 -0.21803884 -0.23888779
000360 39 38 c8 3e d3 35 83 40 9f 12 1e 3f 33 3e 74 bf
       0.39105394 4.1003203 0.61747164 -0.9540741
000370 d5 c8 c6 bf 83 66 c3 3f f2 66 22 40 78 7d b2 3f
       -1.5530039 1.5265659 2.5375333 1.394454
000380 72 f7 7a 40 a4 30 91 bf c7 1b 16 40 73 19 2b 3e
       3.9213529 -1.1342969 2.3454454 0.16708927
000390 37 6b 25 bf 93 aa 82 c0 4f b5 e7 3d de 17 d8 3f
       -0.6461672 -4.083322 0.11313879 1.6882284
0003a0 8c 93 04 40 17 85 04 40 79 44 d8 bd 7e 6c 5c 3e
       2.0715055 2.0706232 -0.10559935 0.21525761
0003b0 b1 bb b9 3e 35 0b c4 bc 43 86 96 bd a2 15 81 be
       0.3627601 -0.023931125 -0.07349827 -0.25211817
0003c0 4d 1b 7d be 68 cd c0 be c9 b9 0e be d8 2d bf 3d
       -0.24717446 -0.37656713 -0.13938059 0.09334916
0003d0 f8 b9 ad c0 6f 04 88 3f b5 c3 08 c0 80 f2 75 c0
       -5.4289513 1.0626353 -2.136945 -3.842926
0003e0 21 ed c9 bf 63 25 52 c0 d6 ad 5b bf e4 45 26 c0
       -1.5775491 -3.283532 -0.8581213 -2.5980158
0003f0 96 59 87 3e c9 e8 9d 40 21 d3 65 3e f3 fa cc bf
       0.26435536 4.934666 0.2244382 -1.6014084

bias f4 [36]
000000 d6 ce 7e 3f 7d 5d 24 40 f8 68 17 40 e2 cb 03 be
       0.99534357 2.568206 2.3657818 -0.12870744
000010 b6 1e 24 40 3f 9e 8b 3f d1 63 53 be f2 fe 03 c0
       2.5643744 1.0907668 -0.20643546 -2.0624356
000020 13 c4 37 c0 99 27 20 40 94 0c 1c be 35 f1 27 c0
       -2.8713424 2.5024168 -0.15239173 -2.624097
000030 62 35 24 40 28 11 1a 40 b7 18 68 3f 0e 02 3c be
       2.5657582 2.4072971 0.9066271 -0.18360159
000040 c3 62 45 be 08 b5 27 40 47 5a 95 3f f1 d5 22 40
       -0.19275956 2.6204243 1.1668175 2.544308
000050 b4 33 29 40 5b f3 72 3f 88 23 1a 40 37 87 33 be
       2.6437807 0.9490258 2.4084187 -0.17532049
000060 14 74 49 40 b7 03 1f 40 3d 44 71 bd 62 b2 53 c0
       3.1477098 2.4846017 -0.058902968 -3.3077626
000070 7f 04 5b 3f 24 91 23 40 87 aa 5e 3f e5 9c d1 bd
       0.85553735 2.5557337 0.86978954 -0.102350034
000080 ec 48 2d 40 65 52 92 3f a7 7a 14 be e2 2a be 3f
       2.7075758 1.1431395 -0.14499913 1.4856837

weight f4 [1, 36]
000000 bd 87 a2 40 bf a6 9b 40 07 6e bf 40 4f 76 04 bd
       5.0790696 4.8641047 5.982181 -0.03233939
000010 0e df bb 40 f1 06 a5 40 24 5c 40 be 05 b9 df c0
       5.8709784 5.1570973 -0.18785149 -6.9913354
000020 db 22 b1 c0 b2 b2 c8 40 b6 89 80 be 3e 8e c4 c0
       -5.535505 6.2718134 -0.25105065 -6.1423635
000030 dc 75 b0 40 fa c9 9f 40 2a 60 a7 40 2f 48 06 be
       5.514387 4.9934053 5.230489 -0.13113473
000040 3b 31 1e be b8 81 7d 40 55 95 a6 40 d9 2a a6 40
       -0.15448467 3.9610424 5.205729 5.1927304
000050 ff 2e a8 40 71 22 9e 40 69 92 b1 40 12 26 d1 bd
       5.255737 4.9417043 5.5491223 -0.102123395
000060 45 55 80 40 50 2b b4 40 3f 6e 5a be 0b 00 cd c0
       4.010409 5.630287 -0.21331118 -6.4062552
000070 63 93 a9 40 ef bc 8a 40 c4 3f 9d 40 41 53 a5 bd
       5.2992415 4.335563 4.914034 -0.0807252
000080 c4 73 9c 40 2a e9 9d 40 39 e7 08 be 8d df 77 40
       4.8891315 4.9347124 -0.13369454 3.8730195
