experiments/neural_networks/mlartifacts/730589028942085756/models/m-e35d63223c524bc88e40d1d981bbb8e3/artifacts/data/model.pth (torch, 6845 bytes, 5 tensors)

weight f4 [8, 8]
00000000: b93d cdbe 8dd4 1d3f ad41 c8be f50a c53e
00000010: bf46 8d3e 65cd 843e 3ebf a4be a6e4 1d3f
00000020: 03cf 413e b2fc 093e b5ad f7be 304b a03e
00000030: d821 48bd 4ba3 8fbe 749e 113f 252c 483e
00000040: e8c1 94be b7c1 83be 8c20 b13c 247c c93e
00000050: 4d27 53be 193f c5be 837c 7fbe bd9b 00bf
00000060: 3a9c 223e 3410 d43e 9be0 22bf 73fc a83d
00000070: 1d9d 833e 0aed 543d fa23 8bbe 9dcf 843e
00000080: 99c8 b73e 39cf 883e 064b 8ebd 4cbb 01be
00000090: c2e4 d43d f3ed 86bd 8844 fcbd 724f d53e
000000a0: c1cd 153f 3c60 88ba 2098 9dbd 3640 8c3d
000000b0: 544f b13c cd69 553e 38f4 6c3e 8c59 03bf
000000c0: ea04 92be 7db3 e93e 5e8e 373e 5a16 b8bd
000000d0: 2908 bdbe 14ce d8be 2aff 16bf 019d 82be
000000e0: bea2 413e d262 bd3e a399 853e 49af 0fbf
000000f0: 4a8c bcbe 4faf 3ebd e89e 0c3f 3aa1 9d3d
-0.40086153 0.6165245 -0.39112607 0.38484922 0.27593037 0.25937954 -0.32177156 0.61677015
0.18926625 0.13475302 -0.48374715 0.31307364 -0.0488604 -0.2805427 0.56882405 0.1954809
-0.2905419 -0.2573373 0.021621965 0.39352524 -0.20620461 -0.38524702 -0.24949841 -0.5023764
0.15879908 0.41418612 -0.6362397 0.08251276 0.25705805 0.05198387 -0.27175885 0.25939646
0.3589523 0.26720598 -0.06947903 -0.12669104 0.103951946 -0.06588354 -0.12317759 0.41662174
0.5851708 -0.0010404657 -0.07695031 0.06848185 0.021644272 0.20841141 0.23140037 -0.5130851
-0.28519374 0.4564475 0.17925403 -0.08988638 -0.36920288 -0.42344725 -0.589831 -0.2551041
0.18909737 0.36989456 0.26093778 -0.5612684 -0.36825782 -0.046553906 0.5492997 0.07696767

bias f4 [8]
00000000: 13f4 913d 6a37 8d3d df73 febc d0a7 4ebd
00000010: e2d5 603d 4b06 923d 090b 4bbd 6822 7ebc
0.071266316 0.06895335 -0.031061111 -0.050453007 0.054891475 0.071301065 -0.04957107 -0.015511133

weight f4 [8, 8]
00000000: 140b 3fbe a502 473e 3dc0 8fbe e9d5 d8be
00000010: 2589 d63e 9690 8ebe c469 fbbd 7d9b 24bf
00000020: e5ad b63e 8ec6 d03e 1d23 363e c6ab f4be
00000030: 393d 28bf bde9 0dbf dd42 de3e 3cfc 743e
00000040: 3d36 e93e de09 863e 6e5d da3d b266 84bd
00000050: 82a1 06bf d730 15bf 1064 1dbf afcb 463e
00000060: ff2a 9bbe 1066 fcbd dd70 b4be a088 e4bd
00000070: 3aad dcbe 55de ccbe 7401 503e de5c 3abe
00000080: ce1d a43e 6acc 7dbe c372 f6be c744 27be
00000090: acf7 b3be c023 76be 3f03 1bbf a2fc 953e
000000a0: c007 f7be ce61 7d3e 6b87 693e d2c2 c53e
000000b0: 1a9c 07bf 59ca c23e aeba a8be d55d 2c3e
000000c0: 66d0 223f 9915 cebc 7e15 413d 0b7f a5bd
000000d0: 1c49 e7be 04d8 b53e 816c 0ebf a189 e13e
000000e0: a1dc 043f a2ef 233f cb07 c3bd 1654 e3be
000000f0: c86d 493e 459b cc3e 5d86 0ebf 16f8 a0bd
-0.1865657 0.19434603 -0.28076354 -0.423507 0.41901508 -0.27844685 -0.122760326 -0.64299756
0.35679546 0.40776485 0.17786832 -0.47787303 -0.6571842 -0.5543478 0.43410388 0.23924345
0.45549193 0.26179403 0.106623515 -0.064649 -0.5259019 -0.5827765 -0.6148081 0.19413637
-0.3030624 -0.123241544 -0.35242358 -0.11158872 -0.4310091 -0.40013376 0.20313054 -0.18199489
0.3205399 -0.24785009 -0.4813443 -0.1633483 -0.35149896 -0.24037075 -0.6055183 0.29294306
-0.482481 0.24744341 0.22805564 0.386252 -0.5297257 0.38045004 -0.32954925 0.16832669
0.6359924 -0.025156783 0.047139637 -0.08080872 -0.45172966 0.3551637 -0.55634314 0.44050315
0.51899153 0.64037526 -0.09522971 -0.4440009 0.19670784 0.3996221 -0.5567377 -0.07859819

bias f4 [8]
00000000: d8b2 47bd 9483 38bd 0d87 48bd 79cd f83b
00000010: 2062 39bd 5ff3 48bd a91e 913d c40f 913d
-0.048754543 -0.045047358 -0.04895692 0.0075928536 -0.045259595 -0.04906022 0.07085926 0.07083085

weight f4 [1, 8]
00000000: 9eec dcbe dc34 71bc fcd9 b0be bfa6 a9be
00000010: 19e2 54be 93b7 37bf 5327 3b3f 7fe4 3e3f
-0.43149275 -0.014722075 -0.3454131 -0.3313503 -0.20789374 -0.7176449 0.7310688 0.7456741
