experiments/neural_networks/mlartifacts/408745732833894938/models/m-499938464fd2477c973559f43a3313cd/artifacts/data/model.pth (torch, 13029 bytes, 9 tensors)

weight f4 [32, 15]
00000000: 6e6e 9dbe aedf 2d3e 6a4a 9fbe 404d 7dbe
00000010: b6d5 6d3e 2f44 543e eb5c 44bd 6833 cd3e
00000020: d3be 8a3e 9dca 1b3f ba56 643f d84c 023f
00000030: 2a5e 243f 73e9 153f 3f58 6d3f 340f 4b3e
00000040: 9e90 963e 091b dd3e d356 da3d fe50 073e
00000050: 7ee8 c23e c85a 7f3e 5cc5 123f 6f99 483e
00000060: 9f87 db3e 3654 f93e 9b53 b33e 994d 2c3f
00000070: 03ec f73e ea48 cb3d fcd9 96be 8751 bbbd
00000080: 048e b6bd 6bd0 bf3d 708a 24be dd75 a73d
00000090: b92f 5c3e d92a 383e d243 5a3f 7fb6 ea3d
000000a0: e253 413f db28 e23e 29dd 153f 9ed4 df3e
000000b0: 3770 973f 8205 08bf e633 48be 6539 563e
000000c0: 6e19 c13e 180d 2d3c 3173 b73e a5ce 493e
000000d0: 5440 a7bd 1adb 1b3f 1384 d63e 68aa e33e
000000e0: d88a 093f 0baa 083f 5a1c 293f c36d 923f
000000f0: 9177 dcbd 8cda a23d cb33 22bd bf26 46be
00000100: 01e9 b13d 3ee5 973d 27d1 553c 0e87 f7bc
00000110: 4a1b 4f3f 34e1 083f ec33 283e 2e8c 063f
00000120: 4ccf 7c3f 2d55 403f 7b42 863f 32f2 c93e
00000130: 7e41 053c 679d b13e 11ac fa3e cd46 27be
00000140: 7ba0 8abd ad70 693e 1d7f d53e 8ff6 503e
00000150: f7f9 dc3e dd2a f23e 42c4 053f f275 6f3e
00000160: e934 223f acd7 293f 98a5 cebd 9268 193e
00000170: 3cbb 143e 45ac a53e 61a2 e53e 9532 923e
00000180: 865f 973d 942e 063f ee8f 753e f74c 1cbe
00000190: c284 3a3e 0eca c7be 32a8 bd3e 7d99 b8be
000001a0: 5c8f bc3e 56a8 503d f153 363e a2b1 95be
000001b0: 44f7 11be 89c9 aa3e a109 f53e 49f0 bfbd
000001c0: 2eda ce3e ef71 c63e 7f24 cc3e f000 383f
000001d0: fa55 433f c6f4 193e ad86 363f 8723 193f
000001e0: 48fd fdbc 4111 a13e 9ad6 30be a897 e5bd
000001f0: 4756 53be a536 e63c bdcf 813d 5417 bf3a
00000200: 1ada 4dbe cdb3 24be 0b4f 9f3d 1124 aebe
00000210: e4ae bebd 3654 0ebd a399 3abe d5f7 813e
00000220: 963f 3b3e 5105 cd3e 8212 3c3e 6e55 08bd
00000230: 36eb f33e 1a7e 693e 3455 f63d 59ec 23be
00000240: 49df f93e f2fe 8bbd 0de5 b13e 5fc9 063f
00000250: 820b 76bd 1471 ed3d d2e4 6dbe ed65 ba3e
00000260: 889e 993e 0327 373e 92c8 dc3e 1a94 ef3c
00000270: 0563 75be cbe9 a13e 35a1 393f e68c 5d3f
00000280: b539 e63e 0d80 593f cd6b 283f e899 553f
00000290: 57b2 ac3d 1936 aa3e d25a 2ebe bcfb ad3e
000002a0: ba2e 413e 89e2 1dbe 052c 8c3e 281e 133e
000002b0: dbca 5dbd ac09 013f fe33 e63e c97e 343f
000002c0: f87b cf3e 2e81 273f 7451 0f3f b584 e83e
000002d0: ef69 8ebe a370 b9be 7eca 15bf 836a 87be
000002e0: dfeb bbbe 42b9 8cbe a5db 69bb 2393 8fbe
000002f0: a442 f93d f872 4a3d e251 c53e 6ed9 b13d
00000300: b0a4 8c3c 2c89 6f3e 3c46 d13d 896f aabe
00000310: 93fa 90be 9b23 b4be cbf7 83bd c266 91be
00000320: 1714 c439 d197 04bd 6fe0 213e 8b78 b33e
00000330: 7fc1 d33e ab5d 843e 35a0 5bbc cef7 383e
00000340: f990 153c 5bf3 e6bc ecda 3ebe 42f5 49be
00000350: fcfe 49be 283e 873e ab38 143e f361 0b3d
00000360: 168e 8f3e c3b9 c3be 3c71 c7bb 63e2 073e
00000370: 017b 203e 4341 babe 3bfc 093d 89e1 90be
00000380: 8b04 dcbd f055 dbbe 242b c6be fc55 1cbf
00000390: e923 9cbe 0abe 0f3e 65b4 e93d dba5 8cbe
000003a0: 5838 b4bd e9e8 c73e 019f a0bd 0dad 013f
000003b0: 0462 313f b46a 813d 309d d43d b8a1 aa3d
000003c0: 7018 233e cac9 c33e 5da4 46be 92a9 0dbe
000003d0: da71 9b3e eacc 503e 4577 793d 1ec7 bd3d
000003e0: 4008 e33e 4728 393f 15a9 b93e cced 4b3f
000003f0: d2c3 433f 778c 153f d299 053f faa9 903d
-0.30748314 0.16979858 -0.3111146 -0.247365 0.23226056 0.20729135 -0.047940176 0.40078282
0.27098712 0.6085604 0.89194834 0.50898504 0.6420618 0.5855934 0.9271278 0.19830018
0.2940721 0.4318469 0.10661092 0.1321449 0.38068002 0.24936974 0.57332397 0.1958978
0.42876908 0.4869706 0.35024723 0.67305905 0.4842225 0.09926017 -0.29463184 -0.091464095
-0.08913806 0.093659244 -0.16068435 0.081767775 0.2150258 0.17985095 0.85259736 0.114605896
0.7551862 0.44171795 0.5854059 0.43716902 1.183112 -0.53133404 -0.19551048 0.20920332
0.37714714 0.010562204 0.35830072 0.19707735 -0.081665665 0.608812 0.4189764 0.44465947
0.53727484 0.53384465 0.66058886 1.1439747 -0.10764993 0.07951841 -0.039600175 -0.19350718
0.0868702 0.07416771 0.013050354 -0.030215766 0.80901015 0.5346863 0.16426057 0.5255765
0.9875381 0.7512997 1.0489038 0.39442593 0.00813329 0.346904 0.489594 -0.16335602
-0.067688905 0.22796889 0.41698542 0.20406555 0.43159458 0.47298327 0.5225259 0.23384836
0.63361984 0.66344714 -0.10090178 0.14981297 0.14524549 0.32357994 0.44850448 0.28554216
0.073912665 0.5241482 0.23980686 -0.15263735 0.18214706 -0.39021343 0.37042385 -0.36054602
0.36828125 0.050941788 0.17805459 -0.29237086 -0.1425448 0.33356884 0.4785891 -0.09372003
0.40400833 0.387588 0.39871594 0.7187643 0.76303065 0.1503478 0.7129925 0.59819835
-0.031004563 0.31458476 -0.17269364 -0.11210567 -0.20638381 0.028102228 0.06338451 0.0014579096
-0.2010273 -0.16084214 0.07778748 -0.3401189 -0.093107015 -0.03474828 -0.1822267 0.25384393
0.18285975 0.4004312 0.18366435 -0.033284597 0.4764039 0.2280201 0.1202797 -0.16008128
0.48803166 -0.06835736 0.34745064 0.5265102 -0.06006957 0.115938336 -0.2323182 0.36405888
0.30003762 0.17885976 0.43121773 0.029245425 -0.23963554 0.31623682 0.7251161 0.8654312
0.44965902 0.84961015 0.6578949 0.8343797 0.08432453 0.33244398 -0.17026833 0.3398112
0.18865481 -0.15418448 0.27377334 0.14366972 -0.054148536 0.50405383 0.44961542 0.7050596
0.40524268 0.6543149 0.5598366 0.45413747 -0.27815196 -0.36218747 -0.58512104 -0.2644845
-0.36703393 -0.2748509 -0.0035683897 -0.28041944 0.12170914 0.04942605 0.38539034 0.086840495
0.017168373 0.2339217 0.10218474 -0.3328822 -0.28316173 -0.35183415 -0.06443747 -0.2839871
0.00037399 -0.032371346 0.15808271 0.35052904 0.41358563 0.25852713 -0.013404896 0.1806328
0.009128802 -0.028192213 -0.186382 -0.19722465 -0.19726175 0.2641461 0.14474742 0.03402896
0.2803809 -0.38227662 -0.0060864966 0.13269953 0.15671922 -0.36377916 0.03368781 -0.2829707
-0.10743054 -0.42839003 -0.3870479 -0.610687 -0.30496147 0.14037338 0.11411361 -0.27470288
-0.08799809 0.39044884 -0.078428276 0.5065468 0.69290185 0.0631918 0.10381544 0.08331627
0.15927291 0.3823989 -0.19398637 -0.13834217 0.303603 0.20390669 0.06090476 0.09266494
0.44342232 0.72327083 0.36261812 0.79659724 0.76470673 0.5841746 0.52187836 0.070636705

bias f4 [32]
00000000: c065 023f 60ad f53e 70f8 ea3e a728 033f
00000010: c7c1 003f f5ff f43e 6ead 353e d182 003f
00000020: 793a 0abd 002a a33e 5915 103f 8d60 073f
00000030: 9190 963e b0d3 863e e83b cebd a732 c23e
00000040: bcab 0a3f 861c ee3e 04a1 6d3e 5392 d73e
00000050: 9171 013f 2caa d73e f155 043f 7be4 ef3e
00000060: 7b73 d13e bae6 d03e b59b 023f ab63 d73e
00000070: 48c6 ce3e 6a63 003f 33db 0d3f 9b56 053f
0.5093651 0.47983837 0.45892668 0.51233906 0.5029568 0.4785153 0.1774194 0.5019961
-0.03374717 0.3186798 0.56282574 0.528817 0.2940717 0.2633338 -0.1007002 0.3792927
0.54168296 0.46506137 0.23205954 0.42103824 0.50563914 0.42122018 0.51693636 0.46854004
0.40908417 0.4080103 0.5101884 0.42068228 0.40385652 0.50151694 0.55412596 0.52085274

weight f4 [16, 32]
00000000: 2db0 813d a02e e7bd 25c3 36be 8000 9cbe
00000010: 26f9 a43d ee46 963e 4bcc 5cbe 9fde c13d
00000020: 34ee 0e3e ce54 743e bc19 dcbd 164d 60bd
00000030: bc5a 483e 907b 343e e908 9c3e ba9d 32be
00000040: 1491 8e3d 126d 613e 2a76 9dbe 3155 453b
00000050: cacf 0bbe d7c5 223e f699 22be 7fc5 8dbc
00000060: 95c7 193e b426 cabe b9e1 b7be f770 6bbe
00000070: 3864 2e3e 452a 223e 207e 9bbe 6851 5a3b
00000080: 40da 713e 0c2d 1f3e ecf2 333f cd6d 183f
00000090: 835a 8c3e 0c29 c43e 3983 ca3e 33cc 033f
000000a0: 0354 abbd fb54 823d 8733 1e3f 9533 e43e
000000b0: 839a af3e d589 443d c346 8b3e a98c f33e
000000c0: a2a1 213f faa0 cc3e a0f7 113f 3649 e33e
000000d0: ba73 ce3e c1fd 423f 2b8b 2f3f f1ab 2e3e
000000e0: f220 293f 118a cb3e 896a 943e e459 163f
000000f0: f70b 0f3e 4d29 213f 1d65 333f debf 003e
00000100: 668b e53c e65f b3be dcef 2e3f 30eb 2c3f
00000110: 4752 603e 043e 91bf c6ea 7f3e b2c9 c4bd
00000120: f2f5 483e 5e32 163e fc5d 45be a183 ffbe
00000130: e09a a03e f32e 363f 3014 a33c 879c 063f
00000140: 00e0 8bbf 3c83 33be 275a d93e 9b68 213e
00000150: c25e 0bbe c644 ef3d 5d7e 73bf 837f 1cbf
00000160: aed4 54bf 0b5e dc3e 7247 04c0 803b aabe
00000170: b96c 9fbf 1d06 1d3f 3a7c 0abf ee28 86bf
00000180: 409b 393f 05cb 933e 0aae 713e c6e0 9a3e
00000190: 0962 cc3d eb06 1a3f 96b6 7f3e 8a09 653e
000001a0: a384 6ebe e42b f03e 27d6 aa3e a299 b73e
000001b0: e17e ba3d 1143 b53c 7cfc 1d3e 00a9 003f
000001c0: 05f6 553e f5f8 a13e 4a09 7ebd 847c 833e
000001d0: 965b 223f b5f2 de3e 6007 2c3f 2617 813e
000001e0: cb20 153e e5ce 593d fadf 233f a6f7 bf39
000001f0: 1a43 f23e 4ed2 f93e fa06 e83e 0007 0e3f
00000200: f681 a63e 5e9e 083f c5c1 0c3e 45b1 9a3e
00000210: 2620 233f 8a5d dd3e 6fac 863e 7b87 b13e
00000220: a296 41be 48fc f53e ad09 be3e e41d c53e
00000230: d60a 9f3e 92c9 ef3e 6ed9 b0bd 7c3a fd3d
00000240: 163a 273f c116 003f 560b 383d ea22 a63d
00000250: f3b3 c83e 2546 1d3f 7acd d93e 1377 103f
00000260: 3cfa 623d 81fb e93e 531a d83d 0929 f03e
00000270: 0a3c 0d3f 37fd 063f 9e65 233f d991 033e
00000280: 5b2c cebc 51d7 2bbd 7b89 f63e 2045 d03e
00000290: 8f43 01bd 7c79 f23e 167c 233f a8e4 3cbd
000002a0: 00b8 963e e434 803e c39f bf3e 3ba6 1b3f
000002b0: 7323 c83e ea23 723e 6b9a ba3e 3bd7 6e3e
000002c0: 64e0 b53e ab14 8ebd 4bc0 f93d 4eba be3d
000002d0: d113 d63e 7526 ad3e 1895 a93e d1d1 4a3c
000002e0: af9d 1d3c b7fe c73e 4dc4 f43e 8b0a e23e
000002f0: 4555 ac3d 16c6 563e 6d36 3b3e 1029 173f
00000300: a649 1cbe 1209 643e 969f 793e 658d a5be
00000310: 807e 0d3b 30e7 89bd a024 48be 664c 1c3e
00000320: 90f1 2fbd e17b 9e3e f899 62be ee36 283e
00000330: 908d 9abe 2d76 35be e090 c53c ab05 8f3e
00000340: 56b1 3e3e e1a1 94be d067 203d 096b 55be
00000350: 20fe 7a3c 68cd 96be d26c d4bd 6a4f 783e
00000360: 7f17 a6be 8396 acbe f4e2 833d f884 463d
00000370: 5c6c 84bd 7b11 9e3e bffa 59be 59c9 5bbe
00000380: dc93 a9be 7043 c4bd 6472 24be 089b 173e
00000390: c4f8 b9bd 1573 a53d 9572 16be 038e 613e
000003a0: 4b9a 983e 841d a2be c4a1 1cbe b23e babe
000003b0: 864c ac3d fa36 b7be 192d 2bbe 7967 903e
000003c0: 204a cfbe 8f8e 853e 395c 1cbd 43f5 5f3e
000003d0: 3eb0 5ebe 9fec 283e ca9b 2abc 20c3 de3c
000003e0: 80f1 313e 1bd7 cebe 212d a1be b26f a13e
000003f0: ac10 82be d2ef a6be 7362 a1bd dca6 27be
0.06332431 -0.1128819 -0.17847879 -0.3046913 0.08055334 0.2935099 -0.21562307 0.0946629
0.13958055 0.23860475 -0.10747096 -0.054761015 0.19565862 0.1762526 0.30475548 -0.1744298
0.06961265 0.22014263 -0.30754215 0.0030110592 -0.13653484 0.15895782 -0.15879044 -0.017306088
0.15017541 -0.39482653 -0.359144 -0.22992311 0.17030418 0.15836437 -0.30369663 0.0033312682
0.23618412 0.15544528 0.70292544 0.5954254 0.27412805 0.38312566 0.3955324 0.5148346
-0.08365633 0.06363865 0.61797374 0.44570604 0.3429757 0.04798301 0.27202424 0.47568253
0.6313726 0.39966565 0.5701847 0.44391793 0.40322667 0.7616845 0.6857173 0.17057778
0.66065896 0.39753774 0.2898753 0.5873091 0.13969408 0.62953645 0.7007616 0.12573192
0.028020572 -0.35034102 0.68334746 0.6754637 0.21906386 -1.1347051 0.24991903 -0.09608783
0.1962507 0.14667651 -0.19274133 -0.49905112 0.3136816 0.7116539 0.019907087 0.5258259
-1.0927734 -0.1753053 0.42451593 0.1576256 -0.13610366 0.11683039 -0.9511469 -0.6113207
-0.83137023 0.430405 -2.0668607 -0.3324852 -1.2455055 0.61337453 -0.54095805 -1.0481241
0.7250252 0.2886583 0.23601547 0.30249614 0.09979636 0.60166806 0.24971995 0.2236692
-0.23292784 0.46908486 0.3336651 0.358594 0.091062315 0.022126706 0.15428346 0.50257874
0.2089463 0.31635252 -0.062020577 0.25680935 0.63421 0.43544546 0.67198753 0.25212973
0.14563291 0.053175826 0.64013636 0.0003661487 0.4731682 0.48793262 0.45317823 0.5547943
0.32521027 0.5336665 0.13745792 0.3021337 0.6372093 0.43235427 0.2630343 0.34673676
-0.18905118 0.48044038 0.37116757 0.38499367 0.31062955 0.46833473 -0.086352214 0.12364671
0.6532301 0.5003472 0.044932686 0.08112128 0.3919979 0.6143516 0.4253958 0.5643169
0.055414423 0.45699695 0.10551896 0.46906307 0.5516974 0.52730125 0.6382693 0.12848605
-0.025167635 -0.04195339 0.48151764 0.40677738 -0.03155857 0.4735831 0.63861215 -0.0461165
0.29437256 0.25040352 0.37426576 0.6080052 0.39089546 0.23646513 0.36445937 0.23324291
0.3552276 -0.06937536 0.1219488 0.093128785 0.41811994 0.33818403 0.33121562 0.012379126
0.009620114 0.3906152 0.47806016 0.4414867 0.08414701 0.20974001 0.1828248 0.5904703
-0.1526247 0.22269085 0.24377283 -0.32334438 0.0021590292 -0.06733549 -0.19545221 0.15263519
-0.04295498 0.30953887 -0.22129047 0.16427204 -0.3018613 -0.17720862 0.024116933 0.27934012
0.18622336 -0.29029754 0.039161503 -0.20841612 0.015319377 -0.29453588 -0.10372318 0.24249044
-0.324398 -0.3370858 0.06439772 0.048466653 -0.064659804 0.30872712 -0.21287058 -0.21463527
-0.3312062 -0.09583175 -0.16059262 0.14805233 -0.090806514 0.08078591 -0.14692147 0.2202683
0.29805216 -0.31663144 -0.15296084 -0.36375958 0.08413033 -0.3578413 -0.16716422 0.28203943
-0.4048624 0.26085326 -0.038173888 0.21870904 -0.21746919 0.16496514 -0.01041312 0.027192652
0.17377281 -0.40398487 -0.31479743 0.3153053 -0.25403345 -0.32604843 -0.07880106 -0.16372246

bias f4 [16]
00000000: e8e7 6dbd 80a6 d63e 8df9 4b3e 8082 db3e
00000010: 5738 da3e b7ae b13e 0ad7 233c 7488 6fbd
00000020: 397e 81bc 0ad7 233c afd6 eebc f2e7 55bd
00000030: 7aaf d43e 61c3 d73e e5a1 d03e 2ab9 d93e
-0.05808249 0.41923904 0.19919415 0.42873 0.4262111 0.3470361 0.01 -0.05847974
-0.015807258 0.01 -0.029155103 -0.052223153 0.41540128 0.4214125 0.40748516 0.4252408

weight f4 [8, 16]
00000000: 5ed3 fbbc 38e4 c53e 699b 38bf ef67 933e
00000010: 0ec1 413f 9e6b 97bd 448d 793e 4646 87be
00000020: 4510 d3be 4839 d2bd 0a7d 983e 1bcb c73e
00000030: da5a ff3e 9114 a33e a226 b03e 637d 2f3e
00000040: 40c8 37bd 2081 0dbd b0d8 d93e 90d2 953e
00000050: 7adb ccbe 008d 073b 3875 9dbe f88c a2bd
00000060: ec75 cbbe a019 053e 9298 b8be 84ba fc3e
00000070: f454 c13e 4a38 b0be c803 f1be 00d1 9f3c
00000080: e2ca aabd 3958 f33e 0e09 97bf 0387 e53e
00000090: 6c6d 2bbe 12ea 47bd 6494 86be 67db 943e
000000a0: 007a 56bc f805 f6be ec34 92be a8ba 80be
000000b0: 00e9 04be 9f44 c93e 867c 023f f3ec 7d3e
000000c0: dba4 0abe 36f2 ba3e 3079 9ebf 2c2f 593d
000000d0: 6bb8 ad3e fa13 483f bc71 1dbe 4b5e a43e
000000e0: 3d12 2fbe 144b 08be 2749 d8be 1dd2 ee3e
000000f0: d988 5a3f 05e0 b33e bb07 2f3f 7c60 473f
00000100: 24f7 483e b93c 3f3e a8b5 f3be 34a6 0cbf
00000110: cc61 edbe 7ce1 b73d 1c6f ddbe 12f6 e0be
00000120: 164c 89be 92f3 ebbe 5827 1ebd b52c fc3c
00000130: 444f b9be 1cfe 803e a30d 84be 1c6b 56be
00000140: 8e8d a93e cc99 b73e 90f2 6abd 9d26 c7be
00000150: a131 a5be 5b55 bd3b b610 963e be45 423e
00000160: 1817 62be 8c03 f2be 556c edbe dc8d 46be
00000170: 4571 88bd d162 98be ceb0 eebe 498f 13bc
00000180: 9832 cbbe ae96 c4be 3a1d d0be 08bd 0abe
00000190: 341d e23e 9426 483e 50d4 72bd 30c0 d23d
000001a0: 10e2 4b3e 00ea 3e3b a87b cebe 8eb9 9dbe
000001b0: 10ea adbe 8003 50bc c457 eabe 502f babd
000001c0: 3b49 00be 7ce1 5c3f 7b5c debe 0b61 263f
000001d0: 403e c53e 7208 363e 9898 023e 6b2d 92be
000001e0: 89f1 3fbe e8b4 cdbd c29b 83bd 6a34 d8be
000001f0: 8d6f 133f b5b6 463f bd88 cd3d 4013 043f
-0.030740436 0.3865068 -0.7211214 0.28790233 0.75685203 -0.07393573 0.24370295 -0.26420802
-0.4122335 -0.10264832 0.29782897 0.39022145 0.49874002 0.31851628 0.34404474 0.17137675
-0.044868708 -0.03454697 0.42548132 0.2926221 -0.40011197 0.0020683408 -0.30753493 -0.07937044
-0.39738405 0.12998056 -0.36053902 0.4936105 0.37760127 -0.34417945 -0.47073197 0.019508839
-0.08339478 0.47528246 -1.1799638 0.44829568 -0.1674096 -0.04880721 -0.26285088 0.2907364
-0.0130906105 -0.4805143 -0.28556 -0.25142407 -0.12979507 0.39310166 0.5097126 0.2479742
-0.1353945 0.36512917 -1.2380733 0.053023502 0.33929762 0.7815548 -0.15375417 0.3210319
-0.17096801 -0.1330989 -0.4224331 0.4664468 0.8536506 0.3513185 0.6837117 0.778816
0.19625527 0.18675508 -0.4759953 -0.54941106 -0.46363676 0.089785546 -0.43248832 -0.43937737
-0.2681586 -0.46084267 -0.03861174 0.030783037 -0.36193287 0.2519387 -0.25791654 -0.20939296
0.3311581 0.35859525 -0.057360232 -0.38896647 -0.32264426 0.0057779974 0.29309624 0.18971917
-0.22079122 -0.4726833 -0.46371713 -0.19390053 -0.066622294 -0.2976289 -0.46619266 -0.00900633
-0.39687037 -0.3839621 -0.40647298 -0.13548672 0.44162905 0.19545966 -0.05928451 0.10290563
0.19910455 0.0029131174 -0.40328717 -0.3080563 -0.33967638 -0.012696147 -0.45770085 -0.090910554
-0.12527935 0.8628156 -0.43429932 0.64991826 0.38524055 0.17776659 0.12753522 -0.28550276
-0.18744482 -0.10044271 -0.06426193 -0.4222749 0.5759209 0.7762254 0.100358464 0.51591873

bias f4 [8]
00000000: 3153 cf3e 0ad7 233c b86b d13e 04c0 c73e
00000010: 7b4c 76bd 9174 70bd 0ad7 233c 2e7d bc3e
0.40493158 0.01 0.40902495 0.39013684 -0.06013153 -0.058704916 0.01 0.36814255

weight f4 [4, 8]
00000000: 3857 8f3e 6045 d3bc c200 c13e 9e66 7c3f
00000010: 1075 293e d3db c7be ef3a 82be 5b11 373f
00000020: f78e 143f c02a 613c a600 783e 5b45 bf3d
00000030: 782b 32be 4d28 adbe 104c ed3d 09d1 103f
00000040: 79d2 463f 2c94 23be aead 6d3e aa54 303f
00000050: 3d96 7b3e c74c 1b3d 547e 5e3e 5acd 883e
00000060: f40c 2abf e04f df3c 9de5 5bbe 376e 133f
00000070: 99d7 143f 8b8f ac3d afcb 213f 48df dabe
0.2799623 -0.025789917 0.3769589 0.9859408 0.16548562 -0.390349 -0.25435588 0.7151086
0.5803065 0.013743103 0.24218997 0.093394004 -0.17399395 -0.3381981 0.115867734 0.5656896
0.77664906 -0.15974492 0.23210785 0.6887919 0.2456903 0.037915017 0.21727878 0.2671917
-0.66426015 0.027259767 -0.2147431 0.5759005 0.58141476 0.08425816 0.6320142 -0.42748475

bias f4 [4]
00000000: 3fa7 a83e e9e7 ab3e 7942 8d3e f1d2 4ebd
0.329401 0.3357537 0.27589777 -0.05049414

weight f4 [1, 4]
00000000: 381d a93f 699e a63f 0fd0 a53e cbd6 53bf
1.3212042 1.3017093 0.323853 -0.82749623
