experiments/neural_networks/mlartifacts/730589028942085756/models/m-05b532327276435d8faecf2887f0b1e8/artifacts/data/model.pth (torch, 6845 bytes, 5 tensors)

weight f4 [8, 8]
0	0xbec51ed8	-0.38500094
1	0x3f21e81b	0.6324479
2	0xbec01ecf	-0.37523505
3	0x3ecd2b7f	0.40072247
4	0x3e956bf7	0.29183933
5	0x3e8c9de7	0.2746422
6	0xbe9e183b	-0.3087786
7	0x3f21fb3e	0.6327399
8	0x3e51a2b1	0.20472218
9	0x3e19e584	0.1502896
10	0xbeefb3a7	-0.4681675
11	0x3ea84220	0.3286295
12	0xbd09553d	-0.033528555
13	0xbe8e64c8	-0.27811265
14	0x3f15ab1d	0.58464223
15	0x3e583263	0.21112971
16	0xbe9095bf	-0.28239247
17	0xbe7e063c	-0.24807066
18	0x3cf8ecfd	0.030386442
19	0x3ece16c4	0.40251744
20	0xbe5b1da7	-0.2139803
21	0xbec6fe5f	-0.38865945
22	0xbe830f83	-0.25597772
23	0xbf01e7b6	-0.5074419
24	0x3e13ddb9	0.14440049
25	0x3eccac52	0.3997522
26	0xbf268f47	-0.65062374
27	0x3d8b6f21	0.068083055
28	0x3e7812d2	0.2422593
29	0x3d1cd02e	0.038284473
30	0xbe8eff56	-0.2792918
31	0x3e79ae25	0.24382837
32	0x3eb453b4	0.3522011
33	0x3e85b0ce	0.26111454
34	0xbd9a4c1e	-0.075340495
35	0xbe093fb0	-0.13403201
36	0x3dda34cd	0.10654602
37	0xbd94dc9a	-0.07268639
38	0xbddd032a	-0.10791619
39	0x3ecfdfdf	0.40600488
40	0x3f19dea1	0.6010533
41	0x3c741a71	0.014898882
42	0xbd79b710	-0.060965598
43	0x3dace4a1	0.08442045
44	0x3d174af9	0.036936734
45	0x3e65c7a4	0.22439438
46	0x3e7bf2c9	0.24604334
47	0xbefebbf3	-0.4975277
48	0xbe986dfb	-0.29771408
49	0x3ee34b04	0.4439317
50	0x3e2ac175	0.1667536
51	0xbdd1c6ba	-0.10242982
52	0xbebd0829	-0.36920288
53	0xbedbd310	-0.42934465
54	0xbf181508	-0.5940709
55	0xbe88e327	-0.26735803
56	0x3e4f7fe8	0.20263636
57	0x3ec432ef	0.3832011
58	0x3e8c5829	0.2741101
59	0xbf0c43b0	-0.5479078
60	0xbebc8c4a	-0.36825782
61	0xbd007b53	-0.03136761
62	0x3f0d65f8	0.55233717
63	0x3dba2c93	0.09090533

bias f4 [8]
0	0x3db2c810	0.08729565
1	0x3daddaf1	0.084890254
2	0xbd1947b5	-0.0374219
3	0xbd85ec1b	-0.06539174
4	0x3d5e5361	0.054278735
5	0x3db2dbcd	0.0873333
6	0xbd7e160b	-0.06203274
7	0xbb6296dc	-0.0034574782

weight f4 [8, 8]
0	0xbe4b0c52	-0.19828919
1	0x3e3939a7	0.18088399
2	0xbe929b87	-0.28634283
3	0xbede6b9a	-0.43441468
4	0x3ed08f70	0.40734434
5	0xbe8e9096	-0.27844685
6	0xbdfb69c4	-0.122760326
7	0xbf278f55	-0.6545308
8	0x3eb224fc	0.34793842
9	0x3ecb4650	0.39702082
10	0x3e305b01	0.17222215
11	0xbef8f1ba	-0.48621923
12	0xbf2a8fd0	-0.6662569
13	0xbf10b64e	-0.56528175
14	0x3edd4ea7	0.4322407
15	0x3e6ae557	0.22939049
16	0x3ee1ad29	0.44077423
17	0x3e7e5502	0.24837115
18	0x3dccf212	0.10007109
19	0xbda06407	-0.07831579
20	0xbf0a6f4e	-0.5407609
21	0xbf181213	-0.5940258
22	0xbf1e9921	-0.61952406
23	0x3e3b661d	0.18300672
24	0xbe9fd459	-0.31216696
25	0xbdfc6610	-0.123241544
26	0xbeb470dd	-0.35242358
27	0xbdf4c1f4	-0.11951056
28	0xbedcad3a	-0.4310091
29	0xbeccde55	-0.40013376
30	0x3e500174	0.20313054
31	0xbe3a5cde	-0.18199489
32	0x3e9df73c	0.30852687
33	0xbe82ba8e	-0.25532955
34	0xbef7f4af	-0.48428866
35	0xbe31f0cd	-0.17377014
36	0xbeb87df6	-0.360336
37	0xbe7eef9a	-0.24896088
38	0xbf1b7d5a	-0.60738146
39	0x3e92aa76	0.28645676
40	0xbefb9e0b	-0.49144015
41	0x3e6daaf1	0.2320974
42	0x3e625749	0.22103609
43	0x3ec235fe	0.37931818
44	0xbf0b3f4f	-0.54393476
45	0x3ebb5047	0.36584684
46	0xbeaadd86	-0.33372134
47	0x3e1dcccb	0.15410154
48	0x3f26eddb	0.6520669
49	0xbc13c3a9	-0.009018817
50	0x3d629a42	0.055322893
51	0xbd865d80	-0.065608025
52	0xbedf42a2	-0.43605524
53	0x3ebe2131	0.37134698
54	0xbf0bf729	-0.5467401
55	0x3ee995de	0.45622152
56	0x3f08f156	0.5349325
57	0x3f280aa0	0.6564121
58	0xbdb518e6	-0.088426396
59	0xbedc2a7d	-0.43001166
60	0x3e598006	0.21240243
61	0x3ed4e1fe	0.41578668
62	0xbf0c318a	-0.5476309
63	0xbd817e39	-0.06322903

bias f4 [8]
0	0xbd7f592b	-0.062340897
1	0xbd60f200	-0.05491829
2	0xbd8013e0	-0.06253791
3	0xbb3add56	-0.0028513274
4	0xbd64a27c	-0.05581902
5	0xbd8123eb	-0.06305679
6	0x3db15a5e	0.08659814
7	0x3db0b510	0.08628285

weight f4 [1, 8]
0	0xbed708ba	-0.41998845
1	0xbb313270	-0.002703812
2	0xbeaab71d	-0.3334283
3	0xbea50041	-0.32226756
4	0xbe4c30e9	-0.19940533
5	0xbf343240	-0.70389175
6	0x3f3f4bb4	0.7472489
7	0x3f430979	0.7618633
