experiments/neural_networks/mlartifacts/408745732833894938/models/m-b830ab5b028d47709e10b5728644ebc9/artifacts/data/model.pth (torch, 13029 bytes, 9 tensors)

weight f4 [32, 15]
000000 b6 19 99 be 7c 2b 33 3e a1 83 9e be 14 e5 88 be
       -0.29902428 0.17497057 -0.309598 -0.26737273
000010 f9 7f 66 3e 68 3a 5e 3e 3d 9e 28 bd 26 30 ca 3e
       0.22509755 0.21701968 -0.041166533 0.3948986
000020 02 ad 88 3e 7c 10 1c 3f 8f 54 65 3f 8e 6c 02 3f
       0.26694494 0.60962653 0.8958215 0.5094689
000030 b1 8c 22 3f 29 09 16 3f c6 86 6b 3f e4 d6 4d 3e
       0.6349593 0.5860773 0.9200252 0.20101506
000040 b7 fd 95 3e 7e 5b dc 3e 12 b7 b9 3d 05 e3 00 3e
       0.29295132 0.43038553 0.09068121 0.12586601
000050 df ef c3 3e 97 c8 7e 3e 58 e3 0f 3f 00 b9 45 3e
       0.38268945 0.24881206 0.56206274 0.19308853
000060 23 5f dc 3e 27 d3 fa 3e b9 b8 b4 3e d3 29 2c 3f
       0.43041334 0.4898922 0.35297182 0.6725132
000070 21 51 f9 3e ae 2b ca 3d e9 cb 90 be 89 22 b4 bd
       0.4869471 0.098716125 -0.2828057 -0.087956496
000080 22 ee b7 bd 81 f5 8e 3d 27 10 2c be 46 89 b5 3d
       -0.08980967 0.0698042 -0.16803037 0.088640735
000090 8d 2b 61 3e 0e fa 2d 3e 81 d8 58 3f 95 fc ec 3d
       0.2198927 0.1698992 0.8470536 0.11571614
0000a0 74 5f 43 3f 84 bc e2 3e 7b f7 13 3f 47 68 e0 3e
       0.76317525 0.4428445 0.577995 0.43829557
0000b0 b0 7d 96 3f 44 41 04 bf 0c 58 44 be d7 ae 53 3e
       1.1757107 -0.5166209 -0.19174212 0.20672165
0000c0 ae e8 b5 3e 80 17 12 3b f8 c8 b9 3e f4 f7 4e 3e
       0.35529083 0.002229184 0.3628614 0.20211774
0000d0 c1 d9 b8 bd ea 4c 1a 3f 5c 1b d8 3e 7a 50 e6 3e
       -0.09025908 0.6027361 0.42208374 0.44983274
0000e0 22 cb 09 3f 3e 24 07 3f a4 5c 29 3f 11 ab 91 3f
       0.5382558 0.52789676 0.66156983 1.138033
0000f0 57 13 cc bd c1 8f ab 3d 2e b1 1d bd f8 48 5a be
       -0.09964626 0.08377028 -0.03849905 -0.21316898
000100 3c 0c a5 3d 35 b4 a9 3d fc 90 99 3c ac f0 16 bd
       0.08058974 0.08286325 0.018745892 -0.036850616
000110 a0 24 4e 3f 2b 05 09 3f 0e 7f 2d 3e f4 b3 06 3f
       0.80524635 0.5352351 0.16942999 0.52618337
000120 3d 37 7b 3f f3 7c 40 3f 83 76 85 3f 49 2b cb 3e
       0.9813116 0.7519066 1.0426792 0.3968146
000130 9a c0 f0 3b 1a aa b0 3e 0d ed f2 3e af 7b 30 be
       0.0073471786 0.34504777 0.4744648 -0.17234682
000140 04 39 88 bd 4f 61 69 3e 77 58 d0 3e 64 42 4d 3e
       -0.066515 0.22791027 0.40692493 0.20044857
000150 e9 24 d7 3e da 65 f9 3e c7 93 06 3f a2 e8 6e 3e
       0.42020348 0.4871052 0.5256924 0.2333093
000160 6e 04 23 3f 2a b4 29 3f 08 ea d5 bd fd 81 19 3e
       0.63678634 0.66290534 -0.104450285 0.14990993
000170 19 93 1d 3e 91 e4 a0 3e 2d f3 e0 3e f7 41 95 3e
       0.15388145 0.31424382 0.43935528 0.2915189
000180 df 4e 97 3d 0e df 05 3f eb 86 97 3e 67 47 0b be
       0.0738809 0.5229348 0.29595122 -0.13601457
000190 2b cf 1e 3e e9 66 c5 be 09 57 bd 3e 58 36 b6 be
       0.15508716 -0.38555077 0.36980465 -0.35588336
0001a0 33 3e bc 3e 40 27 68 3d a1 f2 3a 3e 6a 7d 95 be
       0.36766204 0.056678057 0.18256618 -0.29197246
0001b0 b4 61 20 be d5 0e a7 3e bc dc f8 3e e8 2a b1 bd
       -0.15662271 0.32628503 0.48605907 -0.08650762
0001c0 cd 7f cc 3e 02 41 c4 3e c4 29 cd 3e 71 4f 38 3f
       0.39941254 0.38330847 0.40070927 0.7199622
0001d0 47 75 43 3f 80 44 19 3e fa a5 36 3f bd f7 18 3f
       0.76350826 0.14967537 0.7134701 0.5975302
0001e0 48 fd fd bc 41 11 a1 3e 9a d6 30 be a8 97 e5 bd
       -0.031004563 0.31458476 -0.17269364 -0.11210567
0001f0 47 56 53 be a5 36 e6 3c bd cf 81 3d 54 17 bf 3a
       -0.20638381 0.028102228 0.06338451 0.0014579096
000200 1a da 4d be cd b3 24 be 0b 4f 9f 3d 11 24 ae be
       -0.2010273 -0.16084214 0.07778748 -0.3401189
000210 e4 ae be bd 36 54 0e bd a3 99 3a be 10 0f 83 3e
       -0.093107015 -0.03474828 -0.1822267 0.2559743
000220 75 07 3f 3e dd 0e ce 3e c6 dc 3e 3e 6e eb 2c bd
       0.18655188 0.40245715 0.18638906 -0.04221671
000230 62 f9 fe 3e 77 68 6f 3e af 3a 06 3e 0c ef e3 bd
       0.4979964 0.23379694 0.13108324 -0.11129579
000240 44 cb fa 3e 12 66 a3 bd f9 00 b8 3e 5d ad 06 3f
       0.48983204 -0.07978453 0.35938242 0.5260828
000250 97 2e 45 bd b0 8d ec 3d 40 a0 67 be 05 70 bc 3e
       -0.048140135 0.11550462 -0.22619724 0.36804214
000260 91 48 99 3e f9 1b 2b 3e 4a 3b d9 3e f1 22 0d 3d
       0.29938176 0.1670989 0.42428046 0.03445715
000270 c2 cb 6e be c1 0e a0 3e 4e 6b 38 3f 33 5b 5e 3f
       -0.23319915 0.31261256 0.72038734 0.8685791
000280 73 74 e6 3e 27 9c 59 3f 09 48 28 3f 02 b6 55 3f
       0.4501072 0.85003895 0.65734917 0.83480847
000290 a4 95 ab 3d 3a 86 ac 3e b3 a0 29 be f7 59 ae 3e
       0.08378151 0.33696157 -0.16565208 0.34053013
0002a0 01 c3 34 3e be d1 24 be 96 27 90 3e a3 a7 1a 3e
       0.17652513 -0.16095635 0.28155202 0.15103011
0002b0 20 e3 69 bd 0a 21 00 3f 6d 36 e7 3e 86 93 34 3f
       -0.05710137 0.50050414 0.4515871 0.705376
0002c0 82 98 cf 3e 8f 58 27 3f 08 60 0f 3f e6 33 e8 3e
       0.40546042 0.65369505 0.5600591 0.45352095
0002d0 12 fe 84 be a4 ad af be 6d 9a 13 bf 43 e8 70 be
       -0.2597509 -0.34312165 -0.5765751 -0.23526101
0002e0 e3 55 c8 be 28 6f 8d be a9 e4 5b 3c 47 e4 83 be
       -0.39128026 -0.27623868 0.013421216 -0.257601
0002f0 37 a0 2a 3e 15 c3 86 3d da c0 a2 3e 5d d8 c5 3d
       0.1666268 0.06580178 0.3178776 0.09660409
000300 b0 a4 8c 3c 78 88 79 3e 3c 46 d1 3d 25 82 ad be
       0.017168373 0.24368465 0.10218474 -0.33888355
000310 38 63 94 be 19 a1 b7 be b5 3c 96 bd cb 83 95 be
       -0.28981948 -0.35865095 -0.07335798 -0.29202113
000320 93 d3 3a bb 45 d5 12 bd 6a 19 1a 3e 62 28 b6 3e
       -0.0028507456 -0.03584792 0.15048757 0.35577685
000330 a2 4d d8 3e 29 ac 86 3e 10 f0 9b bb ce f7 38 3e
       0.4224673 0.26303223 -0.0047588423 0.1806328
000340 51 9c 91 3c 5b f3 e6 bc ec da 3e be 42 f5 49 be
       0.017774733 -0.028192213 -0.186382 -0.19722465
000350 fc fe 49 be 28 3e 87 3e ab 38 14 3e f3 61 0b 3d
       -0.19726175 0.2641461 0.14474742 0.03402896
000360 16 8e 8f 3e c3 b9 c3 be 3c 71 c7 bb 63 e2 07 3e
       0.2803809 -0.38227662 -0.0060864966 0.13269953
000370 01 7b 20 3e 43 41 ba be 3b fc 09 3d 89 e1 90 be
       0.15671922 -0.36377916 0.03368781 -0.2829707
000380 8b 04 dc bd 84 2d e3 be ae fb cb be e7 00 1e bf
       -0.10743054 -0.44370663 -0.39840454 -0.61720127
000390 1d f9 9c be 57 d2 ff 3d bf 36 ff 3d 34 5d 8f be
       -0.30658808 0.12491291 0.12461614 -0.28000796
0003a0 c2 56 b4 bd fa 0b c6 3e e0 18 84 bd b7 be 05 3f
       -0.0880561 0.38681012 -0.06450057 0.5224413
0003b0 e4 e8 33 3f b4 6a 81 3d d0 d2 e8 3d b8 a1 aa 3d
       0.7027724 0.0631918 0.11368334 0.08331627
0003c0 c6 ae 25 3e 3f db c6 3e 0b fb 43 be ae d5 18 be
       0.16179952 0.38839146 -0.19138734 -0.14925262
0003d0 60 10 98 3e 6f ee 5b 3e b1 07 90 3d 27 d3 bc 3d
       0.29699993 0.21477674 0.07032717 0.092199616
0003e0 2b e6 e1 3e e0 88 39 3f 02 42 b9 3e 7d db 4b 3f
       0.44120917 0.7247448 0.36183172 0.7963179
0003f0 b6 9b 43 3f 28 7a 15 3f b6 71 05 3f 02 ce d2 3d
       0.7640947 0.5838952 0.52126634 0.10293199

bias f4 [32]
000000 84 6a 02 3f 75 67 f6 3e 2f 4b eb 3e d0 4d 03 3f
       0.5094378 0.48125806 0.45955798 0.5129061
000010 cd cf 00 3f 5a dc f5 3e 28 a4 37 3e 91 84 00 3f
       0.5031708 0.48019677 0.17933714 0.5020228
000020 79 3a 0a bd 6e ac a6 3e d3 18 10 3f 30 58 07 3f
       -0.03374717 0.32553428 0.5628788 0.5286894
000030 38 90 9b 3e f6 40 8b 3e e8 3b ce bd b9 3f c7 3e
       0.30383468 0.27198 -0.1007002 0.38915804
000040 4b 8d 0a 3f ea 49 e0 3e 6e 02 6e 3e 70 a8 d7 3e
       0.54121846 0.43806392 0.23243114 0.42120695
000050 5c 9e 01 3f a0 bb d7 3e 70 48 04 3f e2 b7 ef 3e
       0.5063226 0.42135334 0.5167303 0.4681998
000060 dd 7c d1 3e 4d 42 d1 3e 9a 74 03 3f 55 99 d4 3e
       0.40915576 0.40870896 0.51349795 0.41523233
000070 cf 2f ce 3e 97 81 00 3f 86 7b 0d 3f 26 31 05 3f
       0.4027085 0.5019774 0.55266607 0.5202812

weight f4 [16, 32]
000000 2d b0 81 3d a0 2e e7 bd 25 c3 36 be 80 00 9c be
       0.06332431 -0.1128819 -0.17847879 -0.3046913
000010 26 f9 a4 3d ee 46 96 3e 4b cc 5c be 9f de c1 3d
       0.08055334 0.2935099 -0.21562307 0.0946629
000020 34 ee 0e 3e ce 54 74 3e bc 19 dc bd 16 4d 60 bd
       0.13958055 0.23860475 -0.10747096 -0.054761015
000030 bc 5a 48 3e 90 7b 34 3e e9 08 9c 3e ba 9d 32 be
       0.19565862 0.1762526 0.30475548 -0.1744298
000040 14 91 8e 3d 12 6d 61 3e 2a 76 9d be 31 55 45 3b
       0.06961265 0.22014263 -0.30754215 0.0030110592
000050 ca cf 0b be d7 c5 22 3e f6 99 22 be 7f c5 8d bc
       -0.13653484 0.15895782 -0.15879044 -0.017306088
000060 95 c7 19 3e b4 26 ca be b9 e1 b7 be f7 70 6b be
       0.15017541 -0.39482653 -0.359144 -0.22992311
000070 38 64 2e 3e 45 2a 22 3e 20 7e 9b be 68 51 5a 3b
       0.17030418 0.15836437 -0.30369663 0.0033312682
000080 87 19 72 3e 9b 24 1e 3e e7 b3 33 3f 77 ef 17 3f
       0.2364255 0.15443651 0.70196384 0.5934977
000090 fa 97 8c 3e 71 86 c3 3e ed 58 c9 3e fe ed 03 3f
       0.274597 0.38188508 0.39325657 0.5153502
0000a0 03 54 ab bd 54 df 90 3d 09 e7 1d 3f 9a 7f e4 3e
       -0.08365633 0.070738465 0.61680657 0.44628602
0000b0 1a 94 ac 3e 2f 9e 68 3d c3 46 8b 3e 84 38 f8 3e
       0.33706743 0.05679148 0.27202424 0.48480618
0000c0 af d2 21 3f eb e0 cc 3e 2b 1d 12 3f 40 97 e3 3e
       0.632121 0.4001535 0.57075757 0.44451332
0000d0 3e b0 cd 3e e6 aa 42 3f 2d da 2e 3f 9a 38 2e 3e
       0.40173525 0.7604202 0.6830166 0.1701378
0000e0 0a 2f 29 3f 89 b0 cd 3e f8 84 93 3e 77 7e 17 3f
       0.660874 0.40173748 0.28812385 0.59177345
0000f0 dc ee 0d 3e 72 22 21 3f 39 80 33 3f 08 5e 00 3e
       0.13860649 0.62943184 0.7011753 0.1253587
000100 b0 1d 2d 3c 41 3a b6 3f af c0 0d 3f 30 78 8c 3e
       0.01056616 1.4236528 0.55372137 0.27435446
000110 ed d4 80 3e d8 a9 8c bf c6 ea 7f 3e bc a5 42 be
       0.2516245 -1.0989332 0.24991903 -0.19008535
000120 f2 f5 48 3e 5e 32 16 3e 65 50 ef be 1e a3 dc be
       0.1962507 0.14667651 -0.46741024 -0.430932
000130 a0 4d f0 3e 20 b9 43 3f 30 14 a3 3c 87 95 16 3f
       0.46934223 0.76454353 0.019907087 0.5882191
000140 2d 9d 61 bf de 6b 46 bf a7 58 0c 3f c9 c6 00 3d
       -0.88130456 -0.7750834 0.5482277 0.031439576
000150 a1 cd ff 3f 6e 31 34 be d5 e5 23 bf 15 fd b8 be
       1.9984628 -0.17596981 -0.6402257 -0.36130586
000160 98 5d 15 bf f8 eb 00 3f ce 15 9f bf 80 3b aa be
       -0.5834594 0.5036006 -1.2428529 -0.3324852
000170 d7 18 7f bf 86 39 1d 3f 7e ad 3f bf 0d 0a 52 bf
       -0.9964728 0.614159 -0.74874103 -0.82046586
000180 00 a9 39 3f 25 3d 93 3e 00 a2 70 3e 23 d0 99 3e
       0.725235 0.28757587 0.23499298 0.30041608
000190 85 54 cd 3d f1 b0 19 3f cb 4e 7d 3e 22 8e 65 3e
       0.100258864 0.60035616 0.24737088 0.224175
0001a0 a3 84 6e be 18 e7 f3 3e 5a 2f aa 3e 01 e6 b7 3e
       -0.23292784 0.47637248 0.3323925 0.35917667
0001b0 d8 8e ae 3d 6f f8 fb 3c 7c fc 1d 3e b6 04 03 3f
       0.08523339 0.03075811 0.15428346 0.51179063
0001c0 b9 bf 56 3e d8 38 a2 3e 6d e3 7b bd 2f cd 83 3e
       0.20971574 0.31683993 -0.061496187 0.2574248
0001d0 ae ef 21 3f ad 3f de 3e 23 4d 2b 3f c5 d7 80 3e
       0.6325635 0.43407956 0.66914576 0.2516462
0001e0 7d 54 15 3e 50 41 6b 3d 0f 65 23 3f 86 a9 a6 3b
       0.14583011 0.057435334 0.6382608 0.0050861267
0001f0 d6 af f1 3e 8b bc f9 3e 1e 3c e8 3e e0 ed 0d 3f
       0.47204465 0.4877666 0.45358366 0.55441093
000200 22 a0 a6 3e 19 57 08 3f ea be 0b 3e 26 a9 99 3e
       0.32544047 0.532579 0.13647047 0.30011863
000210 8d 3e 23 3f fd b5 dc 3e 73 7e 85 3e 01 ca b1 3e
       0.6376732 0.43107596 0.26073036 0.3472443
000220 a2 96 41 be 8a a8 f9 3e fb 68 bd 3e 85 6a c5 3e
       -0.18905118 0.48761398 0.36994156 0.3855783
000230 ad 11 9c 3e 27 2f f4 3e 6e d9 b0 bd c2 e6 07 3e
       0.30482236 0.47692224 -0.086352214 0.13271621
000240 af 6a 27 3f d6 36 00 3f 74 3e 3a 3d ff 59 a7 3d
       0.6539716 0.50083673 0.045469716 0.08171462
000250 3b e5 c7 3e 63 f0 1c 3f b7 62 d8 3e ed 59 10 3f
       0.39042076 0.613043 0.42262813 0.56387216
000260 cf d0 63 3d 70 20 ec 3e 43 5f d4 3d 01 84 f2 3e
       0.055619057 0.46118498 0.10369732 0.47366336
000270 23 f4 0c 3f 38 f4 06 3f 71 7f 23 3f 21 2a 03 3e
       0.55060023 0.527164 0.63866335 0.1280904
000280 83 98 cc bc 3c 64 30 bd 01 02 f6 3e 68 2f cf 3e
       -0.024975067 -0.04306434 0.48048404 0.40465856
000290 4a f2 fe bc 1b c9 f1 3e 7a e4 22 3f 4e e0 3a bd
       -0.031121392 0.47223744 0.6362988 -0.04562407
0002a0 00 b8 96 3e 66 e1 83 3e 36 f5 be 3e 56 cb 1b 3f
       0.29437256 0.25757903 0.37296456 0.6085714
0002b0 97 42 c5 3e 94 8f 7a 3e 6b 9a ba 3e 1e f4 77 3e
       0.38527367 0.24468833 0.36445937 0.24214217
0002c0 14 44 b6 3e 7e 1c 8d bd 66 b9 fa 3d 10 e9 bf 3d
       0.35598814 -0.068902 0.12242393 0.09370625
0002d0 1d 38 d5 3e d7 6f ac 3e 39 23 a8 3e 50 d6 42 3c
       0.41644374 0.33679077 0.32839373 0.011891916
0002e0 b7 a1 20 3c a4 1a ca 3e dd cb f3 3e d1 72 e4 3e
       0.009804181 0.3947345 0.47616473 0.44618848
0002f0 34 10 aa 3d 36 95 56 3e 5f 9d 3b 3e 2f 0f 17 3f
       0.08303872 0.20955357 0.18321751 0.59007543
000300 a6 49 1c be 12 09 64 3e 96 9f 79 3e 65 8d a5 be
       -0.1526247 0.22269085 0.24377283 -0.32334438
000310 80 7e 0d 3b 30 e7 89 bd a0 24 48 be 66 4c 1c 3e
       0.0021590292 -0.06733549 -0.19545221 0.15263519
000320 90 f1 2f bd e1 7b 9e 3e f8 99 62 be ee 36 28 3e
       -0.04295498 0.30953887 -0.22129047 0.16427204
000330 90 8d 9a be 2d 76 35 be e0 90 c5 3c ab 05 8f 3e
       -0.3018613 -0.17720862 0.024116933 0.27934012
000340 56 b1 3e 3e e1 a1 94 be d0 67 20 3d 09 6b 55 be
       0.18622336 -0.29029754 0.039161503 -0.20841612
000350 20 fe 7a 3c 68 cd 96 be d2 6c d4 bd 6a 4f 78 3e
       0.015319377 -0.29453588 -0.10372318 0.24249044
000360 7f 17 a6 be 83 96 ac be f4 e2 83 3d f8 84 46 3d
       -0.324398 -0.3370858 0.06439772 0.048466653
000370 5c 6c 84 bd 7b 11 9e 3e bf fa 59 be 59 c9 5b be
       -0.064659804 0.30872712 -0.21287058 -0.21463527
000380 dc 93 a9 be 70 43 c4 bd 64 72 24 be 08 9b 17 3e
       -0.3312062 -0.09583175 -0.16059262 0.14805233
000390 c4 f8 b9 bd 15 73 a5 3d 95 72 16 be 03 8e 61 3e
       -0.090806514 0.08078591 -0.14692147 0.2202683
0003a0 4b 9a 98 3e 84 1d a2 be c4 a1 1c be b2 3e ba be
       0.29805216 -0.31663144 -0.15296084 -0.36375958
0003b0 86 4c ac 3d fa 36 b7 be 19 2d 2b be 79 67 90 3e
       0.08413033 -0.3578413 -0.16716422 0.28203943
0003c0 20 4a cf be 8f 8e 85 3e 39 5c 1c bd 43 f5 5f 3e
       -0.4048624 0.26085326 -0.038173888 0.21870904
0003d0 3e b0 5e be 9f ec 28 3e ca 9b 2a bc 20 c3 de 3c
       -0.21746919 0.16496514 -0.01041312 0.027192652
0003e0 80 f1 31 3e 1b d7 ce be 21 2d a1 be b2 6f a1 3e
       0.17377281 -0.40398487 -0.31479743 0.3153053
0003f0 ac 10 82 be d2 ef a6 be 73 62 a1 bd dc a6 27 be
       -0.25403345 -0.32604843 -0.07880106 -0.16372246

bias f4 [16]
000000 e8 e7 6d bd 8a be d6 3e e1 ad 9d 3e e5 9c db 3e
       -0.05808249 0.41942245 0.30796722 0.4289314
000010 0a 52 da 3e b2 c7 b1 3e 0a d7 23 3c 74 88 6f bd
       0.42640716 0.34722668 0.01 -0.05847974
000020 39 7e 81 bc 0a d7 23 3c af d6 ee bc f2 e7 55 bd
       -0.015807258 0.01 -0.029155103 -0.052223153
000030 6e c7 d4 3e c8 dc d7 3e f4 bc d0 3e ab d2 d9 3e
       0.41558403 0.4216063 0.4076916 0.4254354

weight f4 [8, 16]
000000 5e d3 fb bc 3f f1 c5 3e b0 a6 25 bf 4a 57 93 3e
       -0.030740436 0.3866062 -0.6470747 0.28777534
000010 be dc 41 3f fd 77 97 bd 44 8d 79 3e 46 46 87 be
       0.7572745 -0.07395933 0.24370295 -0.26420802
000020 45 10 d3 be 48 39 d2 bd 0a 7d 98 3e 1b cb c7 3e
       -0.4122335 -0.10264832 0.29782897 0.39022145
000030 b4 76 ff 3e 36 56 a3 3e 7c 18 b0 3e ef 2f 2f 3e
       0.4989525 0.3190171 0.3439368 0.17108129
000040 40 c8 37 bd 20 81 0d bd b0 d8 d9 3e 90 d2 95 3e
       -0.044868708 -0.03454697 0.42548132 0.2926221
000050 7a db cc be 00 8d 07 3b 38 75 9d be f8 8c a2 bd
       -0.40011197 0.0020683408 -0.30753493 -0.07937044
000060 ec 75 cb be a0 19 05 3e 92 98 b8 be 84 ba fc 3e
       -0.39738405 0.12998056 -0.36053902 0.4936105
000070 f4 54 c1 3e 4a 38 b0 be c8 03 f1 be 00 d1 9f 3c
       0.37760127 -0.34417945 -0.47073197 0.019508839
000080 e2 ca aa bd f9 61 f3 3e cc 83 8d bf 66 71 e5 3e
       -0.08339478 0.47535685 -1.1055846 0.4481308
000090 f3 08 2b be 71 21 48 bd 64 94 86 be 67 db 94 3e
       -0.16702633 -0.048860017 -0.26285088 0.2907364
0000a0 00 7a 56 bc f8 05 f6 be ec 34 92 be a8 ba 80 be
       -0.0130906105 -0.4805143 -0.28556 -0.25142407
0000b0 14 b1 04 be a6 86 c9 3e 25 72 02 3f 5f 93 7d 3e
       -0.12958175 0.3936054 0.5095542 0.24763249
0000c0 db a4 0a be 0e 01 bb 3e 97 fb 94 bf 88 a7 58 3d
       -0.1353945 0.36524242 -1.1639279 0.052894145
0000d0 06 ec ad 3e 60 12 48 3f bc 71 1d be 4b 5e a4 3e
       0.33969134 0.7815304 -0.15375417 0.3210319
0000e0 3d 12 2f be 14 4b 08 be 27 49 d8 be 1d d2 ee 3e
       -0.17096801 -0.1330989 -0.4224331 0.4664468
0000f0 06 98 5a 3f c7 21 b4 3e ee 00 2f 3f 84 4d 47 3f
       0.8538822 0.3518202 0.68360794 0.77852654
000100 24 f7 48 3e b9 3c 3f 3e a8 b5 f3 be 34 a6 0c bf
       0.19625527 0.18675508 -0.4759953 -0.54941106
000110 cc 61 ed be 7c e1 b7 3d 1c 6f dd be 12 f6 e0 be
       -0.46363676 0.089785546 -0.43248832 -0.43937737
000120 16 4c 89 be 92 f3 eb be 58 27 1e bd b5 2c fc 3c
       -0.2681586 -0.46084267 -0.03861174 0.030783037
000130 44 4f b9 be 1c fe 80 3e a3 0d 84 be 1c 6b 56 be
       -0.36193287 0.2519387 -0.25791654 -0.20939296
000140 8e 8d a9 3e cc 99 b7 3e 90 f2 6a bd 9d 26 c7 be
       0.3311581 0.35859525 -0.057360232 -0.38896647
000150 a1 31 a5 be 5b 55 bd 3b b6 10 96 3e be 45 42 3e
       -0.32264426 0.0057779974 0.29309624 0.18971917
000160 18 17 62 be 8c 03 f2 be 55 6c ed be dc 8d 46 be
       -0.22079122 -0.4726833 -0.46371713 -0.19390053
000170 45 71 88 bd d1 62 98 be ce b0 ee be 49 8f 13 bc
       -0.066622294 -0.2976289 -0.46619266 -0.00900633
000180 98 32 cb be ae 96 c4 be 3a 1d d0 be 08 bd 0a be
       -0.39687037 -0.3839621 -0.40647298 -0.13548672
000190 34 1d e2 3e 94 26 48 3e 50 d4 72 bd 30 c0 d2 3d
       0.44162905 0.19545966 -0.05928451 0.10290563
0001a0 10 e2 4b 3e 00 ea 3e 3b a8 7b ce be 8e b9 9d be
       0.19910455 0.0029131174 -0.40328717 -0.3080563
0001b0 10 ea ad be 80 03 50 bc c4 57 ea be 50 2f ba bd
       -0.33967638 -0.012696147 -0.45770085 -0.090910554
0001c0 3b 49 00 be 8f e7 5c 3f 0e 6e b8 be 3c 56 26 3f
       -0.12527935 0.8629083 -0.36021465 0.64975333
0001d0 3a 71 c5 3e 30 08 36 3e 98 98 02 3e 6b 2d 92 be
       0.38562948 0.17776561 0.12753522 -0.28550276
0001e0 89 f1 3f be e8 b4 cd bd c2 9b 83 bd 6a 34 d8 be
       -0.18744482 -0.10044271 -0.06426193 -0.4222749
0001f0 af 7e 13 3f 4f d5 46 3f 68 5e cd 3d 29 01 04 3f
       0.5761518 0.77669233 0.10027772 0.5156427

bias f4 [8]
000000 e6 69 cf 3e 0a d7 23 3c d5 85 d1 3e b3 d5 c7 3e
       0.40510482 0.01 0.40922418 0.39030227
000010 7b 4c 76 bd 91 74 70 bd 0a d7 23 3c 3c 90 bc 3e
       -0.06013153 -0.058704916 0.01 0.36828792

weight f4 [4, 8]
000000 13 60 8f 3e 60 45 d3 bc 14 d3 c0 3e c1 62 7c 3f
       0.28002986 -0.025789917 0.3766104 0.98588187
000010 10 75 29 3e d3 db c7 be ef 3a 82 be 80 18 37 3f
       0.16548562 -0.390349 -0.25435588 0.7152176
000020 84 92 14 3f c0 2a 61 3c 0e a2 77 3e e1 2c bf 3d
       0.58036065 0.013743103 0.24182913 0.09334732
000030 78 2b 32 be 4d 28 ad be 10 4c ed 3d 12 d8 10 3f
       -0.17399395 -0.3381981 0.115867734 0.565797
000040 6b d2 46 3f 2c 94 23 be 39 3a 6d 3e 2c 4a 30 3f
       0.7766482 -0.15974492 0.23166741 0.6886318
000050 3d 96 7b 3e c7 4c 1b 3d 54 7e 5e 3e c8 d4 88 3e
       0.2456903 0.037915017 0.21727878 0.2672484
000060 f4 0c 2a bf e0 4f df 3c 9d e5 5b be 37 6e 13 3f
       -0.66426015 0.027259767 -0.2147431 0.5759005
000070 99 d7 14 3f 8b 8f ac 3d af cb 21 3f 48 df da be
       0.58141476 0.08425816 0.6320142 -0.42748475

bias f4 [4]
000000 42 b3 a8 3e da f3 ab 3e 9e 5b 8d 3e f1 d2 4e bd
       0.32949263 0.3358448 0.2760896 -0.05049414

weight f4 [1, 4]
000000 4a 19 a9 3f 1a 9a a6 3f 75 ca a5 3e cb d6 53 bf
       1.3210843 1.3015778 0.32381025 -0.82749623
